models/ecg/16/decoder.pt (torch, 42413 bytes, 39 tensors)

a f4 [32, 1]
-0.43943524 -0.12367913 -0.2642154 -0.4847595 0.123469174 0.46564585 -0.15932262 0.025178017
0.14500418 -0.14215684 -0.272342 -0.5159566 0.2147156 0.38094932 0.52662075 -0.52328545
-0.2808987 0.21451895 -0.5964178 0.2543829 -0.34930545 -0.5232185 -0.48397398 0.22981088
0.11807865 0.58908516 0.06521231 0.3449803 -0.37870216 0.5606982 0.07302332 -0.5031679
00000000: a8fd e0be 7c4b fdbd 3e47 87be 6632 f8be
00000010: 68dd fc3d 2269 ee3e 7825 23be 2142 ce3c
00000020: fa7b 143e 9091 11be 6970 8bbe bb15 04bf
00000030: 68de 5b3e ca0b c33e 9ed0 063f 09f6 05bf
00000040: f4d1 8fbe dbaa 5b3e d6ae 18bf 7a3e 823e
00000050: 2ad8 b2be a6f1 05bf 70cb f7be 8b53 6b3e
00000060: 38d3 f13d 49ce 163f 088e 853d 42a1 b03e
00000070: 40e5 c1be eb89 0f3f 408d 953d 9dcf 00bf

bias f4 [2, 2]
0.0019363778 -0.0019363774 0.0027639056 -0.0027639065
00000000: 0fce fd3a 0bce fdba a422 353b a822 35bb

weight f4 [32, 32]
-0.13357066 0.14527358 -0.13082314 0.00849691 0.037478194 -0.012389377 -0.07707575 -0.1721758
0.0017870532 0.15577714 0.10918431 -0.11071184 0.09010251 0.17571978 0.030814275 0.13861044
0.04820479 -0.14340706 -0.15390801 0.08458465 0.059513614 0.067830235 0.07048183 0.12136086
0.09830408 0.1657835 0.07829865 0.05549901 0.14155367 0.02824517 0.05868226 -0.103656575
-0.07209292 0.10810737 -0.17461143 0.095363304 -0.094919376 -0.026889682 -0.1743397 0.08389704
0.11459349 0.0010871139 0.04843256 0.10444133 0.006843686 0.07031858 0.020405054 0.07918693
-0.06361131 0.12544084 -0.040330242 0.12778181 0.0071334387 -0.0116675105 0.09744285 0.04091671
-0.048086986 -0.007663721 0.118764736 0.16455998 -0.06992984 -0.03051726 0.08127694 -0.012005819
-0.15715767 -0.10706117 0.04047495 0.064591095 -0.08289381 -0.1299864 0.11722843 0.08181517
-0.0006621331 0.020187542 -0.09927032 -0.009807199 0.06204827 0.06409638 -0.08582788 -0.16309433
0.09107153 -0.053941056 -0.1691841 -0.039290935 -0.11678179 0.031833634 -0.09235101 0.16890095
-0.014024779 -0.011990815 -0.053779818 -0.15181364 -0.08825442 -0.17623523 0.015580863 -0.16344857
-0.039115682 0.11466156 -0.030910134 -0.15499964 -0.15895495 0.116967335 0.14944918 -0.097197525
-0.12115238 0.12742041 0.16825874 0.01152581 0.11969529 0.0971476 -0.045663893 0.12895225
0.15700018 -0.16884527 0.15071836 -0.1456722 -0.07054509 -0.031836983 0.122257344 -0.12691735
0.072797194 0.011447755 0.17462014 0.11835368 0.1635845 0.14453578 -0.104423665 0.086047366
-0.16727032 -0.018872246 0.055422574 0.08100836 -0.16586925 -0.042185813 -0.0072805136 0.09297611
-0.12453899 -0.16144386 -0.12849396 0.09211935 0.157921 0.07963075 0.008437797 0.10932474
-0.004946381 0.15286823 0.06988558 -0.05905945 0.13656972 -0.06444344 -0.113785386 -0.15745841
-0.090249576 -0.086544275 -0.13577464 -0.016210556 -0.16414797 0.16442735 -0.16071883 0.030843228
0.009299045 0.04889374 -0.03101043 -0.04154251 -0.17650357 0.15757135 0.03892108 0.1572702
-0.04092056 -0.04153137 0.035245877 -0.17331767 0.041731317 -0.092590116 0.049241778 -0.1441195
-0.04147947 -0.040450837 -0.12096477 -0.065536976 0.12869498 0.104533754 -0.15753727 -0.1606951
0.01634604 0.103776686 -0.049353555 0.04892267 0.08071423 0.08768244 0.06884204 -0.057307992
0.16087818 -0.06739006 -0.04240764 0.12051059 0.027842516 0.1675733 0.0049408707 0.1617376
-0.011300236 0.17707835 -0.08243551 -0.12053754 -0.07145409 0.10986159 -0.16515277 0.019708842
-0.15906803 -0.08949095 -0.026940806 0.014980071 -0.13724537 0.13136162 -0.1016504 0.15847678
-0.010077918 -0.12550776 -0.14250423 0.13521002 -0.0040778234 -0.023313707 0.0365223 0.037999336
0.15040259 -0.02243103 0.016481847 0.08675553 -0.06254052 0.17397459 -0.17187497 -0.0920779
0.15642957 0.046159312 0.032215133 0.15610658 0.12523042 0.034782007 -0.16316901 0.12887715
-0.053280424 0.12375744 0.14999679 -0.03667312 0.08178479 0.0027924324 0.1732884 -0.14374924
-0.13462627 -0.11562604 -0.16092971 -0.0017739253 0.12875512 -0.09874088 -0.020805953 -0.14919871
00000000: bfc6 08be 99c2 143e 80f6 05be a036 0b3c
00000010: bc82 193d d0fc 4abc e4d9 9dbd da4e 30be
00000020: 8e3b ea3a 0b84 1f3e 069c df3d e4bc e2bd
00000030: aa87 b83d e3ef 333e 386e fc3c e5ef 0d3e
00000040: 6372 453d 4dd9 12be 109a 1dbe b83a ad3d
00000050: 8cc4 733d 94ea 8a3d c758 903d 0b8c f83d
00000060: a653 c93d 26c3 293e 0b5b a03d ee52 633d
00000070: 72f3 103e 6a62 e73c cf5c 703d e649 d4bd
00000080: 74a5 93bd 6667 dd3d 57cd 32be d64d c33d
00000090: 1765 c2bd c047 dcbc 1b86 32be 36d2 ab3d
000000a0: feaf ea3d 7d7d 8e3a 3861 463d 56e5 d53d
000000b0: 0041 e03b 3003 903d 8028 a73c c22c a23d
000000c0: a646 82bd 9073 003e 5331 25bd 3cd9 023e
000000d0: 9fbf e93b 1629 3fbc 1e90 c73d 4898 273d
000000e0: dcf6 44bd f41f fbbb ed3a f33d 6982 283e
000000f0: 6037 8fbd 55ff f9bc 8674 a63d 0eb4 44bc
00000100: f1ed 20be e342 dbbd 10c9 253d 5648 843d
00000110: 3bc4 a9bd 281b 05be 7615 f03d b68e a73d
00000120: 0093 2dba 5860 a53c 3d4e cbbd 60ae 20bc
00000130: 5426 7e3d f644 833d 87c6 afbd 3302 27be
00000140: b683 ba3d 4cf1 5cbd 993e 2dbe 88ef 20bd
00000150: 4b2b efbd fc63 023d 8722 bdbd 5ff4 2c3e
00000160: 30c8 65bc 2075 44bc 3a48 5cbd 0975 1bbe
00000170: bcbe b4bd 0277 34be e046 7f3c 105f 27be
00000180: c437 20bd aed3 ea3d 4037 fdbc 3ab8 1ebe
00000190: 16c5 22be 928c ef3d 3509 193e 7f0f c7bd
000001a0: bd1e f8bd 7f7a 023e 054c 2c3e c0d6 3c3c
000001b0: ce22 f53d 52f5 c63d 100a 3bbd 0f0c 043e
000001c0: a8c4 203e c6e5 2cbe ea55 1a3e 182b 15be
000001d0: f279 90bd 7f67 02bd 0f62 fa3d 9ff6 01be
000001e0: b216 953d 5d8f 3b3c 9fcf 323e 6a63 f23d
000001f0: b282 273e 3001 143e 13dc d5bd 9a39 b03d
00000200: e948 2bbe f899 9abc c802 633d b6e7 a53d
00000210: a1d9 29be 08cb 2cbd 6091 eebb 426a be3d
00000220: 4c0e ffbd 8a51 25be ec93 03be 12a9 bc3d
00000230: 0bb6 213e 7215 a33d b03e 0a3c a6e5 df3d
00000240: 4015 a2bb 7d89 1c3e 2c20 8f3d 52e8 71bd
00000250: efd8 0b3e ecfa 83bd 5008 e9bd c73c 21be
00000260: c5d4 b8bd 203e b1bd 8208 0bbe 00cc 84bc
00000270: 6816 28be a55f 283e 7a93 24be f0aa fc3c
00000280: 065b 183c cd44 483d 9609 febc 7b28 2abd
00000290: 5abd 34be 625a 213e b66b 1f3d 700b 213e
000002a0: 519c 27bd cc1c 2abd fb5d 103d 307a 31be
000002b0: 75ee 2a3d e39f bdbd bfb1 493d 1094 13be
000002c0: 60e6 29bd c7af 25bd 61bc f7bd 4038 86bd
000002d0: 9ec8 033e cb15 d63d 7351 21be 428d 24be
000002e0: 21e8 853c df88 d43d f426 4abd 2363 483d
000002f0: 814d a53d da92 b33d 0efd 8c3d c9bb 6abd
00000300: 40bd 243e cd03 8abd a2b3 2dbd 42ce f63d
00000310: fd15 e43c 5698 2b3e 07e7 a13b 8b9e 253e
00000320: a024 39bc 0754 353e f3d3 a8bd 63dc f6bd
00000330: 8656 92bd 1dff e03d cf1d 29be 7074 a13c
00000340: bbe2 22be 0847 b7bd f7b2 dcbc f96e 753c
00000350: 0d8a 0cbe a983 063e 162e d0bd bd47 223e
00000360: da1d 25bc 1b85 00be a1ec 11be 7f74 0a3e
00000370: 439f 85bb 63fc bebc 6898 153d 31a5 1b3d
00000380: 2303 1a3e 48c1 b7bc f004 873c e2ac b13d
00000390: 3f15 80bd 6526 323e feff 2fbe 5793 bcbd
000003a0: 132f 203e 8c11 3d3d 04f4 033d 67da 1f3e
000003b0: 673c 003e 9477 0e3d c715 27be 5ff8 033e
000003c0: 933c 5abd 8a74 fd3d c298 193e 8e36 16bd
000003d0: c97e a73d 3e01 373b 8472 313e 0033 13be
000003e0: 78db 09be 58cd ecbd c2ca 24be 0e83 e8ba
000003f0: 62d8 033e a938 cabd 3f71 aabc 8cc7 18be

bias f4 [32]
-0.10891287 0.12489869 -0.098336436 -0.04602459 -0.12218447 0.13830923 -0.011751859 0.14249186
-0.11568685 -0.103179194 -0.14373325 0.035138458 0.07608153 -0.16456024 -0.11380003 0.09736903
-0.021047715 -0.15724081 -0.045019325 -0.016694635 -0.16719598 0.13271241 0.078176364 0.09912376
0.10961108 0.09692271 -0.17292383 0.081568055 0.009935053 0.16797806 -0.17494644 0.13840003
00000000: b60d dfbd e2ca ff3d 9d64 c9bd 4884 3cbd
00000010: da3b fabd efa0 0d3e df8a 40bc 63e9 113e
00000020: 3aed ecbd 9d4f d3bd cf2e 13be 58ed 0f3d
00000030: a2d0 9b3d 7b82 28be fd0f e9bd 6a69 c73d
00000040: 426c acbc bc03 21be 2f66 38bd 30c3 88bc
00000050: 6c35 2bbe c3e5 073e ee1a a03d 6601 cb3d
00000060: c67b e03d 6a7f c63d f212 31be 270d a73d
00000070: a2c6 223c 7102 2c3e 2925 33be bdb8 0d3e

a f4 [32, 1]
0.23811448 0.11276871 -0.42577717 0.102011666 -0.3347155 -0.33278924 -0.17102805 -0.60138726
0.19615549 0.1307497 0.30341074 0.37420246 -0.2885053 0.37555575 -0.18976597 0.21983147
-0.13484967 -0.29759806 0.227427 -0.25288162 -0.4095053 0.42171127 -0.30224225 0.5994693
0.078688085 -0.12898374 0.47893405 0.11188365 -0.6004574 0.42792928 -0.2113677 -0.3335282
00000000: 48d4 733e 48f3 e63d 77ff d9be 7eeb d03d
00000010: d45f abbe 5a63 aabe fa21 2fbe 84f4 19bf
00000020: fcdc 483e 40e3 053e a758 9b3e 7797 bf3e
00000030: f7b6 93be d848 c03e 0352 42be 801b 613e
00000040: 0816 0abe c65e 98be a0e2 683e b379 81be
00000050: aeaa d1be 8aea d73e 7fbf 9abe d276 193f
00000060: 3827 a13d 5014 04be d836 f53e 4123 e53d
00000070: 93b7 19bf 8c19 db3e c670 58be 35c4 aabe

bias f4 [2, 2]
0.002492674 -0.0024926725 0.00044503648 -0.00044503642
00000000: 215c 233b 1b5c 23bb c953 e939 c753 e9b9

weight f4 [32, 32]
-0.03825155 0.015688151 -0.05540943 0.12679385 -0.090093985 -0.026093662 0.12670617 -0.11491867
-0.057729356 -0.13630904 -0.120994955 0.12614517 0.07817997 -0.06347965 -0.15769635 -0.14541541
0.15519737 0.051044494 -0.12092021 -0.04675068 0.06640984 -0.17416383 0.14361702 0.014604554
0.019746557 0.16303177 -0.160469 0.059651256 -0.1174239 0.06618756 -0.11255086 0.05348088
0.013407946 -0.09132674 -0.14602967 -0.007422298 -0.05651658 -0.0072998554 0.08750923 -0.07023138
-0.09287557 -0.030267626 -0.07244445 0.05670333 -0.05157034 0.07169905 0.0029953122 -0.04356779
-0.14468503 -0.02261056 0.0588993 0.024567083 0.010641992 -0.0059475303 -0.029361665 0.14824705
0.12164144 -0.031307727 0.12897153 0.016095802 7.416308e-05 -0.061199434 0.110520616 0.015591189
-0.013322284 0.06570651 -0.034357026 0.010902562 -0.1757494 0.15204604 0.031705875 -0.16361107
-0.07200451 0.036820877 -0.10404687 0.09032264 -0.040315263 0.0993449 -0.13898146 0.12936814
-0.15430412 0.113492645 0.1343012 0.014062752 -0.0028763497 0.078902595 0.09364108 -0.17215703
0.092419855 -0.098436154 0.13430957 0.16172084 0.016613467 0.041370083 0.044849902 0.018472256
-0.0041707177 0.030254787 0.13123377 -0.038914517 -0.012122721 -0.16815056 -0.056588992 0.14222191
-0.16455004 0.05006814 -0.100863434 0.03218843 0.038616076 0.14030404 0.07772289 0.17121433
0.026642077 0.06274365 -0.12737307 0.01673164 0.044225086 0.07102245 -0.14656557 -0.03027135
-0.16423924 0.03631561 0.06793431 0.10190901 0.08376392 0.1668556 -0.08359593 -0.044396095
-0.031804413 0.14496224 0.080550775 0.0011620522 -0.16519552 -0.14158289 0.030981362 0.101992324
0.08073856 0.1243632 -0.15157086 0.003968507 -0.076740034 -0.12143579 -0.124481894 -0.08718358
0.1012996 -0.15391313 0.06360638 -0.13859692 -0.1503654 -0.0777186 -0.0078537315 0.03428811
0.071472645 -0.0071202517 0.04343614 0.084120706 0.120447144 -0.10036471 -0.057688326 0.0101749
-0.11568275 0.0660408 0.11130755 -0.021478519 0.006392166 0.113570675 0.034097046 -0.17066762
0.15811627 0.09429179 0.010801956 -0.1411134 0.08715297 0.02065958 -0.09565855 -0.08237753
-0.08828388 -0.102177806 -0.10406219 -0.15090156 -0.060607 0.023697197 0.086492404 -0.14753014
0.046926215 -0.1610711 -0.008254692 -0.013693303 0.16007899 0.12993862 -0.06066872 -0.07177263
0.017987564 0.12940483 0.04525408 -0.007895812 0.16429885 -0.14143792 -0.06770124 0.14335419
-0.16186355 0.11072512 -0.06814374 -0.17460604 -0.11842971 0.056148037 -0.07880733 -0.0040244907
-0.08595972 -0.111891955 0.020293534 0.043070048 0.08604236 0.03913048 0.042280942 0.08780773
0.12630992 -0.11861737 -0.115473196 -0.17195246 -0.026535258 0.048484474 0.16920833 -0.15413794
-0.025435641 0.13092612 -0.14191464 -0.04066652 -0.12999085 0.07714786 -0.05841347 -0.08518023
-0.17449929 0.0080598295 0.11417706 -0.043249458 0.09744896 -0.1510275 -0.07015564 -0.06441522
-0.13239661 0.024941519 -0.1641626 -0.1750755 -0.1732543 0.06421797 -0.06040442 0.15603743
-0.060368046 0.006478712 0.11051096 0.12438764 0.011371598 0.04606867 -0.085651666 0.024399042
00000000: a8ad 1cbd 7084 803c 00f5 62bd 3fd6 013e
00000010: 3283 b8bd 60c2 d5bc 43bf 013e 7b5a ebbd
00000020: 9e75 6cbd 9994 0bbe 34cc f7bd 332c 013e
00000030: d21c a03d 9e01 82bd 277b 21be c7e7 14be
00000040: 0fec 1e3e 0814 513d 04a5 f7bd a47d 3fbd
00000050: e201 883d 0158 32be 5710 133e f047 6f3c
00000060: 88c3 a13c cdf1 263e fc51 24be e054 743d
00000070: f17b f0bd 588d 873d 1181 e6bd c40e 5b3d
00000080: 00ad 5b3c 8409 bbbd cd88 15be c036 f3bb
00000090: ee7d 67bd a033 efbb 0a38 b33d 78d5 8fbd
000000a0: 8c35 bebd d0f3 f7bc c15d 94bd c041 683d
000000b0: 6c3b 53bd f4d6 923d 004d 443b 2474 32bd
000000c0: 5028 14be c839 b9bc 6440 713d e840 c93c
000000d0: c05b 2e3c 80e3 c2bb e087 f0bc 13ce 173e
000000e0: 261f f93d 883c 00bd 1d11 043e 58db 833c
000000f0: 0088 9b38 42ac 7abd a258 e23d 3072 7f3c
00000100: b645 5abc 2291 863d f4b9 0cbd a9a0 323c
00000110: a7f7 33be f5b1 1b3e 05de 013d a989 27be
00000120: 1a77 93bd 7dd1 163d 8616 d5bd 14fb b83d
00000130: 9e21 25bd 5775 cb3d 2851 0ebe 1579 043e
00000140: e601 1ebe d56e e83d 4186 093e 7567 663c
00000150: 2481 3cbb af97 a13d e5c6 bf3d ef49 30be
00000160: 9f46 bd3d e598 c9bd 7388 093e 269a 253e
00000170: f718 883c ad73 293d 88b4 373d 2153 973c
00000180: 84aa 88bb e3d8 f73c 2562 063e d464 1fbd
00000190: 619e 46bc a92f 2cbe dcc9 67bd 9fa2 113e
000001a0: ce7f 28be 4014 4d3d 7d91 cebd 04d8 033d
000001b0: e42b 1e3d ddab 0f3e 2e2d 9f3d cf52 2f3e
000001c0: 7c40 da3c be7f 803d 166e 02be cb10 893c
000001d0: 5d25 353d 3874 913d 4915 16be 9ffb f7bc
000001e0: 552e 28be adbf 143d 2521 8b3d acb5 d03d
000001f0: 6b8c ab3d 32dc 2a3e 5834 abbd aed8 35bd
00000200: 5845 02bd fb70 143e cef7 a43d 0050 983a
00000210: 0429 29be 1bfb 10be a0cc fd3c 5ae1 d03d
00000220: 425a a53d 22b2 fe3d 6435 1bbe 400a 823b
00000230: e129 9dbd 54b3 f8bd 5df0 febd 4e8d b2bd
00000240: 2a76 cf3d 679b 1dbe 1044 823d 5aec 0dbe
00000250: 63f9 19be ee2a 9fbd f0ac 00bc b071 0c3d
00000260: 4060 923d 0051 e9bb 18ea 313d 7a47 ac3d
00000270: feac f63d 038c cdbd 984a 6cbd a0b4 263c
00000280: 14eb ecbd 6640 873d 36f5 e33d b8f3 afbc
00000290: 6075 d13b be97 e83d 58a9 0b3d 7ec3 2ebe
000002a0: 3be9 213e 0e1c c13d b0fa 303c 0880 10be
000002b0: 427d b23d 483e a93c a1e8 c3bd 8db5 a8bd
000002c0: 2ece b4bd 9942 d1bd 8f1e d5bd f085 1abe
000002d0: 0c3f 78bd a020 c23c ee22 b13d 2412 17be
000002e0: b435 403d d3ef 24be b03e 07bc e059 60bc
000002f0: bfeb 233e a10e 053e c47f 78bd 87fd 92bd
00000300: a85a 933c b382 043e 585c 393d 705d 01bc
00000310: f53d 283e 1ad5 10be f3a6 8abd 71cb 123e
00000320: 8fbf 25be dac3 e23d f28e 8bbd edcb 32be
00000330: 478b f2bd 7cfb 653d bd65 a1bd e0df 83bb
00000340: a60b b0bd 9c27 e5bd a03e a63c 386a 303d
00000350: fa36 b03d 4847 203d c82e 2d3d 8ad4 b33d
00000360: 6357 013e aaed f2bd 367d ecbd 4e14 30be
00000370: 7860 d9bc a897 463d f344 2d3e 56d6 1dbe
00000380: 685e d0bc 7f11 063e 1252 11be f091 26bd
00000390: 521c 05be b2ff 9d3d f642 6fbd f972 aebd
000003a0: f1af 32be 600d 043c aad5 e93d 5826 31bd
000003b0: 5293 c73d f4a6 1abe c3ad 8fbd 20ec 83bd
000003c0: fa92 07be 2852 cc3c 3e1a 28be fe46 33be
000003d0: 9369 31be b684 833d a06a 77bd 47c8 1f3e
000003e0: 7c44 77bd 604b d43b 9253 e23d f2be fe3d
000003f0: f04f 3a3c 80b2 3c3d 246a afbd 80e0 c73c

bias f4 [32]
-0.10156644 -0.107967936 0.15606545 -0.031219425 -0.053559393 0.07851799 0.022920862 0.1085826
0.0957801 -0.046479717 0.04119395 0.040051345 0.12770142 -0.041302606 0.12748067 -0.04429756
-0.11956989 0.14119221 0.12419688 -0.05202219 0.08245235 -0.044305738 0.15017502 0.103971
-0.17052472 -0.1284175 0.011467099 0.12871037 -0.019594127 0.04691904 -0.13906597 -0.12737545
00000000: 1102 d0bd 4b1e ddbd 9fcf 1f3e e1bf ffbc
00000010: 1861 5bbd 0ace a03d 88c4 bb3c 8e60 de3d
00000020: 5b28 c43d 8461 3ebd fdba 283d e10c 243d
00000030: 29c4 023e ec2c 29bd 4b8a 023e 5c71 35bd
00000040: 0fe1 f4bd b194 103e ef5a fe3d 3815 55bd
00000050: c7dc a83d ef79 35bd 7bc7 193e bfee d43d
00000060: 089e 2ebe e17f 03be 80e0 3b3c a7cc 033e
00000070: dd83 a0bc 2e2e 403d 4f67 0ebe b66e 02be

a f4 [4, 1]
0.55467314 0.6649989 -0.31194028 -1.2470099
00000000: 0fff 0d3f 5e3d 2a3f a3b6 9fbe 059e 9fbf

bias f4 [16, 16]
-0.00052107906 0.0013200538 -6.2177896e-05 -0.0027635144 -0.0013204098 0.000325063 -0.0010345958 0.0017916382
0.0028483164 0.0034119263 -0.0027646685 -0.0025917063 -0.00072536466 0.001995887 0.0021166936 -0.0038339118
-0.0020964032 -0.0024109452 -0.0015194768 0.0004109878 -0.0019796225 2.8736269e-05 -2.3304987e-05 6.999696e-05
-0.0019611719 0.00051161426 0.0024428659 -0.0021669804 0.0018269283 0.002402505 -0.0010682733 0.0032835815
-0.0013916201 -0.00092213345 0.00066236575 0.0008458286 0.0005238788 0.0011703192 5.3662774e-05 0.0027598226
-0.0039236983 -0.0014383126 0.00064429914 0.00084396126 0.0009277315 -0.0010462346 -0.00017913566 0.00052549917
0.001084623 0.0023308778 -0.001829284 -0.00060445763 -0.00012899534 0.0004250248 0.00054975034 0.0013704723
0.0017303773 -0.0044508893 -0.002307026 -0.00041824474 0.0012435877 5.802607e-05 -0.0005639096 0.0012479329
-0.00044877452 -0.0025853913 0.0014707588 -0.0010148379 0.0016999429 0.0023487315 0.0013790545 -0.0013433616
-0.00062463194 -0.00145195 -0.00012746184 0.0015770897 -0.0029222972 3.925007e-05 -0.00050568243 0.0016931754
-0.002098554 -0.002289835 -0.0024556476 -0.0012964787 0.0034668546 -0.00073487783 -0.00027705627 -0.002464023
0.0012635415 -0.0010386101 0.0013851753 0.002190747 -0.0015370111 0.0010028075 0.002136113 0.0018561583
-0.0032278735 0.00089095085 0.0014426664 -1.2553218e-05 -0.00018866756 0.00012042963 -0.0004106098 0.0020784494
0.00015519613 -0.0038939735 -0.0014163404 -5.051254e-05 -0.0008216151 0.0012647931 0.0006483634 0.0005872603
0.0008232327 0.0016417536 0.0005428427 0.0015595383 0.0013291042 -0.0015241816 -0.00041794876 -0.0015972247
0.00061852514 -5.9886977e-05 -0.0010360972 -0.00052110385 -0.0007056437 -0.00046864554 0.00019824784 -0.0010272302
3.43786e-05 -0.00032532972 -0.003672737 0.0007229052 0.00078082207 0.00093840435 -0.00018209792 0.0024527586
6.9170426e-05 -0.00043933615 -0.0032703525 0.0011426186 0.0023882638 -0.0005317864 0.0009982042 -0.0017696357
0.004331365 -0.00048400674 -0.00068055076 -0.001560941 -0.00035377123 0.0005568198 -0.0021379408 -0.00060706644
1.5061102e-05 -0.0011199604 -0.00018023282 0.0005888161 -0.0010117104 0.00044181317 0.0020318243 -0.0011950583
0.00023618781 -0.0024852531 0.0014428248 0.00022133223 -0.0016607576 0.00032961663 0.0004376828 -0.00012878694
-0.0019110397 0.0009176138 0.0030963726 0.0010438184 -0.0017149103 -0.0008222272 0.0012294027 -0.0005329722
0.0019491038 -0.0015021467 -0.0038938152 -0.00028911294 0.0028794806 0.0012353834 0.0025875147 0.0007385986
-0.00062629493 -0.0025417716 0.0014402869 1.2974934e-05 -0.0017384843 -0.0018303399 -0.00027579773 0.0005846497
0.0013582085 -0.00028816273 -0.00075238734 0.00072209566 0.0009897263 0.0022988208 -0.0040013655 0.00033736034
-0.0011996971 -0.0012220057 -0.0024221363 -3.280862e-05 0.0015415938 -0.0009761922 0.0011417092 0.0007909329
0.0030254403 -0.0023419636 -0.0011188765 0.0019490038 8.07856e-05 0.0030144 -0.0014248898 -0.00018288537
0.000511218 0.0023502244 -0.0014051023 -0.0024424873 -0.0019999184 0.00029220924 -0.0010159217 -0.00088569144
-0.00013791591 0.0031420095 0.0037756597 -0.0009181435 -0.0014837986 -7.1800765e-05 -0.0005515171 -0.00079708284
0.0008476178 -0.0024226015 0.0016367823 0.0015835306 0.0005137215 -0.0036469158 -0.0012974739 -0.0016448265
0.0031987021 0.000821952 0.0012953595 -0.0020020287 0.00021839082 0.0015816289 -0.00048674594 -0.002524596
-0.0008248008 0.0013705171 -0.0004125189 -0.004553415 -0.00082468195 0.0009946726 0.0020858687 -0.0015415375
00000000: 0699 08ba a805 ad3a 8165 82b8 141c 35bb
00000010: 9a11 adba 386d aa39 469b 87ba 67d5 ea3a
00000020: d2aa 3a3b a09a 5f3b 712f 35bb 9ed9 29bb
00000030: 6626 3eba 6dcd 023b 3ab8 0a3b 5e42 7bbb
00000040: cf63 09bb f300 1ebb 2e29 c7ba d979 d739
00000050: 8ebc 01bb ab0e f137 147f c3b7 55cb 9238
00000060: 0187 00bb da1d 063a 7d18 203b e603 0ebb
00000070: 8b75 ef3a 5873 1d3b 4e05 8cba 5b31 573b
00000080: 0667 b6ba 54bb 71ba 9da2 2d3a 99ba 5d3a
00000090: e954 093a 6565 993a f713 6138 24de 343b
000000a0: 5e92 80bb c385 bcba 2fe6 283a 483d 5d3a
000000b0: 0233 733a cf21 89ba 5dd6 3bb9 a7c1 093a
000000c0: e929 8e3a a4c1 183b 96c4 efba 7774 1eba
000000d0: ec42 07b9 ddd5 de39 1f1d 103a 6ba1 b33a
000000e0: d4cd e23a c4d8 91bb 7931 17bb dc47 dbb9
000000f0: e1ff a23a 0561 7338 55d3 13ba ae91 a33a
00000100: 7f49 ebb9 ab6f 29bb 7ac6 c03a 4f04 85ba
00000110: 9ed0 de3a 2ded 193b 64c1 b43a bc13 b0ba
00000120: 57be 23ba 5c4f beba 47a7 05b9 59b6 ce3a
00000130: 0384 3fbb 71a0 2438 c68f 04ba 8aed dd3a
00000140: e587 09bb 0e11 16bb eeee 20bb 9bee a9ba
00000150: 2b34 633b d1a4 40ba dd41 91b9 727b 21bb
00000160: 6b9d a53a f921 88ba c58e b53a a392 0f3b
00000170: 8975 c9ba a370 833a 07fe 0b3b 564a f33a
00000180: bb8a 53bb b38e 693a da17 bd3a a99b 52b7
00000190: 10d5 45b9 2a8f fc38 1d47 d7b9 9836 083b
000001a0: 25bc 2239 0932 7fbb 7fa4 b9ba 6ddd 53b8
000001b0: a861 57ba 6ac7 a53a eef6 293a 5ff2 193a
000001c0: 36ce 573a 1c30 d73a 8f4d 0e3a 6c69 cc3a
000001d0: 5635 ae3a 0cc7 c7ba 2220 dbb9 f859 d1ba
000001e0: 8524 223a 272f 7bb8 a7cd 87ba b09a 08ba
000001f0: f2fa 38ba 8ab4 f5b9 c0e0 4f39 20a4 86ba
00000200: be31 1038 0491 aab9 4db2 70bb 5981 3d3a
00000210: 15b0 4c3a 40ff 753a 8af1 3eb9 76be 203b
00000220: 970f 9138 b356 e6b9 6953 56bb ebc3 953a
00000230: 6b84 1c3b 9567 0bba 2dd6 823a 1ff3 e7ba
00000240: 20ee 8d3b 49c2 fdb9 fd66 32ba 7d98 ccba
00000250: 5f7a b9b9 8bf7 113a b21c 0cbb 8a23 1fba
00000260: f1ae 7c37 a3cb 92ba e1fc 3cb9 c85a 1a3a
00000270: 5e9b 84ba 29a3 e739 5b28 053b 81a3 9cba
00000280: 2fa9 7739 a1df 22bb 2b1d bd3a 6b15 6839
00000290: c7ad d9ba 65d0 ac39 ca78 e539 fb0a 07b9
000002a0: da7b faba 058c 703a 83ec 4a3b bcd0 883a
000002b0: d7c6 e0ba bc8a 57ba e923 a13a 29b7 0bba
000002c0: 1279 ff3a aee3 c4ba 612f 7fbb 1594 97b9
000002d0: abb5 3c3b 97ec a13a 4b93 293b 839e 413a
000002e0: f12d 24ba da93 26bb 02c8 bc3a ebae 5937
000002f0: dadd e3ba 04e8 efba f298 90b9 2d43 193a
00000300: ea05 b23a 8c14 97b9 dc3b 45ba 054b 3d3a
00000310: b4b9 813a d0a7 163b e31d 83bb bddf b039
00000320: 283f 9dba b52b a0ba b4bc 1ebb fd9b 09b8
00000330: 4e0f ca3a 26e7 7fba 67a5 953a 9c56 4f3a
00000340: 7746 463b a17b 19bb 44a7 92ba b775 ff3a
00000350: 706b a938 3d8d 453b 5ec3 baba ebc4 3fb9
00000360: 4203 063a 3906 1a3b 692b b8ba 2312 20bb
00000370: 1011 03bb a933 9939 ad28 85ba bf2d 68ba
00000380: 859d 10b9 2cea 4d3b 0f71 773b 91af 70ba
00000390: 057c c2ba be93 96b8 b093 10ba 53f3 50ba
000003a0: ab32 5e3a 82c4 1ebb 4d89 d63a 788e cf3a
000003b0: 44ab 063a 1801 6fbb 0010 aaba 3897 d7ba
000003c0: 51a1 513b 4478 573a 0dc9 a93a 7834 03bb
000003d0: d7ff 6439 a94e cf3a ef31 ffb9 b173 25bb
000003e0: 7237 58ba eca2 b33a 5947 d8b9 d034 95bb
000003f0: 782f 58ba ad5f 823a 12b3 083b 6a0d caba

weight f4 [4, 4]
-0.23828833 -0.40215227 -0.12448139 -0.11441596 0.31842986 0.3502783 -0.31476274 -0.045105506
0.12795722 0.29467028 0.25935745 0.094477 -0.28428215 -0.27587736 -0.05005908 0.044957638
00000000: db01 74be e7e6 cdbe 19f0 febd ea52 eabd
00000010: 3d09 a33e ad57 b33e 9528 a1be 8dc0 38bd
00000020: 3807 033e 06df 963e 80ca 843e 287d c13d
00000030: 6e8d 91be cc3f 8dbe c00a 4dbd 8025 383d

bias f4 [4]
0.4796334 -0.18601766 0.4453627 0.1476872
00000000: 8292 f53e 6a7b 3ebe 9406 e43e 503b 173e

a f4 [4, 1]
0.83596003 0.48579392 -1.2321211 0.81386197
00000000: 7a01 563f fbb9 f83e 25b6 9dbf 4259 503f

bias f4 [16, 16]
0.0030974431 0.0008220209 -0.005667062 0.003492693 -0.0031666064 -0.0013424893 -0.0014543497 0.002016341
0.0007234952 -0.0040164394 0.0060948166 0.0015029026 -0.006147471 0.00047043152 0.0017769451 0.0025551838
-0.00021557896 0.0016478759 -0.0034894415 -0.0008858733 0.00087340904 -0.0036172078 0.0015279034 0.00085937517
-0.0018522387 0.0017105589 -0.001999682 0.0015352969 0.0018417574 0.001377665 -0.0016351086 0.0020349314
0.0016337108 -0.0017244435 0.0051376643 -0.0010662635 -0.0025502285 -0.0021224201 -0.00031920648 0.0018962526
-0.0035679128 0.0006738733 -0.0024541018 0.001780518 0.0029500586 -0.001610921 -0.00034238189 0.0041430118
-0.00083555706 -0.0045333602 0.0009661948 0.0010474387 -0.0010412566 0.0016069101 0.0034658215 0.00053569383
0.0075536687 -0.002114273 -0.004689119 -0.0021824415 0.0010503889 0.0059011723 -0.0023666422 -0.00531617
0.005796968 0.002927641 -0.0015692818 -0.0017585966 -0.0028451479 -0.0024880432 0.00015670163 -0.0009633081
0.0029724638 0.002160881 0.0019429222 0.0011485528 -0.0016364449 -0.00084936863 -0.0025680296 -0.0033315755
-0.002362882 0.0017107215 -0.0023763236 -0.0007344283 0.0015628412 0.00389617 -0.0061163343 0.0033872596
0.002696571 -0.0018995305 -0.002966538 -0.0049941884 -0.00023811682 -0.0007917563 0.0041700406 0.00704641
-0.00093920063 -0.00094622216 0.0051828753 0.002933731 0.0018104006 -0.0031113036 -0.0041008242 -0.00027011748
0.0023441482 -0.0028316635 0.0046020686 -0.0009817823 0.00020933233 -0.000139527 0.0013090805 -0.0064635854
0.0018081313 -0.0020102477 -0.0014961091 -0.0008833435 -0.00035386928 0.005375463 0.0003022964 0.0041431524
-0.0058554453 3.695937e-05 0.0013987448 0.0006705679 -0.003626388 0.0026130073 0.00058570964 0.00025769023
-0.0022618663 0.007905012 0.00082686415 -0.0013113082 0.011331754 -0.0009841197 -0.002909587 -0.0023127792
0.0014661105 -0.0036709448 0.0056748735 -5.4965963e-05 -0.0021028852 -0.003139201 -9.6174816e-05 -0.0030857131
-0.0006067071 0.001749717 -0.0015239363 -0.0007086662 0.0022904668 0.0026717181 -0.0011167532 -0.0023489327
-0.0015668413 0.00025993222 0.0015970811 0.003781542 -0.0042018206 -0.0022745694 0.003674541 0.0019502117
-0.004586297 -0.003340021 0.0047329417 -0.0017365003 0.0027052627 0.0044956957 0.0011173626 0.0026531983
0.0022225187 -0.00281662 -0.0021981474 0.0028577398 -0.0012376332 0.0007033427 0.00014566342 -0.004018029
-0.0006757622 0.0055880295 0.004621267 0.0045246137 0.0003498628 -0.0028320926 -0.0030379624 -0.002270925
-0.001975194 -0.0010610392 -0.00071722915 -0.0036864833 0.0015113583 -0.0008764027 -0.0007745399 -0.0015010581
0.008602099 -0.0042560664 0.00057688326 -0.00022121197 0.00018432681 0.0017577707 0.006332212 -0.0004681629
0.0006559413 0.0046668705 -0.0032108454 0.0062511917 -0.0073002903 -0.00944726 -0.00022284953 -0.0008153365
0.0031177017 -0.0029098915 -7.9767895e-05 -0.0019398908 0.0035260401 -0.0034154532 0.00050685584 0.0035661478
0.0002184152 0.0012728588 0.0027460787 -0.007573208 0.00039414573 0.0015326539 -0.0030177012 0.00067004777
-0.0015369686 0.0025962591 -0.00064380496 0.0043950994 -0.00025750007 -0.005387871 -0.00020852305 -0.00040812147
0.0047666705 0.0023193331 -0.001032947 0.002005573 0.0021488385 2.7134388e-06 -0.0055093374 -0.005899385
-0.0013535134 0.0016543505 -0.000903311 -0.0056191897 0.006457479 0.0019639898 0.00079467805 -0.0022628284
0.0009586732 -0.004063235 -0.000111161375 0.0035430936 -0.004130368 0.005169177 -0.0025614942 0.00254333
00000000: 79fe 4a3b e47c 573a c3b2 b9bb aae5 643b
00000010: d786 4fbb 77f6 afba e19f beba 9724 043b
00000020: f1a8 3d3a 569c 83bb 07b7 c73b 0bfd c43a
00000030: b970 c9bb 40a4 f639 62e8 e83a df74 273b
00000040: 090d 62b9 8afd d73a 1daf 64bb f339 68ba
00000050: 7df5 643a ad0e 6dbb ee43 c83a b147 613a
00000060: d1c6 f2ba d534 e03a 190d 03bb 043c c93a
00000070: 2067 f13a c492 b43a 2451 d6ba 7c5c 053b
00000080: 3d22 d63a b906 e2ba da59 a83b dec1 8bba
00000090: bc21 27bb 4d18 0bbb 2b5b a7b9 ae8b f83a
000000a0: a5d3 69bb dfa6 303a ffd4 20bb 4560 e93a
000000b0: c555 413b 8a25 d3ba b881 b3b9 1ac2 873b
000000c0: 4909 5bba 958c 94bb 3c48 7d3a 364a 893a
000000d0: c67a 88ba f59e d23a d622 633b ce6d 0c3a
000000e0: c484 f73b 9d8f 0abb 2ea7 99bb 4b07 0fbb
000000f0: 34ad 893a 9f5e c13b ab19 1bbb 4433 aebb
00000100: 7ef4 bd3b aadd 3f3b 5cb0 cdba b680 e6ba
00000110: a975 3abb 700e 23bb 4650 2439 8386 7cba
00000120: abcd 423b 919d 0d3b a7a9 fe3a 098b 963a
00000130: fb7d d6ba 2aa8 5eba 634c 28bb 9056 5abb
00000140: 95da 1abb 4a3a e03a 18bc 1bbb a686 40ba
00000150: 40d8 cc3a e356 7f3b 886b c8bb c9fc 5d3b
00000160: f4b8 303b abf9 f8ba 406a 42bb 4aa6 a3bb
00000170: ffae 79b9 de8d 4fba d6a4 883b 92e5 e63b
00000180: b034 76ba e50b 78ba 1cd5 a93b d743 403b
00000190: f74a ed3a 03e7 4bbb 3560 86bb 8e9e 8db9
000001a0: 48a0 193b 6e93 39bb f3cc 963b 26af 80ba
000001b0: 3880 5b39 fe4d 12b9 7495 ab3a 7ccc d3bb
000001c0: d2fe ec3a 5cbe 03bb 1719 c4ba 2e90 67ba
000001d0: 8887 b9b9 a724 b03b 897d 9e39 48c3 873b
000001e0: 09df bfbb d204 1b38 1656 b73a 0dc9 2f3a
000001f0: b2a8 6dbb fd3e 2b3b 4f8a 193a 991a 8739
00000200: d23b 14bb 0684 013c eac1 583a 34e0 abba
00000210: d2a8 393c 94fd 80ba c5ae 3ebb ff91 17bb
00000220: 812a c03a 3c94 70bb 4af4 b93b 418b 66b8
00000230: 8fd0 09bb 0ebb 4dbb 76b1 c9b8 ad39 4abb
00000240: 6d0b 1fba c356 e53a d1be c7ba c9c5 39ba
00000250: a81b 163b fe17 2f3b 0560 92ba 8df0 19bb
00000260: 785e cdba 8347 8839 2655 d13a bfd3 773b
00000270: 6daf 89bb f110 15bb 91d0 703b 3f9e ff3a
00000280: a648 96bb 41e4 5abb cb16 9b3b 489b e3ba
00000290: c74a 313b a150 933b 7874 923a 48e1 2d3b
000002a0: ada7 113b 0b97 38bb cb0e 10bb eb48 3b3b
000002b0: 1438 a2ba 8860 383a 3abd 1839 aca9 83bb
000002c0: a225 31ba ca1b b73b ff6d 973b 3643 943b
000002d0: ca6d b739 a19a 39bb 8d18 47bb cdd3 14bb
000002e0: 4272 01bb 9112 8bba 6f04 3cba ed98 71bb
000002f0: c518 c63a 64be 65ba 7e0a 4bba 27bf c4ba
00000300: d1ef 0c3c 7976 8bbb fb39 173a 23f5 67b9
00000310: da47 4139 ff64 e63a 727e cf3b c373 f5b9
00000320: 7af3 2b3a 8cec 983b 0c6d 52bb ccd6 cc3b
00000330: 4637 efbb aec8 1abc b7ac 69b9 4ebc 55ba
00000340: 5b52 4c3b e1b3 3ebb 1049 a7b8 ef43 feba
00000350: 2315 673b ccd5 5fbb 85de 043a 08b6 693b
00000360: 6206 6539 0ed6 a63a 8ef7 333b ac28 f8bb
00000370: 58a5 ce39 55e3 c83a a0c4 45bb 25a6 2f3a
00000380: 1c74 c9ba 0026 2a3b 05c5 28ba c404 903b
00000390: 1301 87b9 bd8c b0bb fba6 5ab9 23f9 d5b9
000003a0: bb31 9c3b f4ff 173b f363 87ba ee6f 033b
000003b0: 87d3 0c3b 8618 3636 ac87 b4bb a14f c1bb
000003c0: 6068 b1ba cbd6 d83a 2dcc 6cba 2e21 b8bb
000003d0: 4399 d33b 48b6 003b f151 503a f64b 14bb
000003e0: 784f 7b3a e324 85bb 4f1f e9b8 3f33 683b
000003f0: 0a58 87bb 3362 a93b bede 27bb ffad 263b

weight f4 [4, 4]
-0.28763324 0.21345729 -0.4965039 0.1996277 0.34919745 0.019134436 0.16926973 -0.37137398
-0.090906166 0.45619226 -0.24430116 -0.21205467 0.24922603 -0.031696618 0.02944833 -0.07858074
00000000: aa44 93be 8c94 5a3e c235 febe 346b 4c3e
00000010: 02ca b23e d2bf 9c3c 0b55 2d3e bb24 bebe
00000020: 032d babd 0892 e93e 152a 7abe dc24 59be
00000030: 1c35 7f3e 50d4 01bd a03d f13c f0ee a0bd

bias f4 [4]
-0.20523995 -0.0076896637 0.2477902 -0.3881188
00000000: 6c2a 52be 93f9 fbbb b7bc 7d3e 82b7 c6be

weight f4 [32, 32]
0.05744499 0.0316585 0.19337325 -0.027560763 -0.09695779 0.0054945946 0.13179407 0.064499855
-0.113467254 -0.13200583 -0.15913802 -0.07444363 -0.06672185 -0.14489625 0.08056725 -0.18597688
-0.047264185 0.0046218066 0.08478669 0.10835794 0.08527637 0.13261619 -0.058648665 0.12483044
-0.03943063 0.039394807 0.09239029 -0.040477045 0.14894427 -0.061914634 0.053420268 0.098950185
-0.124996625 0.20040719 0.062390514 -0.14133479 0.053142138 -0.025770262 0.019459741 -0.055996697
-0.024500946 0.114055194 -0.04034883 0.118897535 0.07575261 0.17966059 -0.05263361 -0.077024765
0.023641352 0.10235947 -0.020006979 -0.046337437 -0.023975117 0.07881771 0.064075306 -0.06426426
0.04750651 0.18070705 0.12576972 -0.14360626 -0.06919514 0.12739654 -0.058546443 0.13593571
-0.09812841 0.07988814 -0.05558819 -0.034472454 0.014157017 0.18224157 -0.105690606 0.03298089
0.13855161 -0.10387703 -0.020481966 0.18384011 0.161189 0.1380926 0.02019188 -0.13056631
0.04542548 0.077608116 -0.01822786 -0.06568779 0.12638593 -0.023348594 -0.12426878 0.12752779
0.08077602 0.17117848 -0.043818124 0.13514704 0.06118209 0.054562822 -0.030506559 0.11272427
0.009803404 -0.07894738 -0.11138816 -0.06277441 -0.16956963 0.042167906 -0.07253232 -0.1739556
-0.12822844 0.022628754 -0.09994822 0.16024002 -0.025884239 -0.047560573 -0.092480935 0.075502716
0.03889496 0.0957245 -0.120212115 -0.11548779 -0.13228041 0.03342383 0.12837133 0.029567068
-0.07604375 -0.10232614 0.090086326 0.18601441 -0.008899851 -0.08082272 -0.037901945 0.023716811
-0.009433686 -0.09057047 0.07466175 -0.10829967 -0.12201776 0.05265441 -0.13285886 0.002520892
0.19276151 0.1285762 0.17705445 0.12894845 -0.04745719 0.10602259 0.14066386 0.053757157
0.13383515 0.005833502 0.01545654 0.11990405 0.16590916 0.1720001 0.029745864 -0.058004223
0.044642154 0.19326302 0.09150991 0.027463144 -0.12179096 -0.11121894 0.08999931 -0.01103227
0.00868298 -0.09077114 0.17729697 -0.007953157 -0.007704085 0.1352472 0.15702039 0.11654768
-0.11292735 -0.12619357 -0.16170122 -0.09659315 -0.049387082 0.16815066 -0.13286085 0.07973677
-0.0654847 0.12058756 -0.094879 0.047341067 -0.043952093 -0.04563576 -0.14541924 -0.16902928
0.16169971 -0.014391467 -0.1259515 0.03419301 -0.056452267 0.1474775 0.121023886 -0.04578354
-0.10424641 0.18180609 0.18806829 -0.049616933 0.07226728 0.14038838 0.16759162 0.16596867
0.08025152 -0.1546131 -0.015416332 0.113911286 0.17798632 -0.099668495 0.048169076 0.085379355
0.08603923 0.0924126 -0.097902626 0.025067205 0.09283993 -0.025116501 -0.12131418 0.1639895
0.04932584 0.1598857 0.15760715 0.10401034 -0.0052792835 -0.047136035 0.051491216 0.15308918
-0.14335318 0.07867683 -0.075012654 -0.07126192 0.13241287 0.12505288 0.0419043 -0.0022014577
-0.1002343 -0.15011898 -0.15042642 -0.0700029 0.13277622 0.16746536 -0.043214306 0.14488152
-0.02941683 0.1551603 -0.17221983 -0.15005054 0.12852998 -0.13837713 0.14517123 -0.049047936
0.10102061 -0.0034710816 0.009567316 -0.03314412 0.10432981 -0.087589 0.16293143 -0.06095724
00000000: 704b 6b3d 58ac 013d a303 463e 1cc7 e1bc
00000010: ce91 c6bd 000c b43b 06f5 063e 8018 843d
00000020: 8561 e8bd 892c 07be 14f5 22be e775 98bd
00000030: 77a5 88bd af5f 14be 7100 a53d b970 3ebe
00000040: 1798 41bd 8672 973b a5a4 ad3d c5ea dd3d
00000050: 61a5 ae3d 8acc 073e 9539 70bd 1aa7 ff3d
00000060: 0382 21bd 735c 213d 1f37 bd3d 42cb 25bd
00000070: d984 183e 339a 7dbd 36cf 5a3d 65a6 ca3d
00000080: 3bfe ffbd 8b37 4d3e 328d 7f3d 11ba 10be
00000090: 92ab 593d 281c d3bc 096a 9f3c cb5c 65bd
000000a0: 35b6 c8bc c595 e93d d144 25bd 8d80 f33d
000000b0: 2f24 9b3d f2f8 373e 5796 57bd 29bf 9dbd
000000c0: 82ab c13c d8a1 d13d ade5 a3bc 53cc 3dbd
000000d0: 7767 c4bc 2e6b a13d ea39 833d fb9c 83bd
000000e0: 3096 423d 450b 393e c7c9 003e 850d 13be
000000f0: 2eb6 8dbd 3d74 023e 65ce 6fbd bb32 0b3e
00000100: 8cf7 c8bd 659c a33d 71b0 63bd fd32 0dbd
00000110: d5f2 673c 899d 3a3e 5174 d8bd f816 073d
00000120: 79e0 0d3e 7bbd d4bd ccc9 a7bc 9540 3c3e
00000130: bb0e 253e 2668 0d3e 7169 a53c 2db3 05be
00000140: 1110 3a3d 01f1 9e3d 9852 95bc 5287 86bd
00000150: 506b 013e 8d45 bfbc a180 febd a596 023e
00000160: e66d a53d 6949 2f3e a27a 33bd fc63 0a3e
00000170: 129a 7a3d 447d 5f3d e4e8 f9bc fbdb e63d
00000180: 759e 203c 2aaf a1bd 7a1f e4bd df8f 80bd
00000190: a9a3 2dbe 41b8 2c3d d38b 94bd 6b21 32be
000001a0: 514e 03be f05f b93c a7b1 ccbd f615 243e
000001b0: 2f0b d4bc e0ce 42bd a566 bdbd 2ba1 9a3d
000001c0: 5250 1f3d 350b c43d c531 f6bd dd84 ecbd
000001d0: 8474 07be 6de7 083d c673 033e a336 f23c
000001e0: d3bc 9bbd 5e90 d1bd 2e7f b83d 907a 3e3e
000001f0: aed0 11bc 6286 a5bd 123f 1bbd c249 c23c
00000200: bf8f 1abc 037d b9bd 42e8 983d 38cc ddbd
00000210: 73e4 f9bd 27ac 573d 270c 08be 8d35 253b
00000220: 4663 453e 7ba9 033e c34d 353e 100b 043e
00000230: 7862 42bd 5f22 d93d 300a 103e 7730 5c3d
00000240: 150c 093e f626 bf3b 6d3d 7d3c 4190 f53d
00000250: 17e4 293e cb20 303e 99ad f33c d695 6dbd
00000260: b1da 363d bee6 453e 8c69 bb3d 63fa e03c
00000270: 8a6d f9bd c1c6 e3bd 8f51 b83d b2c0 34bc
00000280: 0f43 0e3c 38e6 b9bd 568d 353e f54d 02bc
00000290: 8d72 fcbb 3e7e 0a3e f4c9 203e 8db0 ee3d
000002a0: 7446 e7bd e338 01be 0195 25be a1d2 c5bd
000002b0: 1c4a 4abd b02f 2c3e ad0c 08be 084d a33d
000002c0: d81c 86bd 9cf6 f63d ec4f c2bd b5e8 413d
000002d0: 1c07 34bd 90ec 3abd c8e8 14be 0316 2dbe
000002e0: 9c94 253e 30ca 6bbc 6ef9 00be f80d 0c3d
000002f0: 7e3a 67bd 5704 173e 5fdb f73d 8587 3bbd
00000300: 247f d5bd 602b 3a3e f994 403e 203b 4bbd
00000310: de00 943d f9c1 0f3e 239d 2b3e b1f3 293e
00000320: e95a a43d e652 1ebe c894 7cbc 524a e93d
00000330: 0c42 363e ff1e ccbd f04c 453d 5fdb ae3d
00000340: 5635 b03d d142 bd3d 2c81 c8bd bd59 cd3c
00000350: dc22 be3d 1fc1 cdbc 9273 f8bd ddec 273e
00000360: e409 4a3d 14b9 233e c563 213e 6003 d53d
00000370: d7fd acbb b711 41bd 74e8 523d 69c3 1c3e
00000380: 2dcb 12be 5121 a13d 3ca0 99bd c5f1 91bd
00000390: 3d97 073e dd0d 003e d8a3 2b3d 5546 10bb
000003a0: a447 cdbd cab8 19be 6209 1abe ae5d 8fbd
000003b0: 7df6 073e 0a7c 2b3e 7c01 31bd d25b 143e
000003c0: 90fb f0bc 57e2 1e3e 655a 30be d9a6 19be
000003d0: 5d9d 033e bcb2 0dbe c4a7 143e 7de6 48bd
000003e0: e5e3 ce3d 167b 63bb 3bc0 1c3c 21c2 07bd
000003f0: deaa d53d dd61 b3bd 7fd7 263e 4dae 79bd

bias f4 [32]
0.099538065 -0.04612263 0.1460238 0.1726648 0.05417782 0.021765094 -0.08111933 -0.16046432
-0.15739222 -0.07650215 -0.008193806 -0.103275605 0.016698567 -0.05037003 -0.13864665 0.0043330016
0.1360898 -0.048777767 0.16575955 -0.034902092 -0.16010097 -0.10248697 0.016797554 0.121041484
-0.17099631 -0.14379486 0.067631386 -0.0502048 0.073873445 -0.065748185 0.05451637 0.016170107
00000000: 9dda cb3d 15eb 3cbd 4387 153e 0bcf 303e
00000010: 90e9 5d3d b64c b23c e421 a6bd c250 24be
00000020: 6d2b 21be 29ad 9cbd 503f 06bc 2982 d3bd
00000030: 6fcb 883c ce50 4ebd 63f9 0dbe dafb 8d3b
00000040: 205b 0b3e 32cb 47bd dfbc 293e 7ff5 0ebd
00000050: 82f1 23be b0e4 d1bd 069b 893c 99e4 f73d
00000060: a819 2fbe f63e 13be 5382 8a3d 8ca3 4dbd
00000070: f64a 973d fca6 86bd 8f4c 5f3d 2c77 843c

weight f4 [32]
0.92120713 0.9356477 0.9435691 0.95099974 0.9191805 1.0445527 0.95008236 0.99723667
1.0481302 1.0898144 0.98854905 0.9814661 0.93268734 0.94115627 0.9420098 1.0755991
1.0382766 1.0678135 1.0867535 1.0694063 0.943053 0.9147917 0.93444216 0.9218154
1.0655348 0.9467568 0.9240252 1.1121285 0.91885304 0.9869692 0.9330947 1.1274586
00000000: 3bd4 6b3f 9c86 6f3f bf8d 713f b874 733f
00000010: 6a4f 6b3f e7b3 853f 9938 733f e74a 7f3f
00000020: 2129 863f 0a7f 8b3f 8d11 7d3f 5d41 7b3f
00000030: 99c4 6e3f 9eef 703f 8e27 713f 3bad 893f
00000040: 3fe6 843f 1dae 883f bd1a 8b3f 4ee2 883f
00000050: ec6b 713f ca2f 6a3f 9a37 6f3f 18fc 6b3f
00000060: 7263 883f a75e 723f ea8c 6c3f 3a5a 8e3f
00000070: f439 6b3f 03aa 7c3f 4bdf 6e3f 9050 903f

bias f4 [32]
0.06743413 0.104848914 -0.015042479 0.09834947 0.041075494 -0.053250745 0.037257105 -0.22604464
0.24554223 -0.07042388 0.007848344 0.09905158 0.07431988 -0.008241251 0.06747592 0.19546749
-0.098083965 0.24401459 -0.24800807 -0.21983644 -0.11852247 -0.017645009 -0.098058455 -0.036784194
-0.21482399 -0.20829602 -0.104063615 -0.08645696 0.050042752 -0.10065049 -0.0028678982 -0.20225123
00000000: e81a 8a3d 07bb d63d bb74 76bc 726b c93d
00000010: c73e 283d 741d 5abd e89a 183d 3f78 67be
00000020: 6c6f 7b3e 653a 90bd 5796 003c 8edb ca3d
00000030: 0535 983d 5006 07bc d130 8a3d a128 483e
00000040: 3fe0 c8bd f6de 793e d4f5 7dbe ce1c 61be
00000050: e9bb f2bd 448c 90bc dfd2 c8bd 06ab 16bd
00000060: d2fa 5bbe 8d4b 55be 4e1f d5bd 5910 b1bd
00000070: a1f9 4c3d d821 cebd 59f3 3bbb f21a 4fbe

running_mean f4 [32]
0.29025045 0.44103193 0.8629961 -0.003554919 0.931117 -0.0005500423 1.1301429 -0.0009640522
-0.00048138847 -0.003617894 -0.0006073035 -0.00078951 0.033356644 0.47152376 0.86821103 -0.01481587
-0.002906042 -0.012274067 -0.0024206906 -0.0107286675 0.6382294 0.05913505 0.049660373 0.2765078
-0.0007527169 -0.0006894432 0.9547141 -0.005711859 0.70874524 -0.0006449305 0.28208762 -0.0037341004
00000000: b59b 943e f0ce e13e 50ed 5c3f a5f9 68bb
00000010: af5d 6e3f b730 10ba 86a8 903f 73b8 7cba
00000020: de62 fcb9 301a 6dbb 7333 1fba 1ff7 4eba
00000030: faa0 083d 906b f13e 1443 5e3f 43be 72bc
00000040: 4b73 3ebb 2b19 49bc 73a4 1ebb 4bc7 2fbc
00000050: 0163 233f 9837 723d ad68 4b3d 6e92 8d3e
00000060: fa51 45ba c0bb 34ba 2568 743f 8c2a bbbb
00000070: 5470 353f 8e10 29ba ca6d 903e cfb7 74bb

running_var f4 [32]
0.00016678077 0.00014475205 0.0002348534 2.2430166e-08 0.00028620526 1.5449908e-08 0.00040226022 2.0032356e-08
7.830235e-09 3.4050096e-08 6.662582e-09 1.715761e-08 9.181318e-05 0.00013610329 0.0003702928 6.3878595e-08
2.0993715e-08 4.4699963e-08 2.2818309e-08 4.2307335e-08 0.0002256947 0.00016975483 0.00016650322 0.00019085087
1.07609965e-08 2.2391461e-08 0.0002156089 3.060737e-08 0.0001780883 7.748278e-09 9.03917e-05 3.0507923e-08
00000000: dfe1 2e39 95c8 1739 fb42 7639 75ac c032
00000010: d20d 9639 b5b6 8432 74e6 d239 9e13 ac32
00000020: bd85 0632 7a3e 1233 b1ec e431 fc61 9332
00000030: d38b c038 f3b6 0e39 dc23 c239 a12d 8933
00000040: ab55 b432 21fc 3f33 fe01 c432 68b5 3533
00000050: 76a8 6c39 3700 3239 5e97 2e39 241f 4839
00000060: 5ddf 3832 5857 c032 1315 6239 2975 0333
00000070: 37bd 3a39 491d 0532 ad90 bd38 d107 0333

weight f4 [32, 32]
0.041853163 0.04220663 0.04404969 0.059412505 0.01866213 -0.052708577 0.10663736 0.1418139
-0.15307489 0.025565822 -0.17178378 -0.1681349 0.06962579 -0.05861187 -0.1415135 0.05872299
-0.1518507 0.010411735 0.31166744 0.09111343 0.006433648 -0.07604676 0.039048776 0.0120295985
-0.055202086 0.17807376 0.035988905 0.27614337 0.042971287 -0.03061167 0.06542858 0.16625646
0.08818885 -0.076367974 0.03621154 0.1786333 0.03033856 0.013292264 0.039910972 -0.11609728
0.3288347 0.0009793424 0.13209017 -0.12567522 -0.010964181 0.016072411 0.09406701 0.27433655
0.023831714 0.20145424 -0.0850896 0.12516071 -0.12524426 0.063841 -0.06734194 -0.07421429
-0.05534002 -0.12505504 0.023520835 0.026388789 0.077235125 -0.086573124 -0.027884418 -0.08409918
0.05266065 -0.027340772 0.031140635 0.09176781 -0.05808862 -0.02364888 0.12274232 -0.2245577
0.17876966 -0.12690522 0.029911622 0.13177553 -0.04941849 -0.074486345 0.12315742 0.0728885
-0.083872475 -0.008367326 -0.1870507 -0.0074914456 0.012030261 0.024624864 0.01733879 0.07631112
-0.12183054 -0.23653771 -0.03809481 -0.19918196 -0.116928674 -0.046741594 0.015231247 -0.044546533
-0.07739801 -0.102594435 -0.061450716 -0.30436826 -0.024112063 -0.11049094 0.10086109 0.23294595
-0.31787953 -0.055737313 0.11348477 -0.11259212 -0.026272453 -0.05515653 -0.019860547 -0.17677549
0.13251895 -0.3085294 0.33534664 0.24207523 0.14079498 -0.05962701 -0.0126349 0.08585201
0.29295263 0.20040567 0.012238388 0.16156404 0.075005665 -0.084236026 -0.06744004 0.10016521
0.022387354 -0.13506593 0.04120593 0.30351767 0.006087796 -0.21140996 -0.040082134 -0.20829573
0.24667226 -0.24532244 0.09663372 0.005130244 -0.07097814 0.038066756 0.086539716 0.24392779
-0.15066366 0.15840319 -0.14686844 -0.28638455 0.05154382 -0.013873011 -0.1015958 -0.085413575
-0.22752678 -0.0334066 -0.024227424 -0.06341728 0.07810298 -0.09162647 0.010333607 -0.19256441
0.038441565 0.06690333 -0.045700125 0.26958892 0.06320406 -0.04400943 -0.027140634 -0.022228524
-0.050543383 -0.1459716 -0.10590046 0.020654263 0.048688035 0.052149646 0.003831135 0.30854502
0.008683706 0.24013571 -0.21439469 -0.16047616 -0.00977417 -0.021680344 -0.086669534 -0.10609921
-0.2612293 -0.23896155 -0.031308636 0.15793559 0.09553569 -0.14183712 0.051709253 0.014000428
0.07540026 -0.08704449 0.088623665 0.025063662 0.08256073 0.07952101 -0.040941454 0.32343307
-0.13904998 -0.14931288 -0.10453103 0.076422244 0.025802184 -0.01818823 0.09085082 -0.07170427
0.034268517 -0.23299634 0.1717207 0.23069248 -0.055057317 0.052763037 -0.057260465 -0.025470981
0.21238226 0.041806273 -0.055054225 0.13986096 0.04295733 0.075384036 0.012839119 0.07419337
0.009927542 -0.062125407 0.08418185 -0.066486895 -0.039720014 -0.18352225 0.07072255 -0.116092816
0.084178716 0.011341942 0.061172172 0.07966697 -0.086516164 0.02959652 -0.07944693 0.0067312014
-0.22957973 0.32840782 -0.26977175 -0.04446099 0.1298934 -0.026594194 -0.036696546 -0.06114716
-0.081642866 0.0171872 -0.105894834 -0.047889266 0.060313154 -0.029208843 0.05243094 -0.2813218
00000000: 396e 2b3d dce0 2c3d 736d 343d 875a 733d
00000010: 53e1 983c f3e4 57bd b064 da3d aa37 113e
00000020: aabf 1cbe 6a6f d13c 16e8 2fbe 8e2b 2cbe
00000030: f797 8e3d 0013 70bd eae8 10be 8587 703d
00000040: c07e 1bbe fb95 2a3c e092 9f3e ae99 ba3d
00000050: 5ad1 d23b 67be 9bbd 9cf1 1f3d cb17 453c
00000060: 951b 62bd f858 363e 1a69 133d aa62 8d3e
00000070: a902 303d 53c5 fabc 6bff 853d 223f 2a3e
00000080: 5b9c b43d d066 9cbd 8d52 143d a6eb 363e
00000090: 9288 f83c ccc7 593c b079 233d 69c4 edbd
000000a0: 065d a83e 475d 803a a542 073e 01b1 00be
000000b0: 1ca3 33bc 4aaa 833c 34a6 c03d d775 8c3e
000000c0: ba3a c33c 054a 4e3e 7543 aebd 212a 003e
000000d0: 0840 00be 12bf 823d 92ea 89bd a9fd 97bd
000000e0: 38ac 62bd 6e0e 00be c4ae c03c 4d2d d83c
000000f0: 732d 9e3d 404d b1bd dd6d e4bc 313c acbd
00000100: b2b2 573d c1f9 dfbc a51a ff3c c3f0 bb3d
00000110: 55ee 6dbd 4cbb c1bc 5360 fb3d 74f2 65be
00000120: 650f 373e 71f3 01be 3809 f53c 2af0 063e
00000130: 0b6b 4abd 4c8c 98bd f539 fc3d 9146 953d
00000140: 55c5 abbd 1c17 09bc 388a 3fbe cd7a f5bb
00000150: 921a 453c 15ba c93c 140a 8e3c 0149 9c3d
00000160: 4a82 f9bd f136 72be 4e09 1cbd 5bf6 4bbe
00000170: 4d78 efbd 1d74 3fbd 7b8c 793c 6d76 36bd
00000180: d982 9ebd 081d d2bd bfb3 7bbd 28d6 9bbe
00000190: a986 c5bc 1349 e2bd 4290 ce3d 6289 6e3e
000001a0: 1bc1 a2be cf4c 64bd b46a e83d b396 e6bd
000001b0: 5439 d7bc d0eb 61bd 96b2 a2bc a204 35be
000001c0: 0cb3 073e 91f7 9dbe 8eb2 ab3e 92e2 773e
000001d0: 8f2c 103e 743b 74bd 9d02 4fbc 2ed3 af3d
000001e0: e3fd 953e 2537 4d3e 8583 483c 0b71 253e
000001f0: 929c 993d f083 acbd 011e 8abd 6b23 cd3d
00000200: af65 b73c b94e 0abe 8dc7 283d ab66 9b3e
00000210: 227c c73b da7b 58be 2a2d 24bd 7a4b 55be
00000220: a797 7c3e ce35 7bbe e6e7 c53d 9b1b a83b
00000230: fd5c 91bd e3eb 1b3d bc3b b13d 35c8 793e
00000240: 9347 1abe 7234 223e ae64 16be ffa0 92be
00000250: 9d1f 533d a04b 63bc 7511 d0bd 50ed aebd
00000260: c8fc 68be 5cd5 08bd 9778 c6bc ebe0 81bd
00000270: 75f4 9f3d a9a6 bbbd 4a4e 293c 9b2f 45be
00000280: e774 1d3d 9d04 893d 0e30 3bbd 8f07 8a3e
00000290: 2171 813d 3b43 34bd 0956 debc 9818 b6bc
000002a0: 9406 4fbd 9479 15be 57e2 d8bd 2133 a93c
000002b0: 1b6d 473d de9a 553d c813 7b3b 9df9 9d3e
000002c0: 1a46 0e3c 23e6 753e 488a 5bbe dd53 24be
000002d0: d723 20bc fa9a b1bc cc7f b1bd 8b4a d9bd
000002e0: d9bf 85be 56b2 74be 7c3d 00bd deb9 213e
000002f0: 37a8 c33d c03d 11be 15cd 533d 0d62 653c
00000300: 746b 9a3d 6244 b2bd 5380 b53d 4f52 cd3c
00000310: 9a15 a93d e9db a23d 3ab2 27bd 0599 a53e
00000320: 1e63 0ebe 7ae5 18be 5d14 d6bd 4483 9c3d
00000330: 1a5f d33c 7cff 94bc ff0f ba3d b0d9 92bd
00000340: 255d 0c3d 9896 6ebe 8dd7 2f3e a63a 6c3e
00000350: c883 61bd 0e1e 583d f389 6abd 85a8 d0bc
00000360: bc7a 593e 0e3d 2b3d 8a80 61bd b637 0f3e
00000370: 06f4 2f3d f262 9a3d 2b5b 523c b2f2 973d
00000380: 21a7 223c 3677 7ebd 8967 ac3d 482a 88bd
00000390: 74b1 22bd 42ed 3bbe fcd6 903d 12c2 edbd
000003a0: e465 ac3d 8dd3 393c ac8f 7a3d 7028 a33d
000003b0: 632f b1bd 6774 f23c 12b5 a2bd 6991 dc3b
000003c0: f316 6bbe 1225 a83e 861f 8abe ba1c 36bd
000003d0: c702 053e 11dc d9bc 1e4f 16bd 7275 7abd
000003e0: 6034 a7bd 2ccc 8c3c 64df d8bd 8927 44bd
000003f0: ed0a 773d 6247 efbc d3c1 563d 6909 90be

bias f4 [32]
-0.13615398 0.13235214 0.24179496 0.015570406 0.021623064 0.1328821 -0.13585122 0.18697159
-0.11276239 -0.16809793 -0.15179247 0.2493863 0.011201448 -0.22106805 -0.05476205 -0.08243547
0.20426798 0.030189432 0.10336272 0.15906224 0.19445981 0.19487798 -0.015947334 -0.041608464
-0.15878373 -0.06972362 0.11811685 0.02364222 0.04625297 -0.15214828 0.012060035 0.13696298
00000000: f36b 0bbe 5287 073e 1999 773e 041b 7f3c
00000010: da22 b13c 3f12 083e 951c 0bbe 7b75 3f3e
00000020: f8ef e6bd dd21 2cbe 7c6f 1bbe 1f5f 7f3e
00000030: 4786 373c aa5f 62be 2c4e 60bd edd3 a8bd
00000040: a02b 513e d44f f73c d5af d33d 36e1 223e
00000050: 7920 473e 188e 473e fca3 82bc a36d 2abd
00000060: 3498 22be 42cb 8ebd 3fe7 f13d 54ad c13c
00000070: c173 3d3d c2cc 1bbe 7497 453c 0640 0c3e

bias f4 [2]
-0.14824238 0.15624776
00000000: dacc 17be 6aff 1f3e

weight_orig f4 [2, 2, 7]
0.20742509 0.08609393 -0.035840064 0.12609974 0.12410465 0.05433628 -0.04637386 0.09210557
-0.102205426 -0.0048400164 0.14589986 -0.116286725 -0.026294261 0.118502736 0.09843847 0.25218967
0.26352516 0.11637023 -0.17667224 -0.07568355 -0.00061517954 -0.076711506 -0.10185768 -0.13707255
0.047810733 0.002501905 -0.072264135 -0.15994313
00000000: 3e67 543e 0452 b03d 08cd 12bd 4a20 013e
00000010: 942a fe3d b88f 5e3d 84f2 3dbd d8a1 bc3d
00000020: 1451 d1bd 0099 9ebb c666 153e bc27 eebd
00000030: 1067 d7bc 90b1 f23d 1c9a c93d 011f 813e
00000040: c5ec 863e 8453 ee3d 91e9 34be faff 9abd
00000050: 0044 21ba ec1a 9dbd c29a d0bd bf5c 0cbe
00000060: 30d5 433d 00f7 233b 38ff 93bd 22c8 23be

weight_u f4 [2]
-0.30853057 0.9512144
00000000: b8f7 9dbe c982 733f

weight_v f4 [14]
0.40736118 -0.46465737 -0.32343802 0.16739602 0.016315121 0.3839358 -0.1570005 0.22788604
-0.13069083 0.0129385665 0.040912703 0.14060509 0.35399672 -0.31186187
00000000: a591 d03e 92e7 edbe ab99 a5be dd69 2b3e
00000010: 4aa7 853c 3c93 c43e bdc4 20be f55a 693e
00000020: d1d3 05be 48fc 533c 1494 273d c8fa 0f3e
00000030: 0f3f b53e 5cac 9fbe

weight f4 [2, 2, 7]
0.20742509 0.08609393 -0.035840064 0.12609974 0.12410465 0.05433628 -0.04637386 0.09210557
-0.102205426 -0.0048400164 0.14589986 -0.116286725 -0.026294261 0.118502736 0.09843847 0.25218967
0.26352516 0.11637023 -0.17667224 -0.07568355 -0.00061517954 -0.076711506 -0.10185768 -0.13707255
0.047810733 0.002501905 -0.072264135 -0.15994313
00000000: 3e67 543e 0452 b03d 08cd 12bd 4a20 013e
00000010: 942a fe3d b88f 5e3d 84f2 3dbd d8a1 bc3d
00000020: 1451 d1bd 0099 9ebb c666 153e bc27 eebd
00000030: 1067 d7bc 90b1 f23d 1c9a c93d 011f 813e
00000040: c5ec 863e 8453 ee3d 91e9 34be faff 9abd
00000050: 0044 21ba ec1a 9dbd c29a d0bd bf5c 0cbe
00000060: 30d5 433d 00f7 233b 38ff 93bd 22c8 23be

bias f4 [2]
-0.2207681 -0.13866954
00000000: 0811 62be 63ff 0dbe

weight_orig f4 [2, 2, 7]
0.013810605 0.123209834 -0.18783815 0.114185154 -0.055277556 -0.15015179 0.15338078 0.01561594
-0.08844307 0.008218735 -0.040528536 -0.036227554 0.062873065 0.2352331 -0.21155271 -0.18092594
0.19645146 -0.056565464 -0.17051 0.16288939 0.20657614 -0.11743945 0.18432972 0.24380466
0.07572958 -0.18350235 0.21267438 0.1006054
00000000: e045 623c 7055 fc3d a558 40be e8d9 e93d
00000010: b86a 62bd 64c1 19be da0f 1d3e 00da 7f3c
00000020: a421 b5bd e0a7 063c 4001 26bd 5863 14bd
00000030: 98c3 803d f2e0 703e 46a1 58be a644 39be
00000040: 922a 493e 30b1 67bd 2c9a 2ebe 7acc 263e
00000050: b288 533e 1884 f0bd eec0 3c3e eea7 793e
00000060: 1c18 9b3d 0ae8 3bbe 50c7 593e 340a ce3d

weight_u f4 [2]
0.7078556 0.7063572
00000000: 0636 353f d3d3 343f
