models/ecg/16/discriminator.pt (torch, 23731 bytes, 20 tensors)

a f4 [32, 1]
00000000: 17bd cbbe c04e 803c e225 903e f29a a0be
00000010: 26e9 023f 8099 afbe cef9 b83e b804 0f3f
00000020: 7049 883d a838 95be 7e12 32be c681 22be
00000030: d0fe 9ebd c030 ad3d 803a 843d 04e5 3c3e
00000040: b0d9 b93d 109b 013e 8c34 0bbf e482 0dbf
00000050: 1309 07bf 3429 753e 37ec f4be 12ee b9be
00000060: b0b5 593e 94b3 18be f0c3 e3bd d0c2 163d
00000070: c5aa 02bf 009c 243c 80a4 fd3e 4a24 f6be
-0.39792702 0.01566255 0.28153902 -0.31368214 0.51137006 -0.342968 0.36128086 0.55866575
0.06654632 -0.29144788 -0.17389867 -0.15869817 -0.077634454 0.08456564 0.064564705 0.18446738
0.09074724 0.12656808 -0.54377055 -0.5527785 -0.5274822 0.23941499 -0.47836468 -0.36314446
0.21260715 -0.14912254 -0.111213565 0.03680688 -0.51041824 0.010046959 0.49539566 -0.4807456

bias f4 [2, 2]
00000000: 0000 0000 0000 0000 0000 0000 0000 0000
0.0 0.0 0.0 0.0

weight f4 [32, 32]
00000000: 2200 fd3d 0c8e 373d e056 c4bc 7158 333e
00000010: 96ab 23be 007b 04bb 8af9 a7bd 73e3 153e
00000020: 3d4e 8ebd c17c 9fbd d6d0 df3d e4b3 19be
00000030: 11f4 0abe 215f b9bd 91ad 0bbe 3055 3dbd
00000040: 23c0 283e eb48 2d3e 6bdb 123e 8252 b03d
00000050: e0f5 7d3d 32d8 f73d 1024 713d 1227 b83d
00000060: cb5b 243e c4ca 16be 159c 25be 4de7 bbbd
00000070: 924b a13d 7f5c 253e b84f 113d 9e77 e23d
00000080: 8050 66bc 6663 55bd ad0a d4bd b7b7 21be
00000090: da4b 8a3d c6b2 f63d 1a1f c6bd 42b9 ae3d
000000a0: 56fa 1fbe ea07 14be 78fb 923d 5aa6 5abd
000000b0: 5e5a de3d 2ae8 f63d 907a 67bc d00d 03bc
000000c0: 45dd 163e c68d ed3d dab6 cc3d 6465 433d
000000d0: 5dee 1f3e deb1 73bd a4e1 50bd ae55 f53d
000000e0: f92e 1d3e f94a dbbd ba5b 0dbe 80e9 e4bb
000000f0: 168f d13d 68c6 063d aee4 f63d b88c aebc
00000100: f80b 44bd 6c2a 7d3d c91d 9cbd 93e0 063e
00000110: fc90 31bd 90c3 033c ec51 493d 807f dc3a
00000120: 95b2 33be c402 5f3d 9c98 e0bd d792 053e
00000130: dcdd b6bd a882 ebbc 18e9 17be da9c f43d
00000140: d0ce 2bbc 806c efbc f69d f93d 2680 1bbe
00000150: b4d0 0f3d 407f 4dbc 4080 52bd c840 00be
00000160: 64f9 efbd ed3a 293e 48c8 95bc a0db 50bc
00000170: d9fb 2abe 6098 743d 8dd7 f3bd eca1 4ebd
00000180: e704 bebd e22a 71bd 398d 1f3e a557 00be
00000190: 302d 21be d88a f5bd 3850 babc 08ef 833c
000001a0: f012 16be 6ec0 e73d b78e 2f3e 8786 173e
000001b0: c043 653b 9834 0b3d 88cf 613d a645 f33d
000001c0: 1aec 20be fcdc 883d 405e 133c 40a2 ac3c
000001d0: 07d8 e2bd 087e e6bc 80ef c83b f4d1 0abe
000001e0: 8e3e 5bbd c2e0 ec3d 402e 013d b034 f0bd
000001f0: b730 06be 7391 f7bd aeaf f63d bbb2 2ebe
00000200: 59b3 17be 6a2d 903d 1921 0d3e 8068 3d3c
00000210: e60b 21be 6295 00be d94f 0abe 78ed 14bd
00000220: d0e3 2dbd 3919 1ebe 007b cdbd a525 a8bd
00000230: 6a7b 10be 6137 21be 793c 103e a205 b43d
00000240: f57d 033e 1670 c2bd 1452 6e3d b053 a5bd
00000250: e0bc 01be c5bc 323e 14ef 0dbe b8fd a8bc
00000260: 6d2b 153e b058 683d 3027 7fbd 6614 29be
00000270: aeb6 ebbd 8cc0 30be a493 dbbd 4d11 133e
00000280: 686c 793d 60ee 2bbc e147 a7bd 516f aebd
00000290: fa5a be3d b09f f23c 0375 0b3e d5ef 0f3e
000002a0: 20a0 0a3c 00cf b6bb bcfe 03be 22ae 12be
000002b0: 3039 7dbd d4ef 2ebe 7a27 c8bd e05f a7bb
000002c0: 945f 01be 1b3e acbd 90e9 2ebd a08e 03be
000002d0: 55a3 e3bd 1532 ddbd acc2 523d 0854 e5bc
000002e0: c0ce 773d 9877 e43c a75b 2d3e e08c 133c
000002f0: c0f0 06bc 3b67 193e 0822 edbc c996 303e
00000300: 5838 cbbd 104f d93c aa42 d53d 7c58 163d
00000310: 82ae c0bd 920f f73d ac8d 04be d4c0 14be
00000320: 736a 24be 6965 cdbd 10bb 643d 7cce 33bd
00000330: e066 863c 84e3 18bd d610 1abe 96c4 c63d
00000340: f8b2 b43c 004e d9bb 7650 ac3d d423 adbd
00000350: 4d39 d4bd 68d8 253d ac1a 1c3d 0427 34be
00000360: 8c23 2bbd 00f3 c4bd ae1b e83d c040 25bb
00000370: d4ad 803d 92cc 943d 00e9 dabb 9e78 8b3d
00000380: 82da db3d 1e7a e73d 48bf 873c 809d 6d3c
00000390: 6782 1d3e 4e16 7fbd 3913 dfbd fbb9 233e
000003a0: 8226 f93d 2096 a23b 2884 03bd 628f f93d
000003b0: f035 653c 4768 303e 8cee 1abe a5e6 323e
000003c0: 1076 e2bc 28db 2fbe 4c57 323d f8a5 87bc
000003d0: 6676 a83d f603 8ebd 9312 043e 69fc 0d3e
000003e0: 463a 02be beb6 23be e068 843b 04f6 f7bd
000003f0: d8fc c0bc 7ae5 ce3d 4b05 2e3e ed54 83bd
0.12353541 0.0448132 -0.023967206 0.17514206 -0.15983424 -0.0020214915 -0.08201893 0.14637546
-0.069485165 -0.07787467 0.10928504 -0.15010029 -0.13569666 -0.090513475 -0.13640429 -0.04622382
0.16479544 0.16922347 0.14341514 0.08609487 0.062002063 0.12101783 0.058872283 0.08991827
0.16050641 -0.14725786 -0.16172822 -0.091749765 0.07875742 0.16148566 0.035476416 0.110579714
-0.014057279 -0.052096747 -0.10353599 -0.15792738 0.06752749 0.12045817 -0.09673901 0.08531429
-0.1562284 -0.14456144 0.0717687 -0.0533813 0.1085708 0.120560005 -0.014128342 -0.007998899
0.14732845 0.11599307 0.09995814 0.047704116 0.15618272 -0.0594958 -0.050996438 0.11979233
0.1534995 -0.10707659 -0.13804522 -0.006985843 0.102323696 0.03290406 0.12055336 -0.021307334
-0.047862977 0.061808035 -0.076228686 0.13171606 -0.04335116 0.008042231 0.049150392 0.0016822666
-0.17548592 0.054445997 -0.10966608 0.13044296 -0.08929035 -0.028748825 -0.14835012 0.119439796
-0.01048632 -0.029226542 0.12188332 -0.15185603 0.035111144 -0.012542546 -0.05139184 -0.12524712
-0.11717489 0.16526385 -0.018283978 -0.012747675 -0.16697635 0.05971563 -0.119063474 -0.05044739
-0.09278279 -0.058878787 0.15581216 -0.12533434 -0.15739894 -0.11989373 -0.02274333 0.01610519
-0.14655662 0.11316 0.17144285 0.14797412 0.003498301 0.033985704 0.055129558 0.11878519
-0.15715066 0.066827744 0.008994639 0.02107346 -0.1107636 -0.028136268 0.0061320662 -0.13556653
-0.053526454 0.11566307 0.031538248 -0.11728799 -0.1310452 -0.12088289 0.12045227 -0.17060368
-0.1481451 0.07039912 0.13782157 0.011560559 -0.15727195 -0.12556985 -0.13507022 -0.03635928
-0.042453587 -0.15439309 -0.10033226 -0.08210305 -0.14109579 -0.15743782 0.14085568 0.08790137
0.12841018 -0.09494035 0.058183745 -0.08072603 -0.12669706 0.17454822 -0.13860732 -0.020628795
0.14567347 0.056725204 -0.06229323 -0.16511688 -0.11509453 -0.17260951 -0.107215196 0.14362068
0.0608944 -0.010493845 -0.08168007 -0.08517326 0.09294696 0.02961716 0.13618855 0.14056332
0.008461028 -0.0055788755 -0.12890142 -0.14324239 -0.061822116 -0.17083675 -0.097731546 -0.0051078647
-0.12634116 -0.08410283 -0.04270321 -0.12847376 -0.111151375 -0.10800568 0.051455185 -0.02799417
0.060499907 0.027889058 0.16929494 0.009005755 -0.00823611 0.14980786 -0.028946891 0.1724502
-0.09922856 0.026526958 0.10413106 0.03670548 -0.09408285 0.12063517 -0.12944669 -0.14526683
-0.16056232 -0.10029108 0.05584246 -0.04389809 0.016406476 -0.03732635 -0.15045485 0.097054645
0.022057995 -0.006631613 0.08413784 -0.08454099 -0.10362492 0.040489584 0.038111374 -0.17593008
-0.041781947 -0.09616661 0.113334045 -0.0025215596 0.06283155 0.07265581 -0.006680608 0.06810115
0.107350364 0.11302589 0.016570702 0.014502883 0.15381776 -0.06227713 -0.10892338 0.15988915
0.12165548 0.004961744 -0.032108456 0.12185551 0.0139899105 0.17227279 -0.15130061 0.17470796
-0.027644187 -0.17173445 0.043540284 -0.016558632 0.08225708 -0.06934349 0.1289771 0.13865818
-0.12717542 -0.1598768 0.0040408224 -0.12107471 -0.023558065 0.10102363 0.16994207 -0.06412683

bias f4 [32]
00000000: aa20 d33d d3ab eabd 34b9 553d a193 113e
00000010: a223 6ebd b2b7 6bbd f86c 08bd 6e72 a73d
00000020: 56aa 59bd 2aaa f7bd 00f3 8e3c 52a0 f1bd
00000030: eab6 873d 0038 5b3a cccd e4bd c676 8c3d
00000040: 2017 30bc ced6 ac3d 246b 2cbe a2ab db3d
00000050: 038a 153e 802c 343c d9c0 02be 788f e23c
00000060: f8e9 613d 89d7 33be faab 92bd 10c3 bfbc
00000070: 494b dfbd 48d8 0bbd 8e96 81bd 102c 183d
0.103089646 -0.11458554 0.052178577 0.14216472 -0.05813945 -0.057548232 -0.033307046 0.081761226
-0.05314096 -0.12093003 0.017449856 -0.11798157 0.06626685 0.00083625317 -0.11172065 0.06858592
-0.010747701 0.08439408 -0.16837746 0.10726096 0.14603429 0.010996938 -0.12768878 0.027656302
0.05515477 -0.17562689 -0.07161708 -0.023408443 -0.109030314 -0.03414181 -0.06327544 0.037151396

a f4 [4, 1]
00000000: 64de a63e b5be 39bf 3dc9 c5bf 00b4 7bbc
0.32591546 -0.7255662 -1.5452038 -0.01536274

bias f4 [16, 16]
00000000: 0000 0000 0000 0000 0000 0000 0000 0000
00000010: 0000 0000 0000 0000 0000 0000 0000 0000
00000020: 0000 0000 0000 0000 0000 0000 0000 0000
00000030: 0000 0000 0000 0000 0000 0000 0000 0000
00000040: 0000 0000 0000 0000 0000 0000 0000 0000
00000050: 0000 0000 0000 0000 0000 0000 0000 0000
00000060: 0000 0000 0000 0000 0000 0000 0000 0000
00000070: 0000 0000 0000 0000 0000 0000 0000 0000
00000080: 0000 0000 0000 0000 0000 0000 0000 0000
00000090: 0000 0000 0000 0000 0000 0000 0000 0000
000000a0: 0000 0000 0000 0000 0000 0000 0000 0000
000000b0: 0000 0000 0000 0000 0000 0000 0000 0000
000000c0: 0000 0000 0000 0000 0000 0000 0000 0000
000000d0: 0000 0000 0000 0000 0000 0000 0000 0000
000000e0: 0000 0000 0000 0000 0000 0000 0000 0000
000000f0: 0000 0000 0000 0000 0000 0000 0000 0000
00000100: 0000 0000 0000 0000 0000 0000 0000 0000
00000110: 0000 0000 0000 0000 0000 0000 0000 0000
00000120: 0000 0000 0000 0000 0000 0000 0000 0000
00000130: 0000 0000 0000 0000 0000 0000 0000 0000
00000140: 0000 0000 0000 0000 0000 0000 0000 0000
00000150: 0000 0000 0000 0000 0000 0000 0000 0000
00000160: 0000 0000 0000 0000 0000 0000 0000 0000
00000170: 0000 0000 0000 0000 0000 0000 0000 0000
00000180: 0000 0000 0000 0000 0000 0000 0000 0000
00000190: 0000 0000 0000 0000 0000 0000 0000 0000
000001a0: 0000 0000 0000 0000 0000 0000 0000 0000
000001b0: 0000 0000 0000 0000 0000 0000 0000 0000
000001c0: 0000 0000 0000 0000 0000 0000 0000 0000
000001d0: 0000 0000 0000 0000 0000 0000 0000 0000
000001e0: 0000 0000 0000 0000 0000 0000 0000 0000
000001f0: 0000 0000 0000 0000 0000 0000 0000 0000
00000200: 0000 0000 0000 0000 0000 0000 0000 0000
00000210: 0000 0000 0000 0000 0000 0000 0000 0000
00000220: 0000 0000 0000 0000 0000 0000 0000 0000
00000230: 0000 0000 0000 0000 0000 0000 0000 0000
00000240: 0000 0000 0000 0000 0000 0000 0000 0000
00000250: 0000 0000 0000 0000 0000 0000 0000 0000
00000260: 0000 0000 0000 0000 0000 0000 0000 0000
00000270: 0000 0000 0000 0000 0000 0000 0000 0000
00000280: 0000 0000 0000 0000 0000 0000 0000 0000
00000290: 0000 0000 0000 0000 0000 0000 0000 0000
000002a0: 0000 0000 0000 0000 0000 0000 0000 0000
000002b0: 0000 0000 0000 0000 0000 0000 0000 0000
000002c0: 0000 0000 0000 0000 0000 0000 0000 0000
000002d0: 0000 0000 0000 0000 0000 0000 0000 0000
000002e0: 0000 0000 0000 0000 0000 0000 0000 0000
000002f0: 0000 0000 0000 0000 0000 0000 0000 0000
00000300: 0000 0000 0000 0000 0000 0000 0000 0000
00000310: 0000 0000 0000 0000 0000 0000 0000 0000
00000320: 0000 0000 0000 0000 0000 0000 0000 0000
00000330: 0000 0000 0000 0000 0000 0000 0000 0000
00000340: 0000 0000 0000 0000 0000 0000 0000 0000
00000350: 0000 0000 0000 0000 0000 0000 0000 0000
00000360: 0000 0000 0000 0000 0000 0000 0000 0000
00000370: 0000 0000 0000 0000 0000 0000 0000 0000
00000380: 0000 0000 0000 0000 0000 0000 0000 0000
00000390: 0000 0000 0000 0000 0000 0000 0000 0000
000003a0: 0000 0000 0000 0000 0000 0000 0000 0000
000003b0: 0000 0000 0000 0000 0000 0000 0000 0000
000003c0: 0000 0000 0000 0000 0000 0000 0000 0000
000003d0: 0000 0000 0000 0000 0000 0000 0000 0000
000003e0: 0000 0000 0000 0000 0000 0000 0000 0000
000003f0: 0000 0000 0000 0000 0000 0000 0000 0000
0.0 0.0 0.0 0.0 0.0 0.0 0.0 0.0
0.0 0.0 0.0 0.0 0.0 0.0 0.0 0.0
0.0 0.0 0.0 0.0 0.0 0.0 0.0 0.0
0.0 0.0 0.0 0.0 0.0 0.0 0.0 0.0
0.0 0.0 0.0 0.0 0.0 0.0 0.0 0.0
0.0 0.0 0.0 0.0 0.0 0.0 0.0 0.0
0.0 0.0 0.0 0.0 0.0 0.0 0.0 0.0
0.0 0.0 0.0 0.0 0.0 0.0 0.0 0.0
0.0 0.0 0.0 0.0 0.0 0.0 0.0 0.0
0.0 0.0 0.0 0.0 0.0 0.0 0.0 0.0
0.0 0.0 0.0 0.0 0.0 0.0 0.0 0.0
0.0 0.0 0.0 0.0 0.0 0.0 0.0 0.0
0.0 0.0 0.0 0.0 0.0 0.0 0.0 0.0
0.0 0.0 0.0 0.0 0.0 0.0 0.0 0.0
0.0 0.0 0.0 0.0 0.0 0.0 0.0 0.0
0.0 0.0 0.0 0.0 0.0 0.0 0.0 0.0
0.0 0.0 0.0 0.0 0.0 0.0 0.0 0.0
0.0 0.0 0.0 0.0 0.0 0.0 0.0 0.0
0.0 0.0 0.0 0.0 0.0 0.0 0.0 0.0
0.0 0.0 0.0 0.0 0.0 0.0 0.0 0.0
0.0 0.0 0.0 0.0 0.0 0.0 0.0 0.0
0.0 0.0 0.0 0.0 0.0 0.0 0.0 0.0
0.0 0.0 0.0 0.0 0.0 0.0 0.0 0.0
0.0 0.0 0.0 0.0 0.0 0.0 0.0 0.0
0.0 0.0 0.0 0.0 0.0 0.0 0.0 0.0
0.0 0.0 0.0 0.0 0.0 0.0 0.0 0.0
0.0 0.0 0.0 0.0 0.0 0.0 0.0 0.0
0.0 0.0 0.0 0.0 0.0 0.0 0.0 0.0
0.0 0.0 0.0 0.0 0.0 0.0 0.0 0.0
0.0 0.0 0.0 0.0 0.0 0.0 0.0 0.0
0.0 0.0 0.0 0.0 0.0 0.0 0.0 0.0
0.0 0.0 0.0 0.0 0.0 0.0 0.0 0.0

weight f4 [4, 4]
00000000: 90cf 473e ea2b d03e dcf2 2bbe 302e 05be
00000010: cc53 213e 6463 8ebe 5a53 a73e 04de b23e
00000020: 1408 8dbe 8888 78be 6045 4fbe b840 85bd
00000030: f00a d1be 8c2a 3cbe 4009 fd3d c4b4 1e3e
0.19512773 0.40658504 -0.16791862 -0.130059 0.15754622 -0.27810204 0.3268078 0.3493501
-0.27545226 -0.24270833 -0.20241308 -0.06506485 -0.40828657 -0.18375605 0.1235528 0.15498644

bias f4 [4]
00000000: f4d1 65be d481 573e c0bc 28bc d2ea 813e
-0.22443372 0.21045619 -0.010298908 0.25374466

weight f4 [32, 32]
00000000: 6bfc 053e 207b 6cbd 48a7 2f3d 7d0c 33be
00000010: 06e7 67bd 2277 c93d 04e6 00be 6c80 47bd
00000020: 6eae 0dbe 086f 633d 4961 1bbe 37d8 2abe
00000030: 7e58 da3d e2f4 5fbd 0cb0 533d eaf6 c63d
00000040: 3620 c83d 100b 24bc de20 d63d d4a1 d0bd
00000050: 6269 fe3d 6041 e33c b7eb 1b3e baf6 fb3d
00000060: 7ec8 fdbd 58f0 9f3c c0f8 093d bd93 b1bd
00000070: 0482 203d f577 93bd ae86 c8bd 0baf 02be
00000080: b314 32be 0dfe 133e c066 223b 9cef b3bd
00000090: 0ae6 da3d d2c7 e83d 269b 5abd 3ab5 aa3d
000000a0: e32e 183e b887 e8bd 9276 f2bd 1d01 dbbd
000000b0: d37e 02be 702d d1bd 609f 54bd a57d 043e
000000c0: acf8 113d c146 dfbd 078e adbd 3fd6 06be
000000d0: 0826 333d ed46 11be 9331 073e 5c35 03bd
000000e0: 3324 23be e941 323e c099 333b 931f 1ebe
000000f0: 8709 99bd 8007 93ba e835 00be 3c2d 20bd
00000100: c7cf afbd 40d7 823c 48c9 4e3d df8a 1f3e
00000110: 9e82 883d dad3 903d 1335 1cbe c94d b0bd
00000120: c5a6 1a3e fdf4 263e 8918 babd 92ff 0abe
00000130: 56ab d03d 4475 453d be6c fb3d 7cb3 5d3d
00000140: 98f3 adbc 10b5 3abc d63a aabd 167d a73d
00000150: 3964 0f3e 8e33 973d 64e6 2bbe d021 8cbd
00000160: 3532 e5bd 842e e9bd ba3a ce3d 51b1 1f3e
00000170: 16ef ce3d c00f 0a3c 3823 2a3d c7f4 013e
00000180: a806 353d 9b2b 0e3e 0893 893d 9927 08be
00000190: 46d7 ca3d 0755 96bd 8606 bd3d 9f1b e1bd
000001a0: 0b1a 1abe 5af1 b53d b185 093e 9710 2e3e
000001b0: 6b07 e9bd 6ebb d03d 1bd1 083e 5f94 033e
000001c0: 401e a13c 81b4 243e 00c1 d73b 3ea6 32be
000001d0: 05b3 033e 9d90 34be cef2 ca3d 7a49 1bbe
000001e0: e0ef 75bc 3596 2a3e 90db 743d d63a 2abe
000001f0: c71e 203e 374a 193e dfd0 ecbd be23 b23d
00000200: a4bc 733d afcd acbd 00d9 89bc 083a 28bd
00000210: 1b4c 08be 8717 2f3e fe8d 24be 6341 0a3e
00000220: 293e b9bd 8102 12be 0076 deb9 e4ab 463d
00000230: 106e 703d 302f 2cbc 1891 84bd 0853 fcbc
00000240: dfe8 2b3e 1f91 0d3e cbe0 dfbd 6b77 90bd
00000250: a080 76bc 8e0f fbbd 138c dfbd 2be9 f0bd
00000260: b593 c2bd 4c15 71bd 80ba 183b f57e afbd
00000270: a2b3 f83d 1f65 003e cabc 61bd 510f d8bd
00000280: b18d 283e 0b1e 113e 3878 bb3c 8881 643d
00000290: 20c0 a4bb 6498 4cbd 04dd 2abe 64fc 03be
000002a0: 282c 653d 780b c4bc 5777 b8bd 9f21 173e
000002b0: eaf4 dd3d cef9 85bd 6656 bf3d 5d5b 163e
000002c0: 008c 28bc 545e 483d 5354 fcbd 68f1 353d
000002d0: 4d00 093e a132 1a3e 775d 0d3e 8409 95bd
000002e0: dd28 31be 22be b03d 00e9 833c 142c 04bd
000002f0: 9030 a33c cce4 4cbd 9322 243e 36ec d33d
00000300: 0050 b6ba 3424 d3bd 0839 19bd db8f d8bd
00000310: 0cc0 8b3d b8a8 5e3d 141a 9fbd 0224 d73d
00000320: e69a b83d d8b3 c33c 527f 9d3d c056 01bb
00000330: c08a 3bbb 2713 f1bd a151 88bd a860 953d
00000340: 40f6 c6bd 333b 16be cb6f b0bd f28f b6bd
00000350: d025 5a3d 0cc2 2dbd 0026 c7bd b0ab 833d
00000360: 920a d23d dbdd 17be 041f 9dbd a032 e6bb
00000370: 24d0 08bd 528b d93d fa69 d83d 57a9 1fbe
00000380: 75c8 2f3e fa40 b43d 8549 023e 405c b2bd
00000390: 6bfa 82bd 3e85 a43d 2ace 2fbe 9fa9 313e
000003a0: 98a7 f03c dfb7 313e 003a 4b3b 7731 0c3e
000003b0: 3697 e73d 50fc 19bc 409b c93b ca57 c33d
000003c0: 0990 333e 0e9a cfbd 5b93 13be d449 8fbd
000003d0: 2396 263e 4f06 0c3e e867 4abd 10ee e83c
000003e0: 2c94 6abd efbc 2abe 8497 11bd dd6d afbd
000003f0: a190 b0bd 9688 9a3d b47f c5bd 15a6 0f3e
0.13084571 -0.05773461 0.04288414 -0.17485233 -0.056616805 0.09837176 -0.12587744 -0.048706457
-0.13836071 0.05552581 -0.1517383 -0.16684042 0.1066141 -0.054676898 0.051681563 0.09715064
0.09771769 -0.010012403 0.10455488 -0.10187116 0.12422444 0.027741134 0.15226637 0.12302919
-0.123917565 0.019523785 0.033684492 -0.08670757 0.039186493 -0.07200614 -0.09791313 -0.12762086
-0.17390709 0.14452381 0.0024780482 -0.08785936 0.10688408 0.11366238 -0.053370617 0.083353475
0.14861636 -0.11354011 -0.11839022 -0.10693572 -0.12743692 -0.10213745 -0.051909804 0.12938555
0.035637543 -0.10902167 -0.08474355 -0.13167666 0.04373744 -0.14187212 0.13202505 -0.03203331
-0.15931778 0.17407955 0.0027404875 -0.15441732 -0.0747252 -0.0011217445 -0.12520564 -0.03910564
-0.08584552 0.01597178 0.050484926 0.15580319 0.06665538 0.070716575 -0.15254621 -0.08608586
0.1510268 0.16304393 -0.09086711 -0.13574055 0.1018893 0.048207536 0.122766 0.054126248
-0.021234319 -0.011395708 -0.08312003 0.08178155 0.14003076 0.0738288 -0.16787106 -0.06842387
-0.11191217 -0.11385825 0.10069795 0.15594985 0.10104196 0.008426607 0.041537493 0.12691031
0.0441958 0.13883822 0.06717497 -0.13296355 0.099043414 -0.073404364 0.0922976 -0.109915964
-0.15048997 0.08883925 0.13429905 0.16998516 -0.11378368 0.101919994 0.13361017 0.12849568
0.019667745 0.16084482 0.0065842867 -0.17446229 0.1286126 -0.1763329 0.099095926 -0.15164748
-0.015010804 0.16658862 0.059779704 -0.16624007 0.1563674 0.14969717 -0.115632765 0.086982235
0.059506074 -0.084376685 -0.016827106 -0.041070968 -0.13310282 0.17098819 -0.1606979 0.13501506
-0.09045059 -0.14258768 -0.00042431056 0.04850377 0.058698714 -0.010509297 -0.06472987 -0.030801311
0.16788052 0.1382489 -0.10931548 -0.07054027 -0.015045315 -0.12258826 -0.10915389 -0.11763223
-0.09500829 -0.0588582 0.0023304522 -0.08569137 0.12143637 0.12538575 -0.055111684 -0.105497964
0.16460301 0.14171617 0.022884473 0.055787593 -0.005027786 -0.04995002 -0.16685873 -0.12889248
0.055950314 -0.02393125 -0.09007137 0.14758919 0.10837729 -0.06541787 0.09342651 0.1468329
-0.010287285 0.048918083 -0.12320771 0.044419676 0.13379021 0.15058376 0.13805185 -0.072772056
-0.17300744 0.08630015 0.016102314 -0.0322686 0.019920617 -0.050022885 0.16028814 0.10347788
-0.001390934 -0.103096396 -0.037407905 -0.10574313 0.068237394 0.05436012 -0.07768646 0.10504915
0.090139195 0.023889467 0.076903 -0.0019735545 -0.0028616637 -0.11771231 -0.066561945 0.07293826
-0.09714937 -0.1467102 -0.08615073 -0.08914174 0.053258717 -0.042421386 -0.09724045 0.06429231
0.102559224 -0.14830725 -0.076719314 -0.007025078 -0.033401623 0.10622276 0.105670884 -0.15591942
0.17166312 0.08801456 0.12723358 -0.087090015 -0.0639542 0.080332264 -0.17168489 0.17349862
0.02937679 0.17355298 0.0031009912 0.13690744 0.11308138 -0.009398535 0.0061525404 0.09538229
0.17535414 -0.101368055 -0.1441168 -0.069965035 0.1626821 0.13674282 -0.0494155 0.02843383
-0.057270214 -0.16673635 -0.035544887 -0.08565877 -0.08621336 0.07545583 -0.09643498 0.14028199

bias f4 [32]
00000000: 1c1d 66bd 1f33 bbbd d6a8 ae3d 1aad dabd
00000010: 900d 753c 1c1d 31be fcb6 0cbe 0d0e 26be
00000020: b0e3 fbbc 56d0 a5bd 64fd 6c3d c0d8 5fbb
00000030: e08c c7bc 459e 9abd c9eb 0c3e 8228 0bbe
00000040: 034e 263e fa3c d63d 20e0 2a3d 34bd 14be
00000050: 0edf 12be 7991 303e 301b 613d 9072 223d
00000060: 8da3 b9bd c4a0 33be 8cf1 a1bd f8f2 31be
00000070: f80f b9bc a4e7 2abe be1a c53d 4249 a23d
-0.056180105 -0.0914061 0.08528297 -0.10677548 0.014956847 -0.1729626 -0.13741678 -0.16216297
-0.030748218 -0.080963776 0.05785884 -0.0034156293 -0.024359167 -0.07549719 0.1376182 -0.13589671
0.16240697 0.10460849 0.04171765 -0.145253 -0.14342901 0.17242993 0.05495757 0.039660037
-0.09064398 -0.17541796 -0.079073995 -0.17377841 -0.022590622 -0.16689926 0.09624241 0.07924129

weight f4 [32]
00000000: 0000 803f 0000 803f 0000 803f 0000 803f
00000010: 0000 803f 0000 803f 0000 803f 0000 803f
00000020: 0000 803f 0000 803f 0000 803f 0000 803f
00000030: 0000 803f 0000 803f 0000 803f 0000 803f
00000040: 0000 803f 0000 803f 0000 803f 0000 803f
00000050: 0000 803f 0000 803f 0000 803f 0000 803f
00000060: 0000 803f 0000 803f 0000 803f 0000 803f
00000070: 0000 803f 0000 803f 0000 803f 0000 803f
1.0 1.0 1.0 1.0 1.0 1.0 1.0 1.0
1.0 1.0 1.0 1.0 1.0 1.0 1.0 1.0
1.0 1.0 1.0 1.0 1.0 1.0 1.0 1.0
1.0 1.0 1.0 1.0 1.0 1.0 1.0 1.0

bias f4 [32]
00000000: 0000 0000 0000 0000 0000 0000 0000 0000
00000010: 0000 0000 0000 0000 0000 0000 0000 0000
00000020: 0000 0000 0000 0000 0000 0000 0000 0000
00000030: 0000 0000 0000 0000 0000 0000 0000 0000
00000040: 0000 0000 0000 0000 0000 0000 0000 0000
00000050: 0000 0000 0000 0000 0000 0000 0000 0000
00000060: 0000 0000 0000 0000 0000 0000 0000 0000
00000070: 0000 0000 0000 0000 0000 0000 0000 0000
0.0 0.0 0.0 0.0 0.0 0.0 0.0 0.0
0.0 0.0 0.0 0.0 0.0 0.0 0.0 0.0
0.0 0.0 0.0 0.0 0.0 0.0 0.0 0.0
0.0 0.0 0.0 0.0 0.0 0.0 0.0 0.0

running_mean f4 [32]
00000000: b824 d73c 1412 f4b9 6a72 5e3f 3eec 793f
00000010: d6e3 603c 8e24 513f e158 86b9 8246 323f
00000020: 1e51 1f3d 7441 4a3b fc33 7a3e 043c 013d
00000030: 0b39 7cbb d939 883d a476 713d ffdc 02bc
00000040: e11d 4b3f ffb5 8a3d 0f68 b33f df17 fd3e
00000050: be21 a93e e80e 4c3e e510 f13e 26ec 253e
00000060: 918e bc3e fa1e 7c3d 79e7 743d b531 d53b
00000070: 27a6 5fba 82fd 893b 7a9f e73c fa04 bc3d
0.026262626 -0.00046552776 0.8689333 0.976261 0.013726195 0.81696403 -0.00025624692 0.69638836
0.03889572 0.0030861767 0.24433893 0.031551376 -0.0038486149 0.066516586 0.058951035 -0.00798726
0.79342467 0.06772994 1.4016131 0.49432275 0.33033556 0.19927561 0.47083202 0.16203365
0.3682752 0.06155298 0.059791062 0.0065061697 -0.00085315335 0.0042111287 0.028274287 0.09180637

running_var f4 [32]
00000000: fb9b 6a3c 2803 b53b d6cc 5b3d 4286 283e
00000010: b050 bf3b daf2 283d 0c60 403b 0a29 9e3d
00000020: 7269 8f3c 4a62 873b fc9f 253d dcab 823c
00000030: 51f8 243b 6e39 963c dc67 1a3d b29c 083b
00000040: 2d25 423e dafd 033d c4f4 bf3d 9488 3c3d
00000050: b202 373d 0098 353d 1771 b33d 54d0 d03c
00000060: 9edb 033d 48d4 9a3c 53b5 0f3d c55c 9e3b
00000070: 500b 5c3b b330 223c 4191 6b3c 07a1 c83d
0.014319415 0.005524058 0.053662144 0.16457465 0.005838476 0.041247226 0.0029354123 0.07722671
0.017506335 0.00413159 0.040435776 0.01595109 0.0025172422 0.018337931 0.037696704 0.002084535
0.18959494 0.032224514 0.09372857 0.04602869 0.044680305 0.04433441 0.087618046 0.025489964
0.032191865 0.018900052 0.035085034 0.0048328363 0.0033576079 0.009899306 0.014377893 0.097963385

weight f4 [1, 32]
00000000: 8aed 923d 508c ebbc 48dc 98bd 8f4a 1e3e
00000010: aee6 03be b4f7 f7bd 361d f83d ed61 1bbe
00000020: c84b c93c 81a9 283e e1d2 193e 3092 b2bc
00000030: 10db b4bc 367f a63d 3902 213e ca5a 9f3d
00000040: c25c 58bd 2053 473c 725f a63d 20dd 05bc
00000050: a22b d4bd 4a19 2cbe 004a 133d cebc e13d
00000060: 5e42 d13d 6269 13be 4847 dc3c b0d8 2cbd
00000070: c074 1a3d daac c73d e0b7 153d b145 d3bd
0.07174213 -0.02875343 -0.0746389 0.1545813 -0.12880966 -0.121077925 0.121149465 -0.15174074
0.024572268 0.1647091 0.1502185 -0.021798223 -0.022077113 0.08129732 0.15723504 0.077809885
-0.052822836 0.012165815 0.081236735 -0.008170396 -0.10359885 -0.16806522 0.035959244 0.1102234
0.10217737 -0.14395669 0.026889458 -0.042198837 0.037708998 0.09749766 0.03655231 -0.10316027

bias f4 [2]
00000000: d263 c5bd 1665 563e
-0.0963818 0.20936999

weight_orig f4 [2, 2, 7]
00000000: 40af 143d 6334 80be b238 d4bd f59e 0bbe
00000010: 88d5 143d ffba 77be 900c 533e c2ed 7cbe
00000020: 88b4 f4bd 48cc 843d dce7 4c3e 3612 54be
00000030: 4836 8e3d 805d 133c 9246 6e3e 68b0 393e
00000040: 0c7a 46be 80cc 31be 80fd 373c 8920 83be
00000050: 2823 143d 804e ff3b 1e9c 6d3e 0ce0 1fbd
00000060: e02d c2bd 13dc 27be 2434 23bd 5acb 173e
0.036299944 -0.25039968 -0.10362376 -0.13634856 0.03633645 -0.24192427 0.20610261 -0.24700072
-0.11948496 0.06484276 0.20010322 -0.20710072 0.06943947 0.00899446 0.23269108 0.181337
-0.19382495 -0.17363167 0.011229873 -0.2561076 0.03616634 0.0077913404 0.23204085 -0.039032027
-0.09481406 -0.16392545 -0.039844647 0.14823666

weight_u f4 [2]
00000000: a18f 993d 8447 7fbf
0.07498098 -0.997185

weight_v f4 [14]
00000000: bd7e 6cbe 7671 943e 2b32 e9be ef4e 04be
00000010: 7c53 e33e 3051 123b 3593 71be f7f2 0ebe
00000020: 29fe c1bd c901 473e f446 d23d 0e5c 0cbf
00000030: 2637 16bd 4ba9 aabd
-0.23095222 0.28992814 -0.45546088 -0.12920736 0.4439963 0.0022326224 -0.23591311 -0.13959871
-0.09472305 0.19434275 0.102674395 -0.54827964 -0.036673687 -0.08333071

weight f4 [2, 2, 7]
00000000: 40af 143d 6334 80be b238 d4bd f59e 0bbe
00000010: 88d5 143d ffba 77be 900c 533e c2ed 7cbe
00000020: 88b4 f4bd 48cc 843d dce7 4c3e 3612 54be
00000030: 4836 8e3d 805d 133c 9246 6e3e 68b0 393e
00000040: 0c7a 46be 80cc 31be 80fd 373c 8920 83be
00000050: 2823 143d 804e ff3b 1e9c 6d3e 0ce0 1fbd
00000060: e02d c2bd 13dc 27be 2434 23bd 5acb 173e
0.036299944 -0.25039968 -0.10362376 -0.13634856 0.03633645 -0.24192427 0.20610261 -0.24700072
-0.11948496 0.06484276 0.20010322 -0.20710072 0.06943947 0.00899446 0.23269108 0.181337
-0.19382495 -0.17363167 0.011229873 -0.2561076 0.03616634 0.0077913404 0.23204085 -0.039032027
-0.09481406 -0.16392545 -0.039844647 0.14823666
