models/ecg/16/generator.pt (torch, 44672 bytes, 43 tensors)

bias f4 [2]
-0.04262702 0.07734361
00000000: ac99 2ebd 5466 9e3d

weight_orig f4 [2, 2, 7]
0.12567234 -0.04374668 -0.105841294 -0.2501796 -0.13067643 0.089377016 -0.043748334 -0.22711588
0.22818431 0.018310457 0.24377272 0.09495133 0.12994283 -0.24910514 0.16508573 0.07501894
0.20725921 -0.24482076 0.11102238 0.2156395 -0.111757725 -0.21157667 -0.17257835 -0.14297688
-0.14913088 0.117895305 -0.051423475 0.06626809
00000000: 40b0 003e b82f 33bd 52c3 d8bd 8a17 80be
00000010: 0bd0 05be 4c0b b73d 7431 33bd 1191 68be
00000020: 26a9 693e d0ff 953c 8e9f 793e d875 c23d
00000030: bc0f 053e 6b15 7fbe 3c0c 293e 88a3 993d
00000040: c23b 543e 4bb2 7abe b45f e33d 9ad0 5c3e
00000050: 3ce1 e4bd 8ea7 58be 61b8 30be 8868 12be
00000060: c4b5 18be 1873 f13d 6ca1 52bd 90b7 873d

weight_u f4 [2]
0.2451515 -0.96948475
00000000: ff08 7b3e 2730 78bf

weight_v f4 [14]
-0.40876773 0.1672261 -0.2702066 0.16513008 0.14895965 0.09203483 0.27181894 -0.20903985
-0.07848106 0.42012832 -0.024038002 -0.16526878 -0.5156963 0.28270283
00000000: 014a d1be 523d 2b3e 8558 8abe dc17 293e
00000010: e188 183e c27c bc3d da2b 8b3e 8b0e 56be
00000020: aeba a0bd 0f1b d73e 58eb c4bc 383c 29be
00000030: ac04 04bf 6dbe 903e

weight f4 [2, 2, 7]
0.12567234 -0.04374668 -0.105841294 -0.2501796 -0.13067643 0.089377016 -0.043748334 -0.22711588
0.22818431 0.018310457 0.24377272 0.09495133 0.12994283 -0.24910514 0.16508573 0.07501894
0.20725921 -0.24482076 0.11102238 0.2156395 -0.111757725 -0.21157667 -0.17257835 -0.14297688
-0.14913088 0.117895305 -0.051423475 0.06626809
00000000: 40b0 003e b82f 33bd 52c3 d8bd 8a17 80be
00000010: 0bd0 05be 4c0b b73d 7431 33bd 1191 68be
00000020: 26a9 693e d0ff 953c 8e9f 793e d875 c23d
00000030: bc0f 053e 6b15 7fbe 3c0c 293e 88a3 993d
00000040: c23b 543e 4bb2 7abe b45f e33d 9ad0 5c3e
00000050: 3ce1 e4bd 8ea7 58be 61b8 30be 8868 12be
00000060: c4b5 18be 1873 f13d 6ca1 52bd 90b7 873d

bias f4 [2]
0.21998528 -0.12885375
00000000: d243 613e 3df2 03be

weight_orig f4 [2, 2, 7]
-0.12679276 0.21682093 0.1467705 0.17410657 0.23639616 0.23868182 0.1748878 -0.1610736
-0.1796527 0.010230839 0.10083026 0.08975735 0.16816491 0.1951527 0.1909968 0.21683481
-0.005977899 0.03306797 0.067510754 -0.18056226 0.23327264 0.06051171 0.1506117 0.19364917
0.05889213 0.19882143 0.22645211 0.110715985
00000000: f6d5 01be 4e06 5e3e 024b 163e fe48 323e
00000010: d611 723e 0269 743e ca15 333e 7af0 24be
00000020: e1f6 37be 409f 273c 1880 ce3d b4d2 b73d
00000030: 6c33 2c3e 1cd6 473e aa94 433e f209 5e3e
00000040: 40e2 c3bb 4872 073d 1443 8a3d 50e5 38be
00000050: 06df 6e3e 20db 773d f439 1a3e f84b 463e
00000060: e038 713d d897 4b3e 10e3 673e 10bf e23d

weight_u f4 [2]
0.13391273 -0.99099314
00000000: 6b20 093e bab1 7dbf

weight_v f4 [14]
-0.006803684 -0.13795038 0.46459067 0.15857182 0.05154028 0.5589558 0.039244186 -0.24215956
-0.3976445 -0.036134996 -0.32007024 0.25237447 0.0548535 -0.18997604
00000000: 70f1 debb dd42 0dbe d4de ed3e a760 223e
00000010: e71b 533d ba17 0f3f 83be 203d adf8 77be
00000020: 0f98 cbbe 4a02 14bd 3fe0 a3be 3a37 813e
00000030: 10ae 603d 1489 42be

weight f4 [2, 2, 7]
-0.12679276 0.21682093 0.1467705 0.17410657 0.23639616 0.23868182 0.1748878 -0.1610736
-0.1796527 0.010230839 0.10083026 0.08975735 0.16816491 0.1951527 0.1909968 0.21683481
-0.005977899 0.03306797 0.067510754 -0.18056226 0.23327264 0.06051171 0.1506117 0.19364917
0.05889213 0.19882143 0.22645211 0.110715985
00000000: f6d5 01be 4e06 5e3e 024b 163e fe48 323e
00000010: d611 723e 0269 743e ca15 333e 7af0 24be
00000020: e1f6 37be 409f 273c 1880 ce3d b4d2 b73d
00000030: 6c33 2c3e 1cd6 473e aa94 433e f209 5e3e
00000040: 40e2 c3bb 4872 073d 1443 8a3d 50e5 38be
00000050: 06df 6e3e 20db 773d f439 1a3e f84b 463e
00000060: e038 713d d897 4b3e 10e3 673e 10bf e23d

bias f4 [2]
-0.18969235 -0.08898078
00000000: b63e 42be 8e3b b6bd

weight_orig f4 [2, 2, 7]
-0.2568173 -0.21715702 -0.066485554 0.1329923 0.13427436 0.19620275 0.24365702 -0.17346922
0.018867403 -0.058958307 0.14054513 0.19408426 -0.10334024 0.23482296 0.05991429 0.14213675
0.264349 0.061570644 0.08689344 0.19237888 -0.23788044 0.14214423 0.2068514 -0.24091089
0.13550252 -0.023461312 0.17795375 -0.16590919
00000000: 8f7d 83be 695e 5ebe 9429 88bd 222f 083e
00000010: 387f 093e 60e9 483e 3a81 793e eaa1 31be
00000020: d08f 9a3c 447e 71bd 10eb 0f3e 06be 463e
00000030: 0ca4 d3bd 6e75 703e b068 753d 4c8c 113e
00000040: c158 873e 8031 7c3d 30f5 b13d f8fe 443e
00000050: ee96 73be 428e 113e dad0 533e 58b1 76be
00000060: 2cc1 0a3e f031 c0bc 8239 363e 19e4 29be

weight_u f4 [2]
-0.68228596 -0.7310854
00000000: 4baa 2ebf 6a28 3bbf

weight_v f4 [14]
-0.27071884 -0.69163686 -0.076296516 0.14983651 0.019011172 0.17564829 0.39574632 0.072786145
0.31842798 0.10302549 0.24499753 -0.11000402 0.19006881 0.08178974
00000000: a99b 8abe 1d0f 31bf 5941 9cbd be6e 193e
00000010: 51bd 9b3c 25dd 333e 439f ca3e e710 953d
00000020: fe08 a33e 07ff d23d a2e0 7a3e ca49 e1bd
00000030: 66a1 423e 6181 a73d

weight f4 [2, 2, 7]
-0.2568173 -0.21715702 -0.066485554 0.1329923 0.13427436 0.19620275 0.24365702 -0.17346922
0.018867403 -0.058958307 0.14054513 0.19408426 -0.10334024 0.23482296 0.05991429 0.14213675
0.264349 0.061570644 0.08689344 0.19237888 -0.23788044 0.14214423 0.2068514 -0.24091089
0.13550252 -0.023461312 0.17795375 -0.16590919
00000000: 8f7d 83be 695e 5ebe 9429 88bd 222f 083e
00000010: 387f 093e 60e9 483e 3a81 793e eaa1 31be
00000020: d08f 9a3c 447e 71bd 10eb 0f3e 06be 463e
00000030: 0ca4 d3bd 6e75 703e b068 753d 4c8c 113e
00000040: c158 873e 8031 7c3d 30f5 b13d f8fe 443e
00000050: ee96 73be 428e 113e dad0 533e 58b1 76be
00000060: 2cc1 0a3e f031 c0bc 8239 363e 19e4 29be

weight_ih_l0 f4 [8, 2]
-0.16067255 0.06991625 -0.33599308 -0.14371163 -0.65100664 -0.63455385 -0.70189565 0.017944217
0.5235191 -0.32092455 0.54022664 -0.66151905 0.120589375 -0.38014764 0.4462797 0.6940735
00000000: 5887 24be 4030 8f3d 4907 acbe 2429 13be
00000010: 5fa8 26bf 1f72 22bf 6faf 33bf c0ff 923c
00000020: 5905 063f 3950 a4be 4b4c 0a3f 5059 29bf
00000030: 90f7 f63d b6a2 c2be c67e e43e cdae 313f

weight_hh_l0 f4 [8, 2]
0.4666565 0.18209064 -0.6065985 -0.34278318 0.5737485 -0.22280931 -0.012106597 -0.4795535
0.4082288 -0.10980791 0.46980447 0.633712 0.4028656 0.23405528 -0.64718974 -0.24561954
00000000: 9aed ee3e f875 3a3e 0a4a 1bbf 4781 afbe
00000010: 2fe1 123f 2028 64be c05a 46bc 0988 f5be
00000020: 5e03 d13e f8e2 e0bd 368a f03e f33a 223f
00000030: 6644 ce3e 30ac 6f3e 3aae 25bf b083 7bbe

bias_ih_l0 f4 [8]
-0.054446757 0.16512054 0.18058854 0.20394361 0.50152737 0.69230527 0.27547157 0.42855138
00000000: 9003 5fbd 5c15 293e 34ec 383e 98d6 503e
00000010: 1964 003f eb3a 313f 9c0a 8d3e 166b db3e

bias_hh_l0 f4 [8]
0.20228118 -0.3304259 0.25809294 0.46167392 -0.17470771 0.09369135 -0.39587802 0.46773094
00000000: cc22 4f3e 952d a9be c224 843e 8660 ec3e
00000010: 94e6 32be 40e1 bf3d 86b0 cabe 6e7a ef3e

a f4 [32, 1]
-0.26499188 0.50959355 -0.13954887 -0.08466249 0.02339384 -0.26165417 0.16664016 -0.20424438
-0.2856612 0.51361823 0.33006567 0.24206838 0.47624362 0.495618 -0.47432557 -0.12147924
-0.5246539 -0.44305116 -0.096776366 -0.042424385 0.51805097 -0.5495856 0.15606242 0.07257947
-0.28385022 -0.35946363 0.40312123 -0.17382628 -0.4149444 0.41351855 -0.07820473 0.1938843
00000000: 04ad 87be b974 023f e6e5 0ebe 8763 adbd
00000010: 70a4 bf3c 89f7 85be b8a3 2a3e 7025 51be
00000020: 2f42 92be 7c7c 033f 5efe a83e c6e0 773e
00000030: 34d6 f33e a4c1 fd3e cdda f2be 1cca f8bd
00000040: b84f 06bf 9ad7 e2be b032 c6bd 31c5 2dbd
00000050: fd9e 043f a4b1 0cbf d4ce 1f3e 8ca4 943d
00000060: d154 91be 9e0b b8be e865 ce3e 84ff 31be
00000070: 9873 d4be b4b8 d33e cd29 a0bd 9b89 463e

bias f4 [2, 2]
0.00572514 -0.005725138 -0.0033128483 0.0033128492
00000000: f599 bb3b f099 bbbb 5f1c 59bb 631c 593b

weight f4 [32, 32]
-0.07763169 -0.15471584 0.074072964 -0.14515436 0.00844818 -0.006643553 -0.15656048 -0.07874086
0.061890535 -0.021484418 -0.1567927 -0.15782575 0.11512092 0.11523451 -0.012930322 0.008874072
-0.104236744 0.008839806 -0.03197917 -0.051231295 0.16777834 0.106482126 0.16066606 0.1721205
0.052595217 0.020438021 -0.13973235 0.06531958 -0.15320101 0.01281692 0.08399407 0.115983665
-0.16602698 -0.004133596 -0.027354218 0.14453632 0.1386675 -0.08747708 0.047405746 -0.052114062
-0.103654325 -0.16121708 0.16024889 0.13281453 0.03489009 0.04212927 0.026129631 0.04819668
-0.037647728 0.096127525 0.10709995 -0.08921909 -0.15590024 0.09569108 -0.13068907 -0.15383977
0.12876631 0.04627207 -0.06903803 0.149497 -0.07638972 0.11335232 0.055795774 -0.06337928
-0.11261836 -0.12050302 -0.066236325 -0.15239112 0.14355867 -0.08481231 0.15895914 -0.07654241
-0.14188376 -0.076063596 0.14818911 -0.012903869 -0.13778241 0.13852851 -0.10554538 -0.030406311
-0.07645569 -0.00808613 -0.06510409 -0.052862912 -0.05140552 0.16041033 0.11995016 0.0034787953
-0.10899407 0.12768559 -0.06205447 0.023919195 -0.1364274 0.068207994 0.14184774 -0.13057244
0.029686596 -0.018715069 0.015106995 -0.15137446 0.06985338 -0.1482999 0.09555752 -0.09430493
-0.036341917 0.04106009 -0.0036160424 0.11113051 -0.0032321615 0.05318607 0.019933578 0.16785161
-0.050130513 -0.07056813 0.10676396 -0.016715854 -0.06622703 0.02358039 -0.15741399 0.054441515
-0.13386972 0.035460267 -0.084850766 -0.07101679 0.102731295 0.120313264 0.12923226 0.15942001
0.15641175 0.017986381 -0.13079059 -0.074681535 -0.09954146 -0.071782604 -0.12320856 0.121854365
0.041306056 -0.06734762 0.060654223 0.11494523 0.17650957 -0.11802132 0.1776836 0.18227494
-0.033655412 0.16875827 -0.011182189 -0.08377627 -0.007067354 -0.13713193 0.07582801 -0.06664014
-0.12650266 0.12202125 -0.1643334 -0.08293438 0.16140376 -0.09177235 0.119241476 -0.11624053
-0.029992465 0.1359827 -0.054513637 -0.114956625 -0.01985291 0.0847638 0.036219444 0.04765681
0.1325391 0.0771198 -0.12780766 0.13806239 0.006339692 0.06293178 -0.13663311 -0.15474938
-0.14378312 0.10917427 0.14681369 -0.1032215 0.029887307 0.08532686 -0.120866396 0.1620418
0.15788104 -0.116356984 -0.03648911 -0.13799667 0.04511609 0.032113228 -0.1396446 -0.1137931
-0.06925416 0.015193135 -0.103774115 0.09245707 -0.094122574 -0.1628467 0.09091763 0.10885845
0.10172956 0.034231305 -0.1125874 -0.05831042 0.06413993 -0.10871175 -0.1376374 -0.17662863
0.1424283 0.07208268 0.037001222 -0.09281547 -0.062467717 0.019696489 -0.010536432 -0.0030461252
-0.1334771 0.12179004 -0.043386087 0.08130254 -0.0033030212 -0.12156531 0.07706495 -0.076251864
-0.09683769 -0.050244823 -0.0886128 -0.1426469 0.15757339 0.002050504 -0.099181816 -0.1525059
-0.112923756 -0.023380473 -0.059807956 -0.07005352 0.12944476 -0.06543945 0.1241215 0.07390554
0.045028 -0.16277415 0.08470006 0.09719853 -0.026068494 0.095497355 -0.11840434 -0.08406157
-0.08308844 -0.15084344 0.15154903 0.06205198 -0.08784634 -0.10366051 0.08942647 0.08364944
00000000: 5dfd 9ebd d46d 1ebe 91b3 973d 58a3 14be
00000010: 3c6a 0a3c 29b2 d9bb 6451 20be e342 a1bd
00000020: ee80 7d3d 1700 b0bc 448e 20be 139d 21be
00000030: 84c4 eb3d 1200 ec3d b4d9 53bc 8e64 113c
00000040: 137a d5bd d5d4 103c 97fc 02bd e8d7 51bd
00000050: 16ce 2b3e 4d13 da3d a585 243e 5b40 303e
00000060: 156e 573d a36d a73c ff15 0fbe 46c6 853d
00000070: bae0 1cbe 0ffe 513c 1505 ac3d d888 ed3d
00000080: fa02 2abe 1e73 87bb f415 e0bc 5401 143e
00000090: dafe 0d3e 2f27 b3bd 872c 423d 8e75 55bd
000000a0: b848 d4bd 1716 25be 4918 243e 8800 083e
000000b0: e9e8 0e3d be8f 2c3d cf0d d63c e269 453d
000000c0: 8134 1abd 82de c43d 3857 db3d 80b8 b6bd
000000d0: 50a4 1fbe aff9 c33d 5bd3 05be 2c88 1dbe
000000e0: 51db 033e c887 3d3d d063 8dbd be15 193e
000000f0: 3772 9cbd 4325 e83d 1c8a 643d ffcc 81bd
00000100: 74a4 e6bd 4aca f6bd e9a6 87bd 6b0c 1cbe
00000110: 0b01 133e 14b2 adbd 2fc6 223e 44c2 9cbd
00000120: fa49 11be 3bc7 9bbd e3be 173e c06a 53bc
00000130: d516 0dbe 6bda 0d3e 2d28 d8bd a816 f9bc
00000140: cd94 9cbd b07b 04bc 4b55 85bd c886 58bd
00000150: 988e 52bd 9b42 243e 6ea8 f53d 80fc 633b
00000160: 4838 dfbd 03c0 023e d42c 7ebd 30f2 c33c
00000170: a0b3 0bbe a2b0 8b3d 8940 113e c8b4 05be
00000180: 4e31 f33c 5850 99bc 5483 773c e801 1bbe
00000190: 4a0f 8f3d eedb 17be a9b3 c33d f122 c1bd
000001a0: 43db 14bd a02e 283d 20fb 6cbb 6598 e33d
000001b0: acd2 53bb a3d9 593d be4b a33c 4be1 2b3e
000001c0: a755 4dbd 0686 90bd 10a7 da3d b0ef 88bc
000001d0: 09a2 87bd a92b c13c 2231 21be 11fe 5e3d
000001e0: 2515 09be c93e 113d 3dc6 adbd 4071 91bd
000001f0: c964 d23d cd66 f63d 7655 043e 003f 233e
00000200: 672a 203e 2d58 933c f8ed 05be a2f2 98bd
00000210: 65dc cbbd c202 93bd c554 fcbd c88e f93d
00000220: 8a30 293d 8ded 89bd 9070 783d 6868 eb3d
00000230: edbe 343e 29b5 f1bd b1f2 353e 48a6 3a3e
00000240: 42da 09bd f8ce 2c3e 8035 37bc e592 abbd
00000250: 4395 e7bb 506c 0cbe b74b 9b3d a07a 88bd
00000260: ea89 01be 47e6 f93d 0447 28be 80d9 a9bd
00000270: 0747 253e 24f3 bbbd e034 f43d 840f eebd
00000280: c2b2 f5bc 0d3f 0b3e b149 5fbd 616e ebbd
00000290: 92a2 a2bc a598 ad3d d75a 143d ca33 433d
000002a0: 54b8 073e fcf0 9d3d 03e0 02be 3a60 0d3e
000002b0: 31bd cf3b 61e2 803d 8de9 0bbe 9f76 1ebe
000002c0: e23b 13be c296 df3d 5456 163e cb65 d3bd
000002d0: 3ad6 f43c d9bf ae3d cd88 f7bd 49ee 253e
000002e0: 91ab 213e 924c eebd 9b75 15bd 004f 0dbe
000002f0: a6cb 383d 2989 033d fefe 0ebe 5b0c e9bd
00000300: 20d5 8dbd a0ec 783c 8687 d4bd 225a bd3d
00000310: 56c3 c0bd 49c1 26be 0633 ba3d 2ef1 de3d
00000320: 9657 d03d 2036 0c3d 3994 e6bd e8d6 6ebd
00000330: cc5b 833d 44a4 debd d2f0 0cbe 23de 34be
00000340: b9d8 113e 16a0 933d 988e 173d 0a16 bebd
00000350: 26de 7fbd 885a a13c 00a1 2cbc 80a1 47bb
00000360: 39ae 08be 0e6d f93d 9cb5 31bd f281 a63d
00000370: 8077 58bb 3cf7 f8bd 3ad4 9d3d f029 9cbd
00000380: d752 c6bd 84cd 4dbd a17a b5bd 0712 12be
00000390: eb5a 213e c061 063b d61f cbbd 822a 1cbe
000003a0: 9244 e7bd 6888 bfbc 30f9 74bd 3878 8fbd
000003b0: 2b8d 043e 1e05 86bd 6a33 fe3d ca5b 973d
000003c0: 486f 383d 44ae 26be 3a77 ad3d 0610 c73d
000003d0: 988d d5bc 1e94 c33d fa7d f2bd 7928 acbd
000003e0: 462a aabd b476 1abe ab2f 1b3e 382a 7e3d
000003f0: c8e8 b3bd f64b d4bd 3a25 b73d 6650 ab3d

bias f4 [32]
-0.10816253 -0.009896346 0.0013238341 0.006490941 0.07719233 -0.084027074 0.071841866 -0.17226532
-0.119581796 0.066625714 -0.12596992 -0.1112165 -0.12849078 0.10391168 -0.113273166 -0.11354236
-0.035212997 -0.06537256 -0.06674331 -0.13248909 -0.100360826 0.16308151 -0.17137505 0.090140834
-0.09069671 0.038603626 0.0038823336 0.04772906 -0.09255397 -0.017820746 -0.13518387 -0.04342414
00000000: 5184 ddbd 4924 22bc 8084 ad3a f6b1 d43b
00000010: 0317 9e3d 6316 acbd d421 933d 5266 30be
00000020: 4de7 f4bd 1073 883d 42fe 00be 7ac5 e3bd
00000030: 1693 03be a6cf d43d c3fb e7bd e688 e8bd
00000040: 813b 10bd 0ce2 85bd b7b0 88bd 38ab 07be
00000050: fa89 cdbd d7fe 263e f17c 2fbe c29b b83d
00000060: 32bf b9bd d61e 1e3d c06e 7e3b 8c7f 433d
00000070: f08c bdbd d0fc 91bc a46d 0abe 83dd 31bd

a f4 [32, 1]
-0.032060027 0.05455169 -0.55757266 -0.4017619 -0.28852838 -0.32618156 -0.53789735 -0.059167303
-0.060131434 0.5873956 -0.031410936 0.12990448 -0.036753155 0.047944307 0.46698162 -0.29074463
0.066800654 -0.28770927 0.21588245 -0.32125437 0.062906146 0.01115961 0.34069318 0.44964358
-0.28877157 -0.48145917 0.21172708 0.4844466 0.5233654 0.076761484 0.56730115 -0.29336336
00000000: 6051 03bd 9871 5f3d 15bd 0ebf bcb3 cdbe
00000010: feb9 93be 4501 a7be a4b3 09bf 6a59 72bd
00000020: 614c 76bd 8f5f 163f c1a8 00bd ae05 053e
00000030: 7a8a 16bd 4061 443d 3718 ef3e 7bdc 94be
00000040: c8ce 883d a14e 93be 4a10 5d3e 747b a4be
00000050: f0d4 803d ccd6 363c 566f ae3e af37 e63e
00000060: ded9 93be d181 f6be fcce 583e 6209 f83e
00000070: 46fb 053f 2035 9d3d a63a 113f b933 96be

bias f4 [2, 2]
-0.011243881 0.011243882 -0.008370415 0.008370417
00000000: 4138 38bc 4238 383c 1124 09bc 1324 093c

weight f4 [32, 32]
-0.106297195 0.14204766 0.12960456 0.15216799 0.0358759 0.0038482547 -0.08591287 -0.16432947
0.093965545 0.13761537 -0.046042666 -0.09487972 0.14796354 0.06991395 -0.03168586 -0.14943214
-0.14529341 -0.065617524 -0.12576738 -0.17531347 0.13516124 -0.1418482 0.13664399 0.17300497
-0.041025832 0.10305326 0.11772062 0.01876375 -0.17127818 -0.03124179 -0.07226231 -0.14814697
-0.019565292 0.14112356 0.13470764 0.09960513 -0.01994506 0.1628507 0.06045628 0.029569058
-0.139702 0.16185334 0.14329588 -0.09814931 0.14190899 0.1532 -0.14312097 0.15441503
-0.10757461 -0.028751165 0.10243257 0.01906067 -0.042670228 0.047237776 -0.022105806 0.004617003
-0.0654388 0.06822545 -0.11028332 0.054097623 -0.1147641 0.051190503 0.057354633 -0.17498186
0.085153595 -0.017109454 -0.016596437 -0.037324384 0.09832342 -0.15961275 -0.011953831 -0.16744965
0.1286024 -0.16098113 -0.052398942 -0.13229658 -0.06469853 0.17634864 -0.16730204 -0.08997804
-0.17555445 0.021356463 0.038010374 -0.009844393 0.037044674 -0.12809633 -0.057596073 -0.016213432
0.13747738 -0.0011346936 0.027358621 -0.10206255 0.16625552 0.07923286 -0.0154334605 -0.13494384
0.043880872 0.17176288 0.16435473 0.15258783 -0.076271355 0.09444962 -0.09448791 0.07896215
-0.121902615 -0.16725022 0.06465128 -0.12999569 -0.15583985 0.1358409 -0.04324259 -0.027034447
-0.06160697 0.15708861 -0.064489886 -0.12188651 0.07265572 -0.120389834 0.1681098 -0.1617491
-0.16668494 0.15493076 0.044424128 0.0020586825 0.12986189 -0.0081152255 -0.015528026 0.021180876
0.0025294025 -0.17158203 0.07237493 -0.044736855 -0.0817248 0.04751914 0.040242907 0.09623134
-0.041557144 -0.02436309 0.08448738 -0.15615232 0.07578772 0.11379979 -0.06564909 -0.0006672734
0.039142612 0.037447806 0.17075834 0.12518215 0.024663331 -0.13096727 -0.04496186 0.15461144
0.08036153 0.065341026 0.060536746 -0.16190553 0.019237325 -0.15958945 0.12841561 -0.16533042
-0.07709263 -0.14291096 -0.16106082 -0.027801871 -0.15002881 -0.070117876 -0.14031014 0.12683053
-0.03301677 0.11118151 -0.15664822 -0.08602176 0.038196146 0.04281871 -0.15548505 -0.09841451
-0.021360502 -0.052480772 -0.008966967 0.068207234 0.10785945 -0.11851582 -0.08462459 0.071361735
0.0880249 0.07186486 0.026753128 0.06447238 0.07931541 0.12658434 0.084502354 0.04039693
-0.09420171 0.15784483 0.16898413 -0.06695284 0.096943155 -0.062187903 -0.07306291 -0.053723745
-0.14519088 0.12049721 -0.053345434 0.032267123 -0.06698304 -0.10076599 0.13110174 0.014431626
0.077226475 0.050843254 -0.17258205 -0.025850683 0.15718295 -0.056369618 -0.06500985 -0.12207286
-0.12328282 -0.12847659 0.023293048 -0.17647809 -0.09171575 -0.14875494 0.014452934 -0.13995802
-0.08334288 -0.12809402 0.13564129 0.089034535 0.02638175 0.053415038 -0.10629387 0.048255093
-0.038897287 -0.048336726 -0.11123903 0.045594316 -0.11907133 0.1174684 0.1256045 -0.026548542
0.1115009 -0.11912704 0.067085646 0.12831962 -0.027503375 0.098565094 0.016011886 -0.091349564
0.08471368 -0.066305056 0.0838842 0.09620847 -0.040746495 -0.16680054 -0.08029729 0.033716496
00000000: 58b2 d9bd f174 113e 0fb7 043e edd1 1b3e
00000010: 9cf2 123d 0033 7c3b 16f3 afbd fc45 28be
00000020: 0271 c03d 0beb 0c3e 3c97 3cbd 4c50 c2bd
00000030: c183 173e 0c2f 8f3d 08c9 01bd bd04 19be
00000040: ccc7 14be 7b62 86bd 2ac9 00be 6085 33be
00000050: b567 0a3e a840 11be 67ec 0b3e 3728 313e
00000060: b40a 28bd 960d d33d 8217 f13d 70b6 993c
00000070: 8c63 2fbe c8ee ffbc 43fe 93bd d7b3 17be
00000080: 6447 a0bc b282 103e cdf0 093e c6fd cb3d
00000090: d363 a3bc 55c2 263e 01a1 773d cf3a f23c
000000a0: 0b0e 0fbe e2bc 253e 28bc 123e 8102 c9bd
000000b0: 9750 113e 76e0 1c3e 4e8e 12be f91e 1e3e
000000c0: 1450 dcbd 9087 ebbc 2bc8 d13d 1f25 9c3c
000000d0: fac6 2ebd 667c 413d 3c17 b5bc 3a4a 973b
000000e0: c704 86bd c9b9 8b3d 39dc e1bd 7895 5d3d
000000f0: 7109 ebbd 22ad 513d b1ec 6a3d 722e 33be
00000100: 0265 ae3d 2029 8cbc 40f5 87bc 74e1 18bd
00000110: ca5d c93d 8671 23be 00da 43bc ec77 2bbe
00000120: 59b0 033e 3dd8 24be 46a0 56bd c178 07be
00000130: aa80 84bd bd94 343e 3a51 2bbe 6846 b8bd
00000140: 8cc4 33be c0f3 ae3c c4b0 1b3d 604a 21bc
00000150: 28bc 173d af2b 03be dce9 6bbd 08d2 84bc
00000160: dfc6 0c3e 00ba 94ba 301f e03c 2c06 d1bd
00000170: e33e 2a3e d644 a23d a0dc 7cbc b82e 0abe
00000180: 6ebc 333d 9ce2 2f3e 9b4c 283e fc3f 1c3e
00000190: 2834 9cbd cd6e c13d e182 c1bd e8b6 a13d
000001a0: 14a8 f9bd a443 2bbe e467 843d 971d 05be
000001b0: 7b94 1fbe e019 0b3e 241f 31bd 5877 ddbc
000001c0: 9757 7cbd d6db 203e 4613 84bd a29f f9bd
000001d0: 86cc 943d f28e f6bd fa24 2c3e 8ea1 25be
000001e0: 75af 2abe 2ba6 1e3e 13f6 353d f6ea 063b
000001f0: 84fa 043e b9f5 04bc 4369 7ebc 8483 ad3c
00000200: 55c4 253b 33b3 2fbe 4f39 943d fe3d 37bd
00000210: 555f a7bd 6ea3 423d bfd5 243d f014 c53d
00000220: d337 2abd 1a95 c7bc b807 ad3d 65e6 1fbe
00000230: 9836 9b3d dd0f e93d 0873 86bd f6eb 2eba
00000240: 0154 203d df62 193d 46db 2e3e c02f 003e
00000250: c10a ca3c 491c 06be ed29 38bd 7652 1e3e
00000260: 9694 a43d 84d1 853d 61f5 773d 90ca 25be
00000270: 9897 9d3c 6b6b 23be 627f 033e 614c 29be
00000280: bee2 9dbd 4057 12be 21ed 24be c0c0 e3bc
00000290: 27a1 19be f699 8fbd 76ad 0fbe dddf 013e
000002a0: 983c 07bd 22b3 e33d 6468 20be 2d2c b0bd
000002b0: 9073 1c3d ac62 2f3d 7937 1fbe 8c8d c9bd
000002c0: 38fc aebc 14f6 56bd 30ea 12bc 3cb0 8b3d
000002d0: 6ae5 dc3d 6cb8 f2bd a84f adbd 1a26 923d
000002e0: 6646 b43d e22d 933d 6029 db3c 180a 843d
000002f0: 1e70 a23d 539f 013e 920f ad3d 4077 253d
00000300: d3ec c0bd 13a2 213e 2d0a 2d3e 921e 89bd
00000310: 228a c63d beb8 7ebd 02a2 95bd 6e0d 5cbd
00000320: ebac 14be 3ec7 f63d be80 5abd 882a 043d
00000330: 672e 89bd 665e cebd 893f 063e a072 6c3c
00000340: ea28 9e3d 0441 503d 59b9 30be d0c4 d3bc
00000350: 91f4 203e d4e3 66bd e223 85bd 5601 fabd
00000360: b47b fcbd 5e8f 03be 10d1 be3c acb6 34be
00000370: 78d5 bbbd 3753 18be 00cc 6c3c 2851 0fbe
00000380: acaf aabd 142b 03be 8de5 0a3e bd57 b63d
00000390: 8a1e d83c bac9 5a3d 9ab0 d9bd 22a7 453d
000003a0: c352 1fbd bbfc 45bd 4ad1 e3bd 1bc1 3a3d
000003b0: abdb f3bd 4693 f03d 779e 003e 547c d9bc
000003c0: 955a e43d e1f8 f3bd 3364 893d 3866 033e
000003d0: c24e e1bc 7fdc c93d 5c2b 833c 7b15 bbbd
000003e0: 5e7e ad3d f2ca 87bd 7bcb ab3d f208 c53d
000003f0: cce5 26bd c3cd 2abe e872 a4bd 4f1a 0a3d

bias f4 [32]
-0.061288916 0.14390762 -0.03502257 0.029330736 -0.07055591 -0.08202666 -0.14739351 0.1695162
0.1123941 0.14072208 0.0053633433 -0.0045899106 0.1044517 -0.13936627 -0.1206215 -0.16332363
-0.09125151 0.13633482 -0.012833068 -0.15141577 0.09100367 -0.102568775 0.15278415 0.01098002
-0.15543297 0.004465945 0.03073378 -0.12627023 -0.10446817 -0.036327913 0.15914558 -0.092074744
00000000: 160a 7bbd 855c 133e d473 0fbd 0347 f03c
00000010: 9e7f 90bd 98fd a7bd 53ee 16be a895 2d3e
00000020: e12e e63d 7319 103e fcbe af3b f666 96bb
00000030: c6ea d53d 08b6 0ebe 6808 f7bd 4f3e 27be
00000040: 12e2 babd 5b9b 0b3e ca41 52bc bc0c 1bbe
00000050: 2260 ba3d 940f d2bd 7373 1c3e 8be5 333c
00000060: d229 1fbe 1057 923b 68c5 fb3c fc4c 01be
00000070: 68f3 d5bd 94cc 14bd 0ff7 223e af91 bcbd

a f4 [4, 1]
0.69312584 -1.510518 0.91599005 0.7742486
00000000: b270 313f a758 c1bf 537e 6a3f 2835 463f

bias f4 [16, 16]
-0.0013809714 0.0011865192 0.0063882573 -0.0043623974 -0.005618952 -0.002704071 0.00030183684 0.0011066512
0.0040791123 -0.0065095704 0.0010902296 0.009863999 0.0037477815 0.0005611693 -0.0011305765 0.0015673185
-0.0036749092 -0.00046906515 0.005782248 0.0019889937 0.0060616755 0.0022638396 -0.005507439 -0.004000577
0.0017646418 0.0018782667 -0.0019534384 -0.005875175 -0.008868628 0.0027820491 -0.0020289395 0.0053279772
0.0007408157 -0.0010693794 0.0069080032 -0.004189959 -0.008103749 0.0037986306 -0.0015884055 -0.0034529127
0.007948641 0.008647078 -0.004361904 0.0022472914 -0.0006940061 -0.0129769845 0.014178388 0.0035669378
0.0040900507 -0.0015005895 -0.009635164 0.0022483845 0.007196557 -0.0014160357 0.0046962807 -0.00423657
-0.0032855927 -0.00025789955 0.00614683 -0.00018905876 -0.007562343 -0.0026516004 0.0045827813 -0.002263214
0.0025491444 -0.006619646 0.009287887 -0.0042478107 -0.0102810785 -0.0009702136 0.00038671188 0.0017718931
0.0062268614 0.00058952696 -0.0018180877 0.007522078 0.009712119 -0.005753803 -0.009867966 -0.00066255993
0.0067912377 0.0010220064 0.0017176145 -0.008791954 -0.005635021 -0.0015014648 0.007970521 0.0067794695
-0.005204569 0.005117907 -0.005504406 0.0009469843 -0.0019135063 -0.002546326 -0.00796252 0.00455647
0.008020492 0.011221944 -0.0032959755 -0.0014291608 -0.0055000708 0.005798191 -0.0072174985 -0.0006121924
-5.791798e-05 0.0009153261 0.0013856672 0.0061097657 -0.00864685 -0.0015126056 -0.0005451701 0.001323315
0.0016189524 -0.0020580406 0.0028475092 0.0012583883 -0.008414286 0.012311755 0.002559085 0.0060650157
-0.009978532 0.0052513597 0.0028333142 -0.006679874 -0.00227659 -0.0005626289 -0.005622519 -0.011195267
-0.0029895043 -9.685708e-05 -0.0058271103 0.0027357216 0.0012542859 0.0050540785 -0.0014174172 0.00019766328
-0.0001357118 0.009864022 0.002262105 -0.0029155393 -0.009106666 0.002821455 0.0024076826 -0.0016787658
-0.0016325755 -0.010328381 0.0006651896 -0.0008031888 -0.0015054748 0.0009974912 0.0004331059 0.011391967
-0.005565866 0.005693069 -0.0021995055 -0.0017527961 -0.005690453 0.0051475735 -0.0015588092 0.0032493605
0.0018338372 0.0021097856 -0.0033860062 0.0077757165 -0.0042044595 0.0014284397 -0.0027760763 0.0019498712
0.00093843066 -0.0057783946 -0.0038804072 -0.0030609486 0.0059531773 -0.001469636 -0.0048642526 0.004190834
0.0017716872 0.004489426 0.0077348403 -0.00020304554 0.000885622 1.1058162e-05 -0.00065522554 -0.0032728675
0.0035164969 -0.0040385537 -0.007446287 -0.001200433 0.0035764046 0.0010038358 0.0004818091 -0.0035702402
-0.008171644 0.002529588 0.0030068194 0.01055948 -0.0105363745 -0.014078546 -0.0017562617 0.003989522
0.008622974 0.0034648294 0.0023136782 0.009922838 -0.0034082662 -0.0044445656 -0.0043097865 0.0007196079
0.0034618154 -0.0042881933 0.0072784345 -0.004534359 0.0070807785 -0.0074403714 -0.0017254306 -0.004733609
-0.003607 0.0015557824 0.007235609 -0.00551176 -0.00914721 0.014421463 -0.0040838965 0.0034118902
-0.008733752 -0.009429428 -0.0013449864 0.0031937747 -0.00063547865 -0.0056123 -0.0071824812 0.005613419
0.0017526887 -0.0023293225 0.0045097833 0.0028183556 0.00070435356 0.0019358248 -0.0009915971 0.0043522287
-0.0040768883 0.004692015 -0.0022405584 -0.0014979132 -0.004810262 -0.001223443 0.0036761023 -0.0041607153
0.008281289 0.0017311086 -0.0029079027 0.0027045736 -0.0042963214 -0.0006882436 -0.00087005756 0.0050746095
00000000: b601 b5ba fa84 9b3a 9654 d13b 71f2 8ebb
00000010: 301f b8bb c936 31bb db3f 9e39 0d0d 913a
00000020: 13aa 853b 3c4e d5bb 09e6 8e3a 9c9c 213c
00000030: 579d 753b 6f1b 133a da2f 94ba 7b6e cd3a
00000040: bfd6 70bb dcec f5b9 0379 bd3b c759 023b
00000050: 05a1 c63b ed5c 143b bf77 b4bb 4617 83bb
00000060: 8e4b e73a 2c30 f63a 4205 00bb 8a84 c0bb
00000070: b94d 11bc 0a53 363b f5f7 04bb 5096 ae3b
00000080: 4d33 423a 6b2a 8cba 885c e23b ec4b 89bb
00000090: 96c5 04bc 72f2 783b 0b32 d0ba 434a 62bb
000000a0: 043b 023c 79ac 0d3c 4eee 8ebb 4b47 133b
000000b0: f6ed 35ba 6b9d 54bc 784c 683c 49c3 693b
000000c0: d505 863b 6eaf c4ba cfdc 1dbc a259 133b
000000d0: 18d1 eb3b 469a b9ba 42e3 993b edd2 8abb
000000e0: 1953 57bb b136 87b9 596b c93b 133e 46b9
000000f0: 88cd f7bb 79c6 2dbb 282b 963b 6e52 14bb
00000100: 8c0f 273b 9ee9 d8bb 392c 183c 3831 8bbb
00000110: f871 28bc ef55 7eba 97bf ca39 de3e e83a
00000120: b30a cc3b 7c8a 1a3a e64c eeba c47b f63b
00000130: 941f 1f3c 668a bcbb 40ad 21bc a5af 2dba
00000140: 0889 de3b d8f4 853a 9421 e13a 210c 10bc
00000150: fba5 b8bb cccc c4ba ca96 023c 5026 de3b
00000160: 178b aabb 1eb4 a73b 4e5e b4bb 0a3f 783a
00000170: 9ece faba 43e0 26bb 3b75 02bc 714e 953b
00000180: 6268 033c 3fdc 373c 4b01 58bb ae52 bbba
00000190: f039 b4bb c0fe bd3b c480 ecbb 897b 20ba
000001a0: f5ec 72b8 7ff2 6f3a 479f b53a 6e34 c83b
000001b0: 84ab 0dbc 9f42 c6ba bfe9 0eba 1573 ad3a
000001c0: 0733 d43a 31e0 06bb 479d 3a3b 81f0 a43a
000001d0: 13dc 09bc 3eb7 493c 52b6 273b 0abd c63b
000001e0: ff7c 23bc 9913 ac3b 20af 393b d8e2 dabb
000001f0: d832 15bb 637d 13ba 1c3d b8bb 5a6c 37bc
00000200: 8feb 43bb c01f cbb8 58f1 bebb cb49 333b
00000210: da66 a43a af9c a53b a1c8 b9ba d543 4f39
00000220: dc4d 0eb9 b59c 213c d33f 143b a212 3fbb
00000230: 2034 15bc 29e8 383b 36ca 1d3b 080a dcba
00000240: 25fc d5ba 5f38 29bc 1e60 2e3a 178d 52ba
00000250: 5a53 c5ba 40be 823a 7d12 e339 5fa5 3a3c
00000260: de61 b6bb ed8c ba3b 9425 10bb 14be e5ba
00000270: fb76 babb faac a83b f550 ccba 39f3 543b
00000280: 5e5d f03a 5444 0a3b c2e7 5dbb 70cb fe3b
00000290: 90c5 89bb 7c3a bb3a d5ee 35bb d292 ff3a
000002a0: 0401 763a b058 bdbb 6e4e 7ebb 329a 48bb
000002b0: df12 c33b cda0 c0ba 4f64 9fbb 4353 893b
000002c0: f537 e83a 091c 933b 8b74 fd3b 9fe8 54b9
000002d0: 1629 683a 7286 3937 71c3 2bba 9b7d 56bb
000002e0: 0775 663b d855 84bb fcff f3bb d957 9dba
000002f0: 1d62 6a3b 2493 833a 539b fc39 b1fa 69bb
00000300: 5ce2 05bc 72c7 253b 0f0e 453b ab01 2d3c
00000310: c2a0 2cbc b4a9 66bc 5d32 e6ba 89ba 823b
00000320: 6047 0d3c 3112 633b 14a1 173b 6693 223c
00000330: 385d 5fbb b8a3 91bb 1c39 8dbb 12a4 3c3a
00000340: a0df 623b f983 8cbb ef7f ee3b f694 94bb
00000350: e005 e83b 5cce f3bb d827 e2ba 641c 9bbb
00000360: 6b63 6cbb 65eb cb3a b018 ed3b fe9b b4bb
00000370: 2ede 15bc 0048 6c3c 35d2 85bb 059a 5f3b
00000380: 0318 0fbc e37d 1abc 414a b0ba a64e 513b
00000390: 4096 26ba 62e7 b7bb 055b ebbb c6f0 b73b
000003a0: 79ba e53a 8ca7 18bb cec6 933b 29b4 383b
000003b0: 5ea4 383a 80bb fd3a 7af8 81ba 249d 8e3b
000003c0: 6b97 85bb 79bf 993b 55d6 12bb a055 c4ba
000003d0: 679f 9dbb ef5b a0ba c3ea 703b 9c56 88bb
000003e0: 3eae 073c 5ee6 e23a 8392 3ebb 373f 313b
000003f0: 28c8 8cbb 3f6b 34ba 9314 64ba e948 a63b

weight f4 [4, 4]
-0.007355007 0.072626285 0.47849503 0.2585103 0.42642605 -0.03947941 0.42522502 -0.10301246
0.21321492 -0.2265643 -0.3702716 -0.0273415 0.25553215 -0.24717607 0.26089942 0.15424491
00000000: 4502 f1bb 17bd 943d 4dfd f43e 765b 843e
00000010: 8454 da3e 29b5 21bd 18b7 d93e 32f8 d2bd
00000020: 0355 5a3e 7900 68be 3d94 bdbe 48fb dfbc
00000030: 1cd5 823e b91b 7dbe 9c94 853e 61f2 1d3e

bias f4 [4]
-0.16718109 0.14911301 0.27765283 0.142226
00000000: 8531 2bbe 15b1 183e 8328 8e3e b1a3 113e

a f4 [4, 1]
-0.9819413 0.17543626 1.1846515 -1.20005
00000000: 8160 7bbf 90a5 333e a9a2 973f 3d9b 99bf

bias f4 [16, 16]
-0.0054399474 0.0048121433 -0.00085931283 0.0026065754 0.0014108007 -0.004358946 -0.00083010056 -0.00664688
0.006438029 0.0056103542 0.0065385094 0.0052563013 -0.0026291495 -0.0075250976 -0.007265807 0.005304165
0.00094622065 -0.0042659948 -0.009086147 0.0026356166 -0.0030111123 -0.006509295 -0.002498523 -0.008757481
0.003522711 0.005796834 -0.005827795 -0.0016082885 0.0064030574 -0.0048220353 0.008369759 0.004329745
0.001658101 0.0030215718 -0.0028327024 0.0024981555 -0.010056182 -0.0016934675 -0.00088268943 -0.0036124536
-0.0031521379 0.00046813945 -0.00021912053 0.0058487407 0.0036168727 0.008667199 0.0014449782 0.0021766615
0.0040709926 0.005641144 -0.0011664362 -0.0094862925 -0.006663309 -0.00910664 0.0037080776 -0.0004899606
-0.0027900983 -0.0027627696 0.0070337295 -0.004363004 0.0015451981 0.0023027647 0.0008366345 0.00075469125
0.0025863294 -0.0047898497 0.002722005 0.0032105458 -0.0040231887 0.0018738396 -0.0031930378 -0.0052837483
-0.0006868838 0.0030446774 -0.0028882325 0.0022054606 1.775937e-05 0.00010353229 0.008084655 -0.0042421687
0.010618666 0.002066366 0.009572462 -0.0054187155 0.00086994603 -0.0052066576 -0.0019463324 -0.0104778
0.0086866245 -0.0014558887 0.00019259824 0.009073332 0.0056124497 0.004387846 -0.004679032 -0.0019248542
-0.0004988313 -0.0014862164 -0.0059784725 0.010346327 -0.003549579 0.004216436 -0.010549858 0.010717432
0.000948568 0.0008786747 -0.0030952098 0.0019458713 -0.00013794315 0.0025334458 -0.0069500813 0.0070837303
0.0037014766 -0.0062693995 0.0030111093 0.00986676 0.0007522663 -0.009207437 0.00025422912 -0.0058332277
0.0065872637 -0.0030415829 0.0013408839 -0.0060217152 0.0024726393 0.009750867 -0.005629105 -0.0003389159
9.499713e-05 0.0017753714 -0.0018450209 -0.0015361425 -0.0016735246 -0.0048174514 -0.0018423483 0.0007121932
-0.0030273926 0.0070263543 0.00030020426 0.0007229584 0.0069177537 -0.0041501266 -0.0007445789 0.0007218277
0.003536227 0.00045683063 0.0031465986 -0.0019002336 0.012956553 -0.0023888843 0.003492631 0.001300977
-0.0075776507 -0.00270648 -0.0013794657 -0.0040422897 -0.008582452 0.0035798508 0.0035590618 -0.0026805662
0.002829671 -0.0017762047 -0.0038928017 0.0048821433 -0.005804953 -0.0028941717 0.0012598037 -0.006452854
0.009647283 -0.0057015233 0.003857976 0.001178417 -0.0045415945 0.0038198305 -0.0010596201 -0.0053347265
0.00898365 -0.0016234244 0.0036462399 -0.008372448 -0.0004492847 0.0048015625 0.010444573 -0.0024306728
-0.00039838918 -0.013817845 -0.0100375 0.004333608 -0.00244211 -0.00020235269 0.0045760777 0.0005204592
-0.0011146136 -0.0034736462 0.0062646037 0.0103919385 -0.0001574274 -0.004357258 0.011478516 -0.013519837
0.00921614 -0.0049038986 0.000967935 0.0022066298 -0.0015015088 -0.0022687982 -0.0012595317 0.00083111046
-0.0047410703 0.0025211128 0.0014566573 0.0118125845 0.00093116413 0.0016726855 -0.008711438 -0.0013201803
0.0015259075 0.0032988945 0.00045073897 -0.0040638596 -0.0011184023 -0.0021453209 0.0028111248 -0.0020897123
-0.004283131 -0.0002703547 0.008987381 0.003765739 -0.0062179295 0.0067051537 0.002481534 -0.005061005
-0.0032162615 -0.0057706917 0.0028262835 0.011088686 -0.0064808535 0.0015900779 -0.0018920567 0.00024280028
-0.006675975 -0.0011241767 0.0014207746 -0.0028725874 -0.0011068375 -0.0001902725 -0.003109181 -0.0006380124
0.0018268002 0.0008240124 -0.002706262 0.00069318933 0.010733133 0.0057645016 0.0035851656 -0.009120133
00000000: 9641 b2bb 2faf 9d3b 8243 61ba 14d3 2a3b
00000010: 9eea b83a 7dd5 8ebb 1b9b 59ba 12ce d9bb
00000020: 1af6 d23b 10d7 b73b fe40 d63b 0d3d ac3b
00000030: cf4d 2cbb 1895 f6bb 0216 eebb 90ce ad3b
00000040: cb0b 783a c2c9 8bbb 10de 14bc 4fba 2c3b
00000050: 1556 45bb ed4b d5bb 43be 23bb 8a7b 0fbc
00000060: 49dd 663b 5ef3 bd3b 16f7 bebb 35cd d2ba
00000070: bdd0 d13b 2a02 9ebb 5021 093c 89e0 8d3b
00000080: a354 d93a 9005 463b dca4 39bb 18b8 233b
00000090: afc2 24bc 57f7 ddba 4964 67ba eabe 6cbb
000000a0: 1994 4ebb 9d70 f539 b8c3 65b9 cba6 bf3b
000000b0: 0e09 6d3b de00 0e3c 6c65 bd3a 52a6 0e3b
000000c0: f665 853b 58d9 b83b 1be3 98ba 656c 1bbc
000000d0: e357 dabb 0434 15bc 3803 733b b370 00ba
000000e0: 15da 36bb 950f 35bb 337b e63b 88f7 8ebb
000000f0: 3f88 ca3a fbe9 163b 9751 5b3a 79d6 453a
00000100: 687f 293b 2cf4 9cbb aa63 323b 0568 523b
00000110: f4d4 83bb a09b f53a 4942 51bb 4b23 adbb
00000120: fe0f 34ba 3689 473b 8048 3dbb 7d89 103b
00000130: f5f9 9437 7a1f d938 8075 043c e401 8bbb
00000140: eaf9 2d3c de6b 073b d1d5 1c3c 7b8f b1bb
00000150: 170d 643a 9c9c aabb 141c ffba 14ab 2bbc
00000160: 5852 0e3c 85d3 beba 32f4 4939 50a8 143c
00000170: a4e8 b73b ecc7 8f3b 9152 99bb 644b fcba
00000180: 00c4 02ba 26cd c2ba 10e7 c3bb a483 293c
00000190: 0ea0 68bb 072a 8a3b 50d9 2cbc 2b98 2f3c
000001a0: 52a9 783a dc56 663a 01d9 4abb 9b0c ff3a
000001b0: d5a4 10b9 2b08 263b 82bd e3bb a31e e83b
000001c0: 7994 723b 896f cdbb 0856 453b 31a8 213c
000001d0: bd33 453a cada 16bc 0e4a 8539 a924 bfbb
000001e0: f9d9 d73b 4b55 47bb 99c0 af3a cf51 c5bb
000001f0: 010c 223b 1ac2 1f3c 5b74 b8bb 86b0 b1b9
00000200: 3239 c738 94b3 e83a a1d4 f1ba 6458 c9ba
00000210: 2b5a dbba b6db 9dbb f37a f1ba 7ab2 3a3a
00000220: 3867 46bb 553d e63b bc64 9d39 eb84 3d3a
00000230: 53ae e23b c9fd 87bb d82f 43ba 0939 3d3a
00000240: 0bc0 673b c582 ef39 2a37 4e3b 4211 f9ba
00000250: b947 543c d48e 1cbb a0e4 643b 8b85 aa3a
00000260: f14d f8bb 335f 31bb 30cf b4ba 2f75 84bb
00000270: 6a9d 0cbc ee9b 6a3b 263f 693b 70ac 2fbb
00000280: 0072 393b 8acf e8ba 601e 7fbb 63fa 9f3b
00000290: 7a37 bebb 25ac 3dbb ff1f a53a 7672 d3bb
000002a0: a30f 1e3c d8d3 babb 19d6 7c3b 1d75 9a3a
000002b0: a8d1 94bb 1f56 7a3b f3e2 8aba eece aebb
000002c0: 2930 133c 15c9 d4ba c1f5 6e3b 982c 09bc
000002d0: f98d ebb9 6d56 9d3b b71f 2b3c ec4b 1fbb
000002e0: e4de d0b9 3e64 62bc 5474 24bc f000 8e3b
000002f0: cf0b 20bb a32e 54b9 ecf2 953b 6d6f 083a
00000300: 3a18 92ba 1da6 63bb 4e47 cd3b f342 2a3c
00000310: 1913 25b9 54c7 8ebb 6310 3c3c 4e82 5dbc
00000320: 4bff 163c e2b0 a0bb 05bd 7d3a 1b9d 103b
00000330: 46ce c4ba 1eb0 14bb df16 a5ba e1de 593a
00000340: fb5a 9bbb 4139 253b 4fed be3a 9289 413c
00000350: 5e19 743a 033e db3a 6bba 0ebc e609 adba
00000360: f600 c83a 4432 583b 2951 ec39 202a 85bb
00000370: 5b97 92ba 8398 0cbb d93a 383b 8ef3 08bb
00000380: 8259 8cbb 65be 8db9 cf3f 133c 9eca 763b
00000390: c6bf cbbb e8b6 db3b 3ba1 223b c9d6 a5bb
000003a0: eac7 52bb 1218 bdbb 2b39 393b 52ad 353c
000003b0: 575d d4bb 296a d03a e3fe f7ba 3498 7e39
000003c0: 23c2 dabb 1c59 93ba 4939 ba3a 0542 3cbb
000003d0: 4e13 91ba e383 47b9 67c3 4bbb 4a40 27ba
000003e0: 3e71 ef3a 8902 583a 8b5b 31bb 26b7 353a
000003f0: 06da 2f3c 25e4 bc3b 19f5 6a3b 9c6c 15bc

weight f4 [4, 4]
0.44061968 -0.22345987 -0.09962926 0.10279106 -0.43464786 -0.15339637 0.19179827 0.47182924
0.45239806 0.24862786 0.16828051 -0.039279662 -0.3043669 -0.47765034 0.08129245 -0.46482748
00000000: e798 e13e aad2 64be 6d0a ccbd 1f84 d23d
00000010: 2a8a debe f013 1dbe c466 443e 9a93 f13e
00000020: b8a0 e73e 4d98 7e3e ba51 2c3e b6e3 20bd
00000030: fad5 9bbe 968e f4be a87c a63d defd edbe

bias f4 [4]
-0.02931789 -0.49481016 0.38032585 0.32548642
00000000: 122c f0bc c257 fdbe 12ba c23e 28a6 a63e

weight f4 [32, 32]
0.023410758 0.036353596 0.10438955 0.004523264 0.034840435 0.13814165 0.1056463 0.0821031
0.029990073 -0.006965034 -0.04241801 0.02029036 0.12331994 -0.05715536 0.11716567 -0.139936
-0.049205024 0.041867834 0.1605413 0.10393909 -0.067064926 0.16221358 0.20114976 -0.13165747
-0.06161619 0.13263759 -0.0815706 0.03383461 -0.04579446 0.013464721 0.15354541 -0.16236563
-0.020016637 0.06428156 -0.08238364 0.15851235 0.12720828 -0.13613638 0.047226384 0.11784532
0.0037730865 0.122055754 0.076708026 -0.077239916 -0.027209539 0.044180393 0.085376725 0.13373478
0.12519334 0.20243506 -0.08685949 0.032603256 -0.08336673 -0.07592949 -0.0481708 0.12933792
-0.08174323 0.16608466 -0.05813612 0.17684536 0.11256217 0.13653342 -0.04670814 0.05351037
0.0068449858 -0.15906554 -0.14502503 0.1042538 -0.13584109 -0.07281645 -0.2519871 0.07109948
-0.06339275 0.089189366 0.04307485 0.0006520752 -0.06600075 0.016467344 -0.050109293 -0.15956365
0.017245648 0.036674947 -0.016741635 -0.07273355 -0.12034263 0.063838154 -0.16866629 -0.0076567554
-0.21545883 -0.014637194 -0.17020029 0.08067442 0.19520025 0.20587294 0.03991923 0.150787
-0.09535317 -0.15793924 -0.009933768 -0.0573808 -0.10273472 -0.033786528 -0.102899306 0.06951575
0.15612642 0.09239541 -0.051828403 -0.0002022529 0.011245489 0.009490112 0.0046918006 -0.074095145
-0.055770498 -0.06635601 -0.039102588 -0.17480385 0.15308212 0.116029456 0.072240055 0.119317375
-0.1056483 0.07961363 0.009787061 -0.18331462 -0.054284092 0.1099071 0.02797599 0.083286755
-0.035530556 0.0828466 0.1613466 -0.16171952 0.22493327 -0.0010648288 0.08911062 0.055391148
0.012779904 -0.0075600375 0.0032527584 -0.044729207 0.062187962 -0.024964545 0.13921933 -0.18711558
-0.10351902 -0.04052635 0.17129058 0.19133134 0.06733338 0.13230444 -0.0060354606 0.038429122
-0.039123647 0.12779051 -0.047006324 -0.09490034 -0.05105357 0.007567758 0.12090743 -0.069365315
0.048368976 -0.12938838 0.11106947 0.16026679 -0.07864804 -0.11107724 -0.025986454 0.1250285
-0.1473796 0.0013553179 -0.14043216 0.08446447 -0.16842209 0.15073892 -0.100583516 -0.1250891
-0.15349518 -0.12556715 0.093188636 0.031882863 0.0018760243 -0.1186618 -0.037640724 -0.008484956
0.081490725 -0.0129877 0.120105565 0.15996882 0.015965024 -0.11006856 0.037571672 0.08957665
0.095629 -0.04538209 0.07129393 -0.09431285 0.08861873 0.13967441 0.111447856 -0.11395355
-0.02396802 -0.05862478 0.039139505 0.020682696 -0.10223419 0.021874871 0.088613085 -0.06866721
0.109446056 -0.08097035 0.113131866 -0.01789111 -0.029457808 0.096469715 -0.12583706 0.04649944
0.13508373 0.12071313 -0.059732627 -0.109774694 0.10034247 0.08801411 0.06426196 0.1971084
0.055290107 0.1472901 0.068404436 -0.10742624 0.04694803 -0.0388987 0.09352325 -0.03813481
-0.027405107 0.020056598 -0.062283773 0.023803296 0.10549682 -0.17266189 -0.029565625 0.06442292
-0.08382706 0.16506597 -0.17589529 -0.013933511 -0.02553708 -0.009565915 -0.16480576 0.07693975
0.07382697 -0.04152348 0.0423376 -0.05550902 0.15026976 -0.14698513 -0.04155219 -0.13720948
00000000: ebc7 bf3c 82e7 143d 30ca d53d e337 943b
00000010: d8b4 0e3d 0175 0d3e 165d d83d ac25 a83d
00000020: bead f53c f13a e4bb 82be 2dbd f837 a63c
00000030: 2a8f fc3d bd1b 6abd 8ef4 ef3d 624b 0fbe
00000040: 358b 49bd 9b7d 2b3d f064 243e 05de d43d
00000050: 5659 89bd 511b 263e 34fa 4d3e 37d1 06be
00000060: 4261 7cbd 26d2 073e 7d0e a7bd 2996 0a3d
00000070: f992 3bbd 229b 5c3c 023b 1d3e 2d43 26be
00000080: eef9 a3bc 0da6 833d c1b8 a8bd 1051 223e
00000090: e342 023e 5667 0bbe 7470 413d e358 f13d
000000a0: e345 773b 5ef8 f93d 1919 9d3d f62f 9ebd
000000b0: 8ae6 debc 80f6 343d fed9 ae3d c5f1 083e
000000c0: af32 003e 234b 4f3e 63e3 b1bd fe8a 053d
000000d0: 2dbc aabd ec80 9bbd bf4e 45bd 2971 043e
000000e0: ff68 a7bd 1912 2a3e 2420 6ebd f316 353e
000000f0: ff86 e63d 6bcf 0b3e 0951 3fbd b12d 5b3d
00000100: e74b e03b 14e2 22be 7181 14be 0483 d53d
00000110: ed19 0bbe ca20 95bd 7404 81be 9b9c 913d
00000120: 0fd4 81bd eaa8 b63d 416f 303d 07f0 2a3a
00000130: 672b 87bd 86e6 863c 673f 4dbd a764 23be
00000140: bf46 8d3c 7838 163d c125 89bc 54f5 94bd
00000150: 3276 f6bd 94bd 823d dbb6 2cbe 85e5 fabb
00000160: 3da1 5cbe d7d0 6fbc fc48 2ebe a138 a53d
00000170: 93e2 473e 5bd0 523e 5982 233d e867 1a3e
00000180: 8648 c3bd d3ba 21be 3ec1 22bc 2108 6bbd
00000190: 9566 d2bd be63 0abd dfbc d2bd 465e 8e3d
000001a0: 9bdf 1f3e ce39 bd3d 054a 54bd d913 54b9
000001b0: 003f 383c 6a7c 1b3c adbd 993b 32bf 97bd
000001c0: 9b6f 64bd a9e5 87bd 092a 20bd c8ff 32be
000001d0: 8fc1 1c3e daa0 ed3d 98f2 933d ab5c f43d
000001e0: 235e d8bd 790c a33d e959 203c d4b6 3bbe
000001f0: ff58 5ebd f916 e13d e72d e53c 3f92 aa3d
00000200: 7d88 11bd 7aab a93d 0b38 253e cd99 25be
00000210: e854 663e ba91 8bba a17f b63d d4e1 623d
00000220: cd62 513c 31ba f7bb 3b2c 553b f935 37bd
00000230: ceb8 7e3d 7282 ccbc 838f 0e3e 3a9b 3fbe
00000240: c801 d4bd f5fe 25bd cc66 2f3e 5dec 433e
00000250: 15e6 893d d17a 073e 1dc5 c5bb db67 1d3d
00000260: 1e40 20bd 84db 023e b489 40bd 1c5b c2bd
00000270: 8c1d 51bd f5fa f73b 519e f73d 670f 8ebd
00000280: 8c1e 463d 637e 04be 6478 e33d fa1c 243e
00000290: 3912 a1bd 777c e3bd 8be1 d4bc 7907 003e
000002a0: aeea 16be eca4 b13a 73cd 0fbe b5fb ac3d
000002b0: d776 2cbe 4e5b 1a3e bbfe cdbd 5b17 00be
000002c0: d72d 1dbe ad94 00be afd9 be3d 9b97 023d
000002d0: eee4 f53a f504 f3bd 292d 1abd 7c04 0bbc
000002e0: 9ce4 a63d 5dca 54bc e8f9 f53d dece 233e
000002f0: 15c9 823c a06b e1bd c1e4 193d f673 b73d
00000300: 23d9 c33d 92e2 39bd 8d02 923d 1827 c1bd
00000310: bd7d b53d cf06 0f3e c63e e43d 7b60 e9bd
00000320: 9558 c4bc 8a20 70bd bf50 203d c26e a93c
00000330: 2960 d1bd ee32 b33c c77a b53d 65a1 8cbd
00000340: 4125 e03d c8d3 a5bd aeb1 e73d 6190 92bc
00000350: 8051 f1bc ea91 c53d 6edb 00be 3276 3e3d
00000360: 6453 0a3e 7238 f73d 33aa 74bd 8ed1 e0bd
00000370: 5a80 cd3d be40 b43d c69b 833d c9d6 493e
00000380: e177 623d 37d3 163e a017 8c3d 4a02 dcbd
00000390: 944c 403d 3e54 1fbd 1e89 bf3d 3f33 1cbd
000003a0: ad80 e0bc bc4d a43c 451d 7fbd 21ff c23c
000003b0: b70e d83d 47ce 30be 9c33 f2bc 2af0 833d
000003c0: 86ad abbd 0e07 293e e51d 34be 6249 64bc
000003d0: 2333 d1bc 5bba 1cbc d7c2 28be 9692 9d3d
000003e0: 9832 973d 8614 2abd 316a 2d3d 6d5d 63bd
000003f0: 51e0 193e 4583 16be a132 2abd a480 0cbe

bias f4 [32]
-0.1064373 0.059508666 0.059585925 0.04570718 0.0689987 0.11058815 0.020034967 0.1097618
-0.12786333 0.16794957 0.09515092 0.100788586 0.016914213 0.09958304 -0.16352946 -0.0752428
-0.042503607 0.15288137 0.156083 -0.11561326 0.079216845 0.061382204 0.06820696 -0.042212956
0.013512726 -0.070856795 -0.048992556 -0.16059141 -0.045921862 -0.16266546 0.060101923 0.055417147
00000000: cdfb d9bd 5cbf 733d 5f10 743d 7437 3b3d
00000010: 314f 8d3d 0a7c e23d 5f20 a43c cbca e03d
00000020: 9bee 02be f9fa 2b3e 7cde c23d 3f6a ce3d
00000030: ad8f 8a3c 31f2 cb3d 4474 27be e618 9abd
00000040: 4318 2ebd ef8c 1c3e 39d4 1f3e a5c6 ecbd
00000050: 713c a23d e86b 7b3d 17b0 8b3d 7ee7 2cbd
00000060: 7b64 5d3c 5e1d 91bd 6bac 48bd 1372 24be
00000070: 9018 3cbd c691 26be 6f2d 763d 17fd 623d

weight f4 [32]
0.9373314 0.9444456 1.0795556 1.0507785 0.9298717 0.97582996 0.91447234 1.0030683
0.9070058 1.0742997 0.92531675 0.9716367 1.029938 0.96258616 1.0654206 1.0311819
1.0140346 1.0957485 0.92514455 1.0985839 1.0025202 0.98393273 0.91196555 1.0888146
1.035162 0.94508296 0.94017625 1.0687506 0.9648179 1.0977553 0.99067885 0.9923296
00000000: f3f4 6f3f 30c7 713f e12e 8a3f e97f 863f
00000010: 120c 6e3f fecf 793f dc1a 6a3f 8b64 803f
00000020: 8831 683f a782 893f 8fe1 6c3f 2fbd 783f
00000030: 02d5 833f 0c6c 763f b45f 883f c5fd 833f
00000040: e3cb 813f 7d41 8c3f 46d6 6c3f 669e 8c3f
00000050: 9552 803f 04e3 7b3f 9376 693f 475e 8b3f
00000060: 3080 843f f5f0 713f 64af 703f d2cc 883f
00000070: 4efe 763f 3f83 8c3f 219d 7d3f 5009 7e3f

bias f4 [32]
0.063162275 0.12292372 -0.08429166 0.11825295 0.05625597 0.10503951 0.07529129 -0.2045289
-0.041339856 0.12540312 -0.07831604 0.07530299 0.080153026 -0.20269306 0.15399718 -0.17853832
0.1730861 0.10173802 -0.15416156 0.08083701 0.07698141 0.090070255 -0.12954438 0.097331904
-0.0806246 -0.09816945 0.085796386 -0.046581827 0.17931671 -0.13779655 0.22837734 -0.19377337
00000000: 395b 813d 6ebf fb3d 1ba1 acbd 9a2e f23d
00000010: a96c 663d f41e d73d 5232 9a3d 0670 51be
00000020: fb53 29bd ad69 003e 2964 a0bd 7438 9a3d
00000030: 4527 a43d c58e 4fbe 70b1 1d3e c0d2 36be
00000040: 7c3d 313e 065c d03d 87dc 1dbe e08d a53d
00000050: 6ea8 9d3d c176 b83d 48a7 04be f355 c73d
00000060: 831e a5bd 110d c9bd 04b6 af3d 96cc 3ebd
00000070: cd9e 373e 8a1a 0dbe c0db 693e 876c 46be

running_mean f4 [32]
0.5378345 0.9080645 -0.0044616195 -0.0011896214 0.57827747 -0.00076307746 0.5590548 -0.00047341498
0.67309344 -0.005077954 1.1426642 -0.00058563624 -0.00757943 -0.010327594 -0.0112231225 -0.009060055
-0.007716459 -0.003843022 0.029276347 -0.014422312 -0.00063471874 -0.0007296658 1.1671847 -0.0010146898
-0.0010683674 0.5423343 1.3017787 -0.006399789 -0.0011204599 -0.002502531 -0.00082539057 -0.0004790163
00000000: 86af 093f ea76 683f c732 92bb 12ed 9bba
00000010: fe09 143f 4309 48ba 371e 0f3f af34 f8b9
00000020: da4f 2c3f f764 a6bb d242 923f 6285 19ba
00000030: de5c f8bb 1235 29bc 30e1 37bc a070 14bc
00000040: 5ada fcbb 36db 7bbb f3d4 ef3c 904b 6cbc
00000050: 4163 26ba 0b47 3fba 4f66 953f 57ff 84ba
00000060: 7608 8cba 6cd6 0a3f afa0 a63f 52b5 d1bb
00000070: 65dc 92ba 8101 24bb 065f 58ba 7b24 fbb9

running_var f4 [32]
0.00010781135 0.0005126972 3.909086e-08 1.11131335e-08 0.00013826902 1.832892e-08 0.00014764852 6.4645946e-09
0.00025863654 6.418402e-08 0.0003178229 1.40374645e-08 2.549302e-08 5.4130513e-08 2.4161903e-08 3.895882e-08
3.0091584e-08 3.2915075e-08 5.1280997e-05 5.2439834e-08 2.4911452e-08 1.6155743e-08 0.00046166786 1.1653982e-08
5.373608e-08 0.00018102194 0.00044074314 1.5201662e-08 8.237607e-09 1.7106055e-08 7.814327e-09 1.587686e-08
00000000: c718 e238 8766 063a dbe4 2733 14ec 3e32
00000010: 4ffc 1039 b971 9d32 19d2 1a39 2d1f de31
00000020: 9c99 8739 8ad5 8933 78a1 a639 6c29 7132
00000030: befb da32 217d 6833 968c cf32 ad53 2733
00000040: 0c3e 0133 825e 0d33 8d16 5738 353a 6133
00000050: ddfc d532 dbc6 8a32 030c f239 c136 4832
00000060: 72cb 6633 b5d0 3d39 8b13 e739 cf94 8232
00000070: 6185 0d32 9df0 9232 c63f 0632 9661 8832
