models/ecg/64/decoder.pt (torch, 232916 bytes, 26 tensors)

a f4 [128, 1]
0.33219665 0.018777162 -0.18942952 -0.18376997 -0.23811014 0.103520155 0.09771225 -0.12800957
0.23415327 0.21206367 -0.18114097 0.26692212 -0.049170703 0.09491125 0.12978855 -0.11348586
-0.23840117 -0.15253627 0.29698947 -0.13237889 -0.25617677 -0.1305637 -0.21700412 -0.2173016
-0.041738093 0.23315972 0.2474783 -0.2597823 -0.05904824 0.29013196 0.13296494 -0.21418469
0.07395694 -0.18950102 -0.07912234 -0.07346773 0.17762554 0.30473816 -0.18367736 0.27228928
-0.019614965 0.23870707 -0.11765795 -0.12671787 -0.124793276 0.1920056 -0.29421237 0.12249143
0.17913738 -0.169941 -0.29720426 -0.08249135 -0.17465593 -0.2041025 -0.04981643 0.10562867
0.040280133 0.27295965 0.33117336 0.050522894 0.0111493515 0.15872703 0.044884797 0.26117694
-0.18733545 -0.16297919 0.3034745 -0.07219772 0.29178512 0.11102468 -0.33190665 0.23495862
-0.058898583 0.16471289 0.11598145 -0.09735991 0.28644055 0.19926544 -0.2697592 0.18030168
0.030209333 0.09332219 0.08006484 -0.20792022 -0.2657561 0.05761886 0.022359693 -0.06233649
-0.11996663 0.050869226 0.13243364 0.059465747 -0.16379109 -0.08523575 0.26293617 0.22686365
0.12213699 0.22942397 -0.12150641 0.050039534 0.21752556 0.07973364 0.3681124 -0.2991147
-0.10102627 -0.10884684 0.08250064 0.19825672 -0.14438063 -0.018037556 0.28768843 -0.19613281
0.1037997 -0.0051551475 -0.13781543 -0.3031247 0.1362481 0.17031673 -0.006275705 0.3719931
0.0751819 0.27197227 0.01853179 0.10857314 -0.3016618 -0.2214381 0.29847616 0.03762702
00000000: ae15 aa3e 90d2 993c d0f9 41be 322e 3cbe
00000010: 25d3 73be 6002 d43d 5c1d c83d f114 03be
00000020: e0c5 6f3e 3827 593e 057d 39be 04aa 883e
00000030: 3867 49bd d460 c23d 4ae7 043e 466b e8bd
00000040: 701f 74be 7832 1cbe 010f 983e 558e 07be
00000050: 9a29 83be 7eb2 05be 5436 5ebe 5084 5ebe
00000060: 90f5 2abd 6cc1 6e3e f46a 7d3e 3002 85be
00000070: 91dc 71bd 2d8c 943e f627 083e 3b53 5bbe
00000080: bc76 973d 8e0c 42be e50a a2bd 4076 96bd
00000090: 78e3 353e a406 9c3e eb15 3cbe 8069 8b3e
000000a0: 90af a0bc a06f 743e a7f6 f0bd 54c2 01be
000000b0: 9e93 ffbd 1e9d 443e 01a3 96be c9dc fa3d
000000c0: ca6f 373e 0305 2ebe 282b 98be 3af1 a8bd
000000d0: 01d9 32be 3f00 51be 500c 4cbd d853 d83d
000000e0: c8fc 243d 5ec1 8b3e 8e8f a93e 18f1 4e3d
000000f0: c5ab 363c 5789 223e 1fd9 373d fcb8 853e
00000100: ddd4 3fbe 04e4 26be 0261 9b3e 66dc 93bd
00000110: dc64 953e e860 e33d abef a9be fe98 703e
00000120: a43f 71bd 7faa 283e af87 ed3d a264 c7bd
00000130: 56a8 923e 3d0c 4c3e e11d 8abe 01a1 383e
00000140: 9079 f73c b41f bf3d 09f9 a33d 0ae9 54be
00000150: 2f11 88be c101 6c3d ad2b b73c 8c54 7fbd
00000160: 11b1 f5bd 405c 503d af9c 073e 5b92 733d
00000170: dab8 27be 1590 aebd 929f 863e f24e 683e
00000180: f522 fa3d 1eee 6a3e 5ad8 f8bd 41f6 4c3d
00000190: 05bf 5e3e 644b a33d 3a79 bc3e 9025 99be
000001a0: dce6 cebd 18eb debd 18f6 a83d cf03 4b3e
000001b0: 84d8 13be 7fc3 93bc e64b 933e 0ad7 48be
000001c0: f094 d43d 83ec a8bb 7d1f 0dbe 2933 9bbe
000001d0: 9f84 0b3e 8267 2e3e 6ea4 cdbb e175 be3e
000001e0: f8f8 993d f33f 8b3e fbcf 973c 985b de3d
000001f0: 6a73 9abe abc0 62be ded1 983e ca1e 1a3d

bias f4 [2, 2]
-0.04199916 0.041999143 -0.056927554 0.05692761
00000000: 5007 2cbd 4b07 2c3d de2c 69bd ed2c 693d

weight f4 [128, 128]
-0.08378237 -0.015521421 0.014562778 0.041406848 0.036397427 -0.08800594 0.0014452501 -0.016514871
-0.06414472 -0.04250671 0.019606788 0.0138729755 0.010144371 0.0075370306 -0.011907238 0.05812075
0.08421781 0.037234984 0.014487817 0.035296395 0.08376061 -0.03686313 -0.041122362 0.079764
0.03214518 -0.06614252 -0.017344402 -0.035049096 -0.056629978 -0.0573766 0.08638591 0.05510161
0.02071425 0.051927753 0.0029399917 0.055435248 0.0732689 0.038223527 -0.024995033 0.070666365
-0.05207699 -0.059879776 0.065190844 -0.04141538 -0.05827078 0.085055135 -0.041705612 0.07265142
-0.0041112965 0.022002162 0.04341457 -0.029596467 0.0015519012 -0.009173096 0.08493694 -0.008488855
-0.0021503724 0.010376217 0.053276457 -0.0078076012 -0.06263283 0.0075969165 0.0059162145 0.035068877
0.06536938 0.007364412 0.055574376 0.061475147 0.004040052 0.07770874 -0.04044717 0.09976767
0.048991516 0.019888269 0.00089940656 -3.5851343e-05 -0.045265302 0.075176686 0.09639093 0.09996244
0.08391054 0.06747305 0.018951409 0.10183825 0.0358731 0.020985216 -0.043884955 0.043277424
-0.039641827 0.034716517 0.020004194 -0.0344636 -0.06531281 0.029450897 -0.03318194 -0.0018782987
0.0981009 0.05072981 -0.03289153 -0.017855583 -0.00469255 -0.03885189 0.052103363 0.11651091
-0.03723613 0.005399929 0.054525718 0.09166375 0.02481288 -0.0042038583 -0.001482083 -0.05011824
0.06747466 0.06554081 0.057465665 0.09157826 -0.010327155 0.106979735 0.059294667 0.046802923
0.0026454672 0.074343055 -0.038999256 0.024239244 0.03404956 -0.056025874 0.046886023 -0.018664427
-0.062238377 -0.051650107 -0.028081696 -0.08573124 -0.0063337237 0.087935336 0.05888041 -0.062286615
0.07587544 0.03809031 -0.00846386 0.049501725 0.046042107 -0.014611483 0.061750226 0.0014169738
-0.05414146 -0.0070403963 -0.05758312 -0.0065125227 0.053763397 -0.07808113 -0.05964508 0.011873223
0.058216594 0.008501865 0.07342584 -0.033436283 0.082587145 0.01282648 0.032302864 -0.06477959
-0.009512998 -0.039800648 -0.011945009 -0.07242654 0.054398425 -0.027593426 -0.04339433 0.014580578
0.03983908 -0.08633962 0.06595481 -0.0071296543 0.002335444 0.00814309 0.063073464 0.08677145
0.026059188 -0.037216835 0.001829423 0.049765147 -0.08277304 -0.07339722 0.07359334 0.05643607
0.044877283 -0.080988996 -0.07007231 -0.039791986 -0.0389433 0.073740266 0.039120458 0.013222612
0.038803123 -0.024675213 0.0623227 0.006294243 -0.053484783 0.012413636 -0.059963636 -0.039255586
-0.08426963 -0.031166803 -0.038274597 -0.061994515 0.05950234 -0.056099456 -0.0049265698 0.027888492
-0.05844494 -0.05809765 0.027965136 -0.0025790185 -0.008456416 -0.0063174665 0.045311473 0.034693398
0.03522884 -0.0064625666 -0.084208496 0.062963985 0.0024812594 0.048357256 0.08111561 -0.018548407
-0.08422302 -0.074625015 0.02425418 0.084578805 -0.08115251 0.0024581552 -0.008967668 -0.08265409
-0.041890025 0.03795261 0.019188136 0.0045538545 0.002230011 -0.06793971 0.003302887 0.034728304
-0.033034172 0.081121825 -0.0503138 -0.051117677 -0.020744383 -0.0013230294 -0.08022338 0.06377696
-0.08263722 0.0009023249 0.057582296 0.0495651 -0.08416271 0.04725956 -0.0038559735 0.06669388
00000000: 1796 abbd 8f4d 7ebc b898 6e3c 3a9a 293d
00000010: 7815 153d 753c b4bd 8c6e bd3a 324a 87bc
00000020: 4f5e 83bd 841b 2ebd 6a9e a03c 7a4b 633c
00000030: 9334 263c 32f9 f63b 9316 43bc 0610 6e3d
00000040: 637a ac3d b683 183d 4f5e 6d3c f492 103d
00000050: af8a ab3d cbfd 16bd ec6f 28bd 4f5b a33d
00000060: aaaa 033d bb75 87bd d915 8ebc a48f 0fbd
00000070: d6f4 67bd ba03 6bbd 19eb b03d 3ab2 613d
00000080: eeb0 a93c 32b2 543d e0ac 403b 1210 633d
00000090: 010e 963d 4690 1c3d 62c2 ccbc 87b9 903d
000000a0: af4e 55bd 7f44 75bd c782 853d 2ca3 29bd
000000b0: 57ad 6ebd 6331 ae3d 81d3 2abd 45ca 943d
000000c0: 0eb8 86bb e13d b43c 7ad3 313d 4a74 f2bc
000000d0: 2a69 cb3a c14a 16bc 6bf3 ad3d d714 0bbc
000000e0: 43ed 0cbb 0201 2a3c 6a38 5a3d e8d6 ffbb
000000f0: a445 80bd 8eef f83b cedc c13b 62a4 0f3d
00000100: 62e0 853d 2a51 f13b f5a1 633d 5dcd 7b3d
00000110: 6a62 843b c325 9f3d efab 25bd fe52 cc3d
00000120: 54ab 483d b9ec a23c 27c6 6b3a 165f 16b8
00000130: 1c68 39bd 3cf6 993d 9c68 c53d 1cb9 cc3d
00000140: 4ad9 ab3d 4f2f 8a3d fc3f 9b3c 9390 d03d
00000150: acef 123d 30e9 ab3c b6c0 33bd ab43 313d
00000160: 785f 22bd e832 0e3d d6df a33c b429 0dbd
00000170: b9c2 85bd 0243 f13c c9e9 07bd 3f31 f6ba
00000180: 20e9 c83d 10ca 4f3d 45b9 06bd df45 92bc
00000190: f6c3 99bb 2923 1fbd 566a 553d 469d ee3d
000001a0: ea84 18bd e3f1 b03b 5c56 5f3d 34ba bb3d
000001b0: 6244 cb3c 85c0 89bb 7442 c2ba c948 4dbd
000001c0: 2830 8a3d 433a 863d 1e61 6b3d 628d bb3d
000001d0: 3a33 29bc 3118 db3d f7de 723d 6cb4 3f3d
000001e0: 935f 2d3b 2c41 983d afbd 1fbd 6191 c63c
000001f0: 8d77 0b3d 637b 65bd 8f0b 403d 24e6 98bc
00000200: abed 7ebd 108f 53bd 960b e6bc dc93 afbd
00000210: 208b cfbb 7117 b43d 962c 713d 4020 7fbd
00000220: 9564 9b3d 9604 1c3d 00ac 0abc 52c2 4a3d
00000230: a696 3c3d 0065 6fbc ceed 7c3d c0b9 b93a
00000240: 70c3 5dbd 20b3 e6bb 47dc 6bbd 0067 d5bb
00000250: 0237 5c3d 00e9 9fbd 664e 74bd e887 423c
00000260: 8674 6e3d 684b 0b3c 4960 963d 7cf4 08bd
00000270: 7323 a93d 2826 523c 0250 043d 29ab 84bd
00000280: 68dc 1bbc 0106 23bd 00b5 43bc 5e54 94bd
00000290: e2d0 5e3d 9c0b e2bc 41be 31bd 60e3 6e3c
000002a0: 4e2e 233d d4d2 b0bd 5113 873d e09f e9bb
000002b0: 400e 193b 986a 053c a92c 813d 3bb5 b13d
000002c0: 147a d53c ae70 18bd 40c9 ef3a 8ad6 4b3d
000002d0: e984 a9bd 4851 96bd 1bb8 963d 8229 673d
000002e0: 3ed1 373d 8fdd a5bd 1282 8fbd ecfc 22bd
000002f0: 0283 1fbd 2305 973d c63c 203d a8a3 583c
00000300: 06f0 1e3d ac23 cabc 1646 7f3d f03f ce3b
00000310: dc12 5bbd 9062 4b3c 6e9c 75bd 77ca 20bd
00000320: 8e95 acbd 8651 ffbc d3c5 1cbd f6ed 7dbd
00000330: bab8 733d 8bc8 65bd 106f a1bb 6876 e43c
00000340: f663 6fbd cdf7 6dbd 2417 e53c c004 29bb
00000350: c88c 0abc c002 cfbb 8698 393d aa1a 0e3d
00000360: 1e4c 103d f0c3 d3bb 8175 acbd 43f3 803d
00000370: a09c 223b 4212 463d f11f a63d d4f2 97bc
00000380: 1e7d acbd 00d5 98bd b4b0 c63c a737 ad3d
00000390: 4a33 a6bd 0019 213b 20ed 12bc 8c46 a9bd
000003a0: e094 2bbd 3274 1b3d 7030 9d3c 8038 953b
000003b0: 6025 123b fa23 8bbd 4075 583b 443f 0e3d
000003c0: d74e 07bd 3323 a63d d815 4ebd c560 51bd
000003d0: 20f0 a9bc 8069 adba 284c a4bd 7f9d 823d
000003e0: b43d a9bd 008a 6c3a 6adb 6b3d c604 4b3d
000003f0: 805d acbd 3e93 413d 80b4 7cbb cd96 883d

bias f4 [128]
-0.020178445 0.059026845 -0.05325919 -0.047403947 0.09300388 0.03215044 0.08129674 -0.03129799
0.024906531 -0.03849025 0.021617644 0.053907774 -0.06544081 -0.03192784 0.08465751 -0.085366204
0.07429456 0.051315162 -0.027784012 0.02951031 -0.010985449 0.029163502 0.07379047 0.0071319966
-0.0043608397 0.004994519 0.048498206 0.019019423 -0.030782005 -0.026589809 -0.076938294 -0.08631232
-0.08225362 -0.0015916838 0.058402706 0.0025835151 -0.007812647 -0.052567266 0.018984148 -0.02905593
0.050975554 0.03437212 -0.0060225073 -0.063069195 -0.035582054 -0.022738196 -0.049195725 0.066345
0.007690944 -0.014260859 0.017127482 0.054358028 -0.012246842 -0.031792857 0.046380587 0.0328629
-0.06515938 0.024484977 0.0066725416 0.07237963 -0.06683354 -0.078235 0.044445522 0.034103878
-0.04518429 0.03002061 -0.030434338 -0.023776881 -0.009140968 0.028112307 0.023367643 -0.045759145
0.0552681 -0.03944518 -0.03815394 -0.048226856 0.039519258 0.07755249 -0.009070777 -0.017525777
-0.028546661 0.07010936 0.08657136 -0.08725697 -0.013089422 0.040595032 -0.046466555 0.079560466
0.08575281 0.05634787 0.05635383 0.072336055 0.06595524 -0.062286243 0.05835024 -0.041178077
-0.049764533 0.008833787 0.05527682 0.08578466 -0.021545976 0.011471875 -0.08061241 -0.0094706565
-0.081407025 -0.004951358 -0.08483697 0.029841885 0.030071631 0.0705258 0.04241147 0.053179257
0.029947711 0.065656565 0.012762062 -0.04454038 0.03856837 0.049852315 -0.07846776 0.031263534
-0.030119464 -0.036864366 0.023641096 -0.03684258 0.05313766 -0.04324288 -0.021442533 0.02572757
00000000: 444d a5bc 22c6 713d 4f26 5abd a42a 42bd
00000010: d178 be3d 2eb0 033d e87e a63d 5232 00bd
00000020: c808 cc3c f4a7 1dbd 7c17 b13c 66ce 5c3d
00000030: d505 86bd c4c6 02bd eb60 ad3d 7ad4 aebd
00000040: bf27 983d d92f 523d 4c9b e3bc 9bbf f13c
00000050: 50fc 33bc 4ce8 ee3c 751f 973d 86b3 e93b
00000060: 60e5 8ebb 10a9 a33b 0ea6 463d 9fce 9b3c
00000070: 8b2a fcbc dfd2 d9bc d391 9dbd 83c4 b0bd
00000080: 9674 a8bd 0ca0 d0ba ad37 6f3d 3150 293b
00000090: 9e00 00bc c650 57bd a584 9b3c b406 eebc
000000a0: becb 503d c8c9 0c3d 7458 c5bb 6c2a 81bd
000000b0: 7dbe 11bd 7445 babc 7581 49bd e3df 873d
000000c0: 5004 fc3b 61a6 69bc ef4e 8c3c 86a6 5e3d
000000d0: faa6 48bc 3a39 02bd 92f9 3d3d 409b 063d
000000e0: 4872 85bd b894 c83c 56a5 da3b c53b 943d
000000f0: 06e0 88bd ac39 a0bd 820c 363d 82b0 0b3d
00000100: 2913 39bd c8ed f53c 6f51 f9bc bcc7 c2bc
00000110: 00c4 15bc c84b e63c 806d bf3c f16d 3bbd
00000120: ce60 623d 4591 21bd 4e47 1cbd 8689 45bd
00000130: f2de 213d d7d3 9e3d 999d 14bc 3892 8fbc
00000140: b0da e9bc 7f95 8f3d 534c b13d c8b3 b2bd
00000150: 0475 56bc fa46 263d b753 3ebd 99f0 a23d
00000160: 2b9f af3d 06cd 663d 46d3 663d ed24 943d
00000170: 8a13 873d dc1f 7fbd a900 6f3d 58aa 28bd
00000180: e5d5 4bbd 97bb 103c f269 623d deaf af3d
00000190: 3081 b0bc 88f4 3b3c 1f18 a5bd d02a 1bbc
000001a0: bab8 a6bd 003f a2bb 01bf adbd f876 f43c
000001b0: c858 f63c d56f 903d a6b7 2d3d 7ed2 593d
000001c0: e754 f53c f376 863d f817 513c f96f 36bd
000001d0: def9 1d3d f131 4c3d b4b3 a0bd 310e 003d
000001e0: 18bd f6bc 17ff 16bd f9aa c13c 3fe8 16bd
000001f0: e0a6 593d 721f 31bd 40a8 afbc a0c2 d23c

a f4 [4, 1]
-1.3664533 1.1230794 -0.08405242 -0.466977
00000000: f1e7 aebf 11c1 8f3f ad23 acbd 9c17 efbe

bias f4 [64, 64]
0.0059598545 -0.0017787487 0.0058520474 0.0013618468 0.0029843047 -0.0039089685 0.0019867416 -0.0026789901
-0.006825329 -0.0052490146 -0.00061198644 0.0006105353 -0.0066644372 0.0035141746 0.0032840967 -0.00095832394
-0.0022793515 0.004633226 0.0027348313 -0.005224937 0.0031153925 -0.0030295188 0.0004052439 -0.002392023
8.29331e-05 -0.0008737167 -0.001191961 0.0042495234 -0.0024495898 0.00014559856 0.0041019805 -0.004443108
-0.0033549971 -0.006871897 6.096562e-05 0.0077222954 -0.0007726162 -0.0044476236 0.0016449513 -0.0016815998
-0.0027062092 -0.009139421 0.000764735 0.00085143506 0.002463234 0.002077005 0.00018147807 0.006701409
4.930685e-05 -0.0015336664 0.0013894069 0.001431748 0.002627398 -0.00048305912 0.0063273567 -0.0005493545
-0.0011800084 -0.0037961565 -0.006993342 0.0068991827 0.005740791 -0.0002956501 0.00312003 0.00019015525
0.0014452302 0.0045476034 -1.0441492e-05 0.0020751162 -0.0018974558 0.0025260528 0.0027279137 0.0015325581
0.004162138 0.005073542 0.002320752 0.008199348 -0.0031220666 0.005446339 -0.0017376194 0.0052402606
0.0042735916 0.0029233242 0.0031925135 0.0042903787 -0.0043461644 0.0030791878 -0.002862224 0.0051384233
0.0041883476 -0.002314094 0.0016291816 0.0035969284 0.004937207 -0.00906895 0.0046425704 -0.004436068
-0.007453512 0.0014726995 -0.0007502613 -0.0005185512 0.002980796 -0.0022099055 -0.0028914835 -0.008884745
0.0011077627 -0.0018543042 0.001471524 -0.00041494446 0.008032712 0.0012270537 -0.002862209 -0.008875469
-0.005275295 -0.010624375 0.0076686274 0.0028893987 0.0041318377 -0.00083453296 -0.004231996 0.003069992
-0.0009611419 -0.00266282 0.002982372 -0.0038375636 -0.0024772913 -0.0142648555 -0.0008222737 -0.0036433053
0.00059421966 -0.0052102427 0.0012647735 -0.009346863 0.003352878 0.0064885113 -0.0064831246 0.0005746069
-0.0007735358 0.0002656085 0.0025039322 -0.0029968957 0.005472466 -0.0027445573 0.0029864295 -0.0042277086
-0.00268587 0.0016418975 -0.0017564987 -0.00039158636 -0.0040141097 -0.0007252749 -0.0041028606 0.00082113827
-0.0055619273 0.0012427958 -0.0010688026 0.00013256585 -0.0019119139 0.008323081 0.002923337 -0.0015493463
-0.0064005135 0.0046943054 -0.0054530073 0.0045954715 0.00015809374 -9.8583616e-05 -0.0030544722 0.0070175426
0.0025079974 -0.0021600723 -0.0037426592 0.005091809 0.004037082 -0.0008081448 0.0035409534 -0.0003173979
-0.002036828 -0.0014921693 0.008400468 -0.0027584636 -0.0019378457 0.006013658 -0.0026360622 0.006356232
-0.0011569248 -0.0015676639 -0.00107505 0.0006571044 0.0009133401 0.00074636855 0.0017514173 0.001773696
0.0053660157 0.0054794974 -0.0032400019 0.0021077618 -0.0018798711 0.0011021777 -0.006329444 -0.0097104795
-0.00094486686 0.008783742 -0.005707212 -0.007030542 0.005879966 -0.0019578529 0.004405367 -0.0022163366
0.008453825 0.010592048 -0.0014757646 0.00046927354 -0.001993667 0.003267692 -0.0007541642 -0.0013413326
0.0022615157 -0.0021131034 0.0034630005 0.00033435877 -0.00040153402 0.008248073 0.004971686 0.0010802409
-0.002692426 -0.002927927 0.0049788686 -0.0028121918 0.004112481 -0.00059734116 -0.009167406 0.0005424831
-0.002562911 -0.0023526922 -0.0011195095 -0.0008268141 0.0016098644 -0.001932441 0.0006330546 -0.009660902
0.0017630635 0.0031481602 0.004047228 -0.007627617 -0.0012560178 -0.0029894642 -0.00045099063 0.007418646
0.0036759174 -0.0014916742 -0.00017603078 0.0028617727 -0.0019465742 -0.0046499576 -0.0014518144 -0.004232048
00000000: e24a c33b e724 e9ba 88c2 bf3b ff7f b23a
00000010: 5394 433b ce16 80bb fe33 023b ff91 2fbb
00000020: 02a7 dfbb edff abbb b76d 20ba 550c 203a
00000030: 5a61 dabb 114e 663b 003a 573b 0838 7bba
00000040: 2c61 15bb 51d2 973b db3a 333b f335 abbb
00000050: 9d2b 4c3b e48a 46bb ea76 d439 7dc3 1cbb
00000060: 5eec ad38 230a 65ba 933b 9cba 963f 8b3b
00000070: 4c89 20bb d1ab 1839 e869 863b 7e97 91bb
00000080: 83df 5bbb a62d e1bb 56b5 7f38 4f0b fd3b
00000090: 6589 4aba 5fbd 91bb 689b d73a 2069 dcba
000000a0: a85a 31bb 83bd 15bc 7f78 483a d732 5f3a
000000b0: 356e 213b 5d1e 083b 264b 3e39 7e97 db3b
000000c0: d4ce 4e38 4e05 c9ba c21c b63a 7ea9 bb3a
000000d0: 6c30 2c3b 1943 fdb9 b755 cf3b 8e02 10ba
000000e0: 83aa 9aba f0c8 78bb 6828 e5bb 8a12 e23b
000000f0: 3f1d bc3b 7c01 9bb9 6b79 4c3b 6964 4739
00000100: e16d bd3a 1004 953b de2d 2fb7 acfe 073b
00000110: 0db4 f8ba 228c 253b ccc6 323b 1ee0 c83a
00000120: 8b62 883b f43f a63b c217 183b 8f56 063c
00000130: 969b 4cbb 3477 b23b d5c0 e3ba 7eb6 ab3b
00000140: 7c09 8c3b 3e95 3f3b 7d39 513b 4e96 8c3b
00000150: 456a 8ebb 33cc 493b 2694 3bbb 3860 a83b
00000160: 683e 893b 0ea8 17bb 438a d53a 72ba 6b3b
00000170: 4bc8 a13b ef95 14bc b420 983b 6f5c 91bb
00000180: 973c f4bb 9807 c13a 2fad 44ba 62ef 07ba
00000190: 7559 433b 10d4 10bb 0b7f 3dbb 5291 11bc
000001a0: 5932 913a 200c f3ba 27e0 c03a e78c d9b9
000001b0: a39b 033c 17d5 a03a e693 3bbb 6a6a 11bc
000001c0: 62dc acbb dc11 2ebc 1c49 fb3b 115c 3d3b
000001d0: 5e64 873b 8fc4 5aba 8eac 8abb eb31 493b
000001e0: 24f5 7bba b582 2ebb e673 433b a27f 7bbb
000001f0: 0d5a 22bb 24b7 69bc db8d 57ba 85c4 6ebb
00000200: 68c5 1b3a afba aabb c2c6 a53a 9623 19bc
00000210: f5bb 5b3b 949d d43b 6470 d4bb 37a1 163a
00000220: 1cc7 4aba 5f41 8b39 0319 243b 9167 44bb
00000230: 5f52 b33b 08de 33bb f9b7 433b 9788 8abb
00000240: 6c05 30bb f034 d73a 513a e6ba d54d cdb9
00000250: cb88 83bb 6020 3eba 4a71 86bb a841 573a
00000260: d440 b6bb 4fe5 a23a 1017 8cba 6001 0b39
00000270: 2f99 faba 885d 083c 7595 3f3b 6f13 cbba
00000280: 66bb d1bb b0d2 993b 24af b2bb 9c95 963b
00000290: f7c5 2539 adbe ceb8 8a2d 48bb 6af3 e53b
000002a0: 375d 243b 0090 0dbb 6747 75bb 31d9 a63b
000002b0: 8049 843b aed9 53ba 570f 683b 6d68 a6b9
000002c0: 4e7c 05bb e594 c3ba 1ea2 093c 57c7 34bb
000002d0: 50ff fdba 380e c53b c9c1 2cbb f047 d03b
000002e0: f4a3 97ba 127a cdba b1e8 8cba 8841 2c3a
000002f0: 376d 6f3a f2a7 433a d08f e53a 5d7b e83a
00000300: 67d5 af3b 5b8d b33b 3656 54bb 6022 0a3b
00000310: 0266 f6ba f276 903a 3967 cfbb b418 1fbc
00000320: f1b0 77ba afe9 0f3c 9003 bbbb 7660 e6bb
00000330: bbac c03b 524f 00bb e65a 903b f53f 11bb
00000340: e981 0a3c 458a 2d3c 716e c1ba d408 f639
00000350: 2fa8 02bb c626 563b 1ab3 45ba a7cf afba
00000360: f035 143b fe7b 0abb 82f3 623b e04c af39
00000370: fc84 d2b9 ed22 073c 86e9 a23b df96 8d3a
00000380: 6a73 30bb 77e2 3fbb c725 a33b c04c 38bb
00000390: fec1 863b e396 1cba e332 16bc 6d35 0e3a
000003a0: 83f6 27bb a02f 1abb 81bc 92ba 8ebe 58ba
000003b0: 1602 d33a f649 fdba 93f3 253a c348 1ebc
000003c0: 9816 e73a 5d51 4e3b 9c9e 843b 17f1 f9bb
000003d0: f7a0 a4ba e3ea 43bb f072 ecb9 1d18 f33b
000003e0: a9e7 703b 4884 c3ba e794 38b9 948c 3b3b
000003f0: 3124 ffba ac5e 98bb cf4a beba feac 8abb

weight f4 [4, 4]
-0.41189975 0.28559083 -0.49656743 0.37263164 -0.2488246 -0.4212548 -0.25375444 0.17844325
-0.13349813 0.13912398 0.23803046 0.3821735 -0.07318361 0.3550671 0.32128984 0.18957047
00000000: 86e4 d2be f638 923e 163e febe 93c9 be3e
00000010: e0cb 7ebe b6ae d7be 1aec 81be d4b9 363e
00000020: bcb3 08be 8476 0e3e 42be 733e 3fac c33e
00000030: 4ae1 95bd 5bcb b53e 1a80 a43e c31e 423e

bias f4 [4]
0.24740025 0.34445935 -0.103757806 -0.041481037
00000000: 7e56 7d3e fa5c b03e f97e d4bd 05e8 29bd

weight f4 [128, 128]
-0.010030563 -0.040833287 -0.045644756 -0.055173926 -0.059641205 0.048074417 -0.018719038 0.06877263
0.067028634 -0.09529358 0.045164913 -0.034151066 0.020769073 -0.016705332 -0.085818686 -0.06905436
-0.01964967 -0.03439451 -0.01276552 -0.017528512 0.006217887 0.025032038 -0.03610278 0.03713592
0.047072865 0.05697804 -0.052513625 -0.012237879 0.07270604 -0.04284167 -0.009803266 0.0660043
0.07812576 -0.06810909 -0.05424431 -0.056687355 -0.08612228 -0.061683215 -0.09117552 -0.08891277
-0.019636605 0.025660751 0.036345743 0.06132681 -0.049862362 -0.042286403 0.0027406 0.028578151
0.0023524116 0.0074883117 0.024728652 -0.030101221 0.07336057 -0.02427807 0.012924045 -0.08136044
-0.01816556 0.008985312 -0.04017534 0.07627534 0.013094249 -0.053792797 -0.0024425122 -0.081653684
-0.09210253 0.06626664 -0.03736252 -0.08714259 0.061907947 0.031841587 0.076550834 0.056275215
-0.06372979 -0.07863866 0.06360259 0.046847854 0.061182354 0.016980276 0.042066865 0.07559805
-0.06114088 -0.08289925 0.01570147 0.0041038403 0.0391394 -0.07999528 0.06853998 -0.06518615
-0.046266507 0.046712562 -0.06189132 -0.062338978 0.0011437576 -0.04455961 -0.025778005 -0.016812874
-0.088941805 0.023341749 0.0456734 0.03555551 -0.078334995 0.056882754 0.0036449272 0.025854856
-0.0112922685 -0.0074542435 -0.04114279 0.027583964 0.07568882 -0.07365172 -0.016345281 -0.04868885
0.009314939 -0.017755829 -0.08902984 -0.052909456 -0.005063831 -0.05121171 0.055792417 -0.028534269
-0.07093877 0.0039502275 -0.04325491 0.025617309 0.057169233 -0.027337044 0.038237277 -0.06332229
0.04889808 -0.09811313 0.05808883 -0.062256936 -0.039546926 0.023225028 0.0036314158 -0.041498993
-0.095687166 -0.0649699 -0.08036079 0.054665048 -0.066552825 -0.037041374 -0.026275242 0.0726405
-0.0570991 -0.05586803 -0.01515527 0.026390258 -0.02854871 0.028857755 -0.07503188 -0.0036245799
-0.05668583 -0.0037206302 0.0139332265 0.054337274 0.0007236784 0.05887053 -0.006855215 0.044301223
-0.08298529 0.03380533 0.031666014 -0.043911714 -0.10229486 0.06847679 0.047919624 -0.057902925
-0.0015819771 0.03976358 0.043741014 -0.023486521 -0.05877714 -0.05027893 -0.089709684 -0.0581386
-0.04476002 -0.011014615 -0.03064176 -0.09886974 -0.030457446 0.010245496 0.032338116 0.050823454
0.005799337 -0.01899107 0.076498024 0.05853429 0.0031401124 -0.09229141 0.007982951 -0.05662803
-0.06697953 0.05366107 -0.04981893 0.0108288685 -0.06031394 0.0364 -0.027908836 0.05098573
0.07223223 -0.09322568 -0.041471142 0.006594979 0.062834986 -0.015225601 -0.0049169157 -0.01252802
-0.05826691 0.05117095 0.0060519334 0.013430417 0.0683464 0.055721257 0.06811477 -0.06295511
-0.08452649 0.025931694 0.072292015 -0.030805811 -0.09172422 -0.05959824 0.06450041 -0.08570089
0.02855117 -0.07022263 -0.09195449 0.021481438 -0.01278261 0.04336196 -0.03813235 -0.027023677
-0.10115435 0.043572027 -0.062017385 0.03629855 -0.013297214 -0.030339278 -0.07899948 -0.06484085
-0.024992803 0.072850384 0.04271452 -0.04436266 0.016411306 0.046741325 0.05592679 -0.04736912
0.061326705 0.032129098 0.025971692 -0.032349955 -0.011286444 -0.053090204 0.053511325 0.004705291
00000000: 3b57 24bc ce40 27bd fff5 3abd 0efe 61bd
00000010: 564a 74bd aee9 443d ab58 99bc aad8 8c3d
00000020: 4f46 893d 4829 c3bd d8fe 383d fde1 0bbd
00000030: e723 aa3c 9fd9 88bc b5c1 afbd 5f6c 8dbd
00000040: 58f8 a0bc 42e1 0cbd 7926 51bc f497 8fbc
00000050: 6bbf cb3b fd0f cd3c 82e0 13bd d61b 183d
00000060: 7acf 403d ce61 693d 8718 57bd 6381 48bc
00000070: e8e6 943d bf7a 2fbd e19d 20bc 432d 873d
00000080: 6600 a03d c77c 8bbd 482f 5ebd 0031 68bd
00000090: e160 b0bd 8aa7 7cbd 3bba babd e617 b6bd
000000a0: f2dc a0bc 7f36 d23c 46df 143d d231 7b3d
000000b0: 7a3c 4cbd 8234 2dbd a39b 333b ba1c ea3c
000000c0: eb2a 1a3b 8360 f53b be93 ca3c d696 f6bc
000000d0: 113e 963d cee2 c6bc 60bf 533c 4da0 a6bd
000000e0: f1cf 94bc 2137 133c e68e 24bd 3f36 9c3d
000000f0: 4389 563c d655 5cbd 8e12 20bb 0c3a a7bd
00000100: 40a0 bcbd ceb6 873d 7109 19bd d077 b2bd
00000110: 3093 7d3d 536c 023d afc6 9c3d d780 663d
00000120: c484 82bd 4e0d a1bd 1342 823d 89e3 3f3d
00000130: 599a 7a3d 381a 8b3c 4e4e 2c3d 27d3 9a3d
00000140: dc6e 7abd 15c7 a9bd 5fa0 803c 8279 863b
00000150: a350 203d 91d4 a3bd b05e 8c3d 5180 85bd
00000160: f381 3dbd ac55 3f3d c181 7dbd 2857 7fbd
00000170: 23ea 953a 2384 36bd 652c d3bc 27bb 89bc
00000180: 1f27 b6bd 3237 bf3c 0814 3b3d a8a2 113d
00000190: 196e a0bd e4fd 683d bbdf 6e3b 90cd d33c
000001a0: 3503 39bc ba42 f4bb 5885 28bd c4f7 e13c
000001b0: bd02 9b3d b7d6 96bd 8ae6 85bc f66d 47bd
000001c0: b09d 183c ac74 91bc 4755 b6bd 96b7 58bd
000001d0: 7eee a5bb 5fc3 51bd 9786 643d b3c0 e9bc
000001e0: 5948 91bd e970 813b 0f2c 31bd 64db d13c
000001f0: 492a 6a3d f0f1 dfbc b19e 1c3d 1eaf 81bd
00000200: 5a49 483d 89ef c8bd 8eee 6d3d 2101 7fbd
00000210: f5fb 21bd 6a42 be3c 0cfd 6d3b d9fa 29bd
00000220: a2f7 c3bd f00e 85bd 3394 a4bd 75e8 5f3d
00000230: d94c 88bd b2b8 17bd 2d3f d7bc 8bc4 943d
00000240: bfe0 69bd e0d5 64bd cf4d 78bc 6230 d83c
00000250: fcde e9bc 1967 ec3c 50aa 99bd 5c8a 6dbb
00000260: 672f 68bd d1d5 73bb 3048 643c c390 5e3d
00000270: 3cb5 3d3a 3a22 713d b6a1 e0bb 3375 353d
00000280: 31f4 a9bd 7577 0a3d 39b4 013d c5dc 33bd
00000290: f87f d1bd 8f3d 8c3d 5e47 443d 9e2b 6dbd
000002a0: 585a cfba 23df 223d c729 333d ce66 c0bc
000002b0: 4cc0 70bd 48f1 4dbd b6b9 b7bd be22 6ebd
000002c0: 4856 37bd a576 34bc 6e04 fbbc 387c cabd
000002d0: e581 f9bc badc 273c f974 043d 412c 503d
000002e0: 5d08 be3b 2993 9bbc ffaa 9c3d a7c1 6f3d
000002f0: 58ca 4d3b 4703 bdbd ecca 023c cbf2 67bd
00000300: 902c 89bd b6cb 5b3d ef0e 4cbd 916b 313c
00000310: c00b 77bd 2b18 153d 12a1 e4bc 6ad6 503d
00000320: 7eee 933d 1bed bebd a5dd 29bd b21a d83b
00000330: a1af 803d cd74 79bc 141e a1bb 5342 4dbc
00000340: 49a9 6ebd a198 513d 4c4f c63b 400b 5c3c
00000350: 33f9 8b3d f93b 643d c27f 8b3d 9cee 80bd
00000360: 391c adbd b46e d43c d60d 943d 785c fcbc
00000370: e8d9 bbbd 491d 74bd ca18 843d f383 afbd
00000380: 25e4 e93c e2d0 8fbd a352 bcbd d7f9 af3c
00000390: 276e 51bc 509c 313d ab30 1cbd c260 ddbc
000003a0: 032a cfbd 9578 323d f105 7ebd caad 143d
000003b0: 8fdc 59bc 148a f8bc 7bca a1bd 48cb 84bd
000003c0: b5bd ccbc 9532 953d 6cf5 2e3d 9fb5 35bd
000003d0: 0171 863c d573 3f3d 7d13 653d 1f06 42bd
000003e0: b631 7b3d cd99 033d 96c2 d43c 6381 04bd
000003f0: c7ea 38bc 1d75 59bd b12e 5b3d d72e 9a3b

bias f4 [128]
0.0066312044 -0.011523291 -0.0040315758 0.02357341 0.013334538 -0.07130637 0.06748121 -0.06864302
-0.059414603 -0.04032893 0.04753131 0.037087873 -0.0012194234 0.072444275 -0.030008033 -0.018976502
-0.04654408 -0.081038885 0.036243413 0.022217112 0.007359551 -0.020735696 -0.06951488 -0.057132717
-0.08321027 -0.024778603 -0.08308796 0.07267307 0.048449192 -0.008696062 0.01065805 -0.08065085
-0.03246351 0.07564401 0.055475056 0.011012532 0.034463722 0.04426753 -0.017643493 0.08705421
0.073422596 -0.05732873 -0.041856322 -0.013479221 0.0064142155 0.06588713 -0.06580579 0.01850226
-0.038512476 0.04238038 -0.07005396 -0.09313517 0.0022979686 -0.067987084 0.060656473 -0.038409088
-0.053836044 -0.047330137 -0.051661555 0.041260447 -0.06890168 0.021522036 -0.06822733 0.07297606
-0.058630414 0.04757851 -0.0038622448 0.07890023 -0.05418368 0.034650248 -0.070113696 -0.056883574
-0.043846276 0.061226662 -0.053464558 -0.07524392 0.061663833 -0.062822424 0.017467357 0.07222312
-0.10644344 -0.07806853 0.026550828 -0.051345915 -0.030390741 0.03598726 0.061592005 0.0029679427
-0.006279463 -0.033330753 0.049914416 0.004658626 0.011671046 -0.018358236 0.070521995 0.055776637
-0.04197327 0.07768766 -0.019384908 0.016391415 0.02275951 0.045383863 -0.0025433153 0.044493098
0.027954629 0.03375004 -0.038714983 0.08829359 0.03411653 -0.019244958 0.034208864 0.06870379
-0.040684376 0.0042874063 -0.04381285 -0.009575735 -0.086908504 0.0745028 -0.00882165 -0.023241516
0.06899128 0.06933234 -0.04913032 -0.015536125 0.052004017 -0.017575316 0.010598789 -0.0039685923
00000000: 934a d93b 2fcc 3cbc 4f1b 84bb 061d c13c
00000010: 1b79 5a3c 1309 92bd 9733 8a3d b694 8cbd
00000020: ba5c 73bd f32f 25bd 31b0 423d 74e9 173d
00000030: 0fd5 9fba aa5d 943d 68d3 f5bc 9c74 9bbc
00000040: 01a5 3ebd b7f7 a5bd f973 143d a900 b63c
00000050: 6328 f13b e8dd a9bc d15d 8ebd ff03 6abd
00000060: 256a aabd 7ffc cabc 052a aabd 9ed5 943d
00000070: a972 463d ed79 0ebc 1a9f 2e3c 462c a5bd
00000080: 75f8 04bd 3feb 9a3d d039 633d e86d 343c
00000090: d529 0d3d df51 353d 1689 90bc 7a49 b23d
000000a0: 965e 963d 88d1 6abd 8971 2bbd f3d7 5cbc
000000b0: 572e d23b d5ef 863d 30c5 86bd 0d92 973c
000000c0: 42bf 1dbd 0d97 2d3d 7378 8fbd a7bd bebd
000000d0: 8499 163b d03c 8bbd ec72 783d d952 1dbd
000000e0: 2f83 5cbd 3fdd 41bd 119b 53bd b700 293d
000000f0: 531c 8dbd fb4e b03c c5ba 8bbd 7974 953d
00000100: 7226 70bd afe1 423d b71d 7dbb 7296 a13d
00000110: b5ef 5dbd 6bed 0d3d c597 8fbd c0fe 68bd
00000120: 2798 33bd cfc8 7a3d a7fd 5abd 7c19 9abd
00000130: 3793 7c3d 0ba9 80bd b417 8f3c b7e9 933d
00000140: 05ff d9bd 65e2 9fbd 1f81 d93c 1850 52bd
00000150: 01f6 f8bc 6167 133d e647 7c3d d181 423b
00000160: f4c3 cdbb d485 08bd 0f73 4c3d 63a7 983b
00000170: ea37 3f3c 0364 96bc d66d 903d 0b76 643d
00000180: 2aec 2bbd b51a 9f3d 19cd 9ebc 4a47 863c
00000190: 2772 ba3c 6ee4 393d c0ad 26bb 653e 363d
000001a0: 1b01 e53c 7b3d 0a3d 9a93 1ebd 45d3 b43d
000001b0: c6bd 0b3d 9aa7 9dbc 981e 0c3d 93b4 8c3d
000001c0: a9a4 26bd 5f7d 8c3b 1a75 33bd 8be3 1cbc
000001d0: 16fd b1bd ed94 983d af88 10bc fe64 bebc
000001e0: 4d4b 8d3d 1dfe 8d3d e03c 49bd 3b8b 7ebc
000001f0: 2a02 553d 1cfa 8fbc 8ba6 2d3c f70a 82bb

weight f4 [128]
0.98273474 0.9792077 0.98296136 0.86644304 0.84453166 0.97939056 0.97895664 0.9768455
0.97410077 0.8547647 0.9945198 0.847263 0.9895882 0.85709286 0.9706262 0.79380345
0.9847134 0.9833158 0.9832864 0.9900003 0.85744333 0.87308323 0.95483655 0.98088557
0.98746884 0.85500306 0.9933064 0.80688745 0.97865146 0.9854086 0.9762923 0.9889391
0.8504883 0.8732098 0.98512185 0.9670193 0.9905945 0.9737354 0.9930622 0.86557853
0.83861786 0.9735616 0.99609387 0.9884795 0.8534157 0.98568463 0.85793453 0.8367659
0.9812539 0.86084116 0.97484404 0.9848198 0.9878469 0.9590841 0.8223732 0.99431866
0.99081844 0.97552675 0.84516853 0.84318 0.9810164 0.8110627 0.9878261 0.98444164
0.98944086 0.8683261 0.84941596 0.85577357 0.9759473 0.8135644 0.8693201 0.84025615
0.8387162 0.8461992 0.9458384 0.79322594 0.98904556 0.8624558 0.97198194 0.8502144
0.9745268 0.9803813 0.9589292 0.8680067 0.9821627 0.9560243 0.88285583 0.99166644
0.8655779 0.9891677 0.84031504 0.84917635 0.9836831 0.9820871 0.8322255 0.98219794
0.8609323 0.98612946 0.988959 0.8447838 0.8483654 0.9845686 0.8425741 0.79835016
0.9844387 0.98339677 0.83607405 0.97353405 0.9845522 0.8447649 0.9836359 0.850954
0.9902107 0.9876591 0.9801902 0.85757667 0.97305423 0.97472185 0.9865348 0.96411026
0.8490498 0.98514247 0.8581521 0.9745112 0.87308323 0.8520596 0.98806185 0.8369714
00000000: 8194 7b3f 5bad 7a3f 5ba3 7b3f 36cf 5d3f
00000010: 3a33 583f 57b9 7a3f e79c 7a3f 8c12 7a3f
00000020: ab5e 793f dcd1 5a3f da98 7e3f 3ae6 583f
00000030: a755 7d3f 706a 5b3f f57a 783f b436 4b3f
00000040: 2d16 7c3f 96ba 7b3f a8b8 7b3f a970 7d3f
00000050: 6881 5b3f 6282 5f3f 2b70 743f 511b 7b3f
00000060: c2ca 7c3f 7be1 5a3f 5449 7e3f 2d90 4e3f
00000070: e788 7a3f bd43 7c3f 4bee 793f 1d2b 7d3f
00000080: 9ab9 593f ad8a 5f3f f230 7c3f 948e 773f
00000090: 9a97 7d3f b946 793f 5339 7e3f 8e96 5d3f
000000a0: a9af 563f 553b 793f 0200 7f3f fe0c 7d3f
000000b0: 7479 5a3f d455 7c3f 99a1 5b3f 4a36 563f
000000c0: 7533 7b3f 1660 5c3f 618f 793f 271d 7c3f
000000d0: 89e3 7c3f 8986 753f 0d87 523f ab8b 7e3f
000000e0: 47a6 7d3f 1fbc 793f f75c 583f a5da 573f
000000f0: e423 7b3f cea1 4f3f 2ce2 7c3f 5e04 7c3f
00000100: ff4b 7d3f 9f4a 5e3f 5373 593f fa13 5b3f
00000110: afd7 793f c245 503f c38b 5e3f 071b 573f
00000120: 1bb6 563f 83a0 583f 7722 723f db10 4b3f
00000130: 1732 7d3f e7c9 5c3f cfd3 783f a7a7 593f
00000140: 977a 793f 45fa 7a3f 627c 753f b035 5e3f
00000150: 046f 7b3f 02be 743f d702 623f dadd 7d3f
00000160: 8396 5d3f 183a 7d3f e31e 573f 9f63 593f
00000170: a8d2 7b3f 0f6a 7b3f bb0c 553f 5371 7b3f
00000180: 0f66 5c3f fb72 7c3f 6b2c 7d3f c043 583f
00000190: 7a2e 593f b00c 7c3f f0b2 573f ad60 4c3f
000001a0: 2d04 7c3f e4bf 7b3f f308 563f 8739 793f
000001b0: 9d0b 7c3f 8342 583f 90cf 7b3f 1fd8 593f
000001c0: 737e 7d3f 3ad7 7c3f bfed 7a3f 258a 5b3f
000001d0: 151a 793f 5f87 793f 8b8d 7c3f eecf 763f
000001e0: 545b 593f 4c32 7c3f dbaf 5b3f 9179 793f
000001f0: 6282 5f3f 9420 5a3f 9ff1 7c3f c243 563f

bias f4 [128]
0.47319755 0.051437534 0.5463863 0.34669188 0.15669188 -0.5895315 0.11370856 0.5419867
0.5718556 -0.2561459 -0.5512235 0.31250235 -0.5539282 0.2294378 0.5541466 -0.31759557
0.56252384 -0.18208006 0.4832365 -0.054374717 0.16410936 -0.19066386 0.54562014 0.46417812
-0.527416 -0.17870308 -0.5532006 -0.060753066 -0.46059164 0.53958845 -0.5313419 0.5487683
-0.15965846 -0.03516548 -0.5735616 0.54218584 -0.3954376 0.4673866 0.5250005 0.19744465
-0.29543167 0.41693532 -0.5347618 0.46328667 -0.2301245 0.5386768 -0.29548714 -0.18859056
-0.51495254 -0.003430083 0.3611756 -0.123002104 -0.53942406 0.5326023 0.09158086 0.50783235
-0.52871937 0.33483288 -0.2208189 -0.3336126 0.4684815 0.1696214 0.53992283 0.11472693
0.5695433 0.33216447 0.21935888 0.2046312 0.3949928 0.0048011523 -0.08291308 0.2923924
-0.3323925 0.19780728 0.55880356 0.043613095 -0.4335657 -0.29148108 0.2683001 0.27677354
0.560954 -0.05696166 0.5160139 0.22542855 0.48480353 0.53586817 0.30459267 -0.5341705
0.27380422 0.52294296 -0.21707593 -0.3289723 0.44019362 -0.4705095 -0.32737297 0.5510355
-0.13631554 -0.54299015 -0.4843953 -0.24999806 0.32087293 0.55251426 0.12839167 0.104263976
-0.26162893 -0.24132778 0.30403727 0.4106147 -0.5690113 -0.25009438 -0.5178788 0.10091372
-0.5508166 0.5293115 -0.09267278 0.19934501 -0.53115505 -0.47196254 0.49328405 -0.10319991
-0.27650034 0.3506855 0.28137985 -0.40162376 -0.24643905 -0.3245993 -0.4847762 -0.27295032
00000000: f346 f23e 2ab0 523d f9df 0b3f 9981 b13e
00000010: d673 203e 89eb 16bf 09e0 e83d a4bf 0a3f
00000020: 2165 123f 8e25 83be fc1c 0dbf 4f00 a03e
00000030: 3dce 0dbf bef1 6a3e 8ddc 0d3f e39b a2be
00000040: 9001 103f 3273 3abe c66a f73e 06b8 5ebd
00000050: 490c 283e 633d 43be c3ad 0b3f c1a8 ed3e
00000060: bc04 07bf f1fd 36be 8e9e 0dbf 35d8 78bd
00000070: abd2 ebbe 7822 0a3f 0606 08bf 147c 0c3f
00000080: 827d 23be ae09 10bd efd4 12bf b1cc 0a3f
00000090: cc76 cabe 4c4d ef3e 6f66 063f ee2e 4a3e
000000a0: d242 97be 8c78 d53e 26e6 08bf e933 ed3e
000000b0: c2a5 6bbe b9e6 093f 174a 97be e21d 41be
000000c0: eed3 03bf 3ecb 60bb 02ec b83e 87e8 fbbd
000000d0: b217 0abf a058 083f bf8e bb3d 4d01 023f
000000e0: 275a 07bf 376f ab3e 5a1e 62be 45cf aabe
000000f0: cfdc ef3e 3bb1 2d3e 6238 0a3f f4f5 ea3d
00000100: 97cd 113f 7611 aa3e 9d9f 603e d78a 513e
00000110: 7f3c ca3e fc52 9d3b 55ce a9bd 75b4 953e
00000120: 5a2f aabe fe8d 4a3e c00d 0f3f a5a3 323d
00000130: 53fc ddbe 023d 95be a15e 893e 43b5 8d3e
00000140: ae9a 0f3f a150 69bd 7d19 043f bed6 663e
00000150: 2b38 f83e a82e 093f 92f3 9b3e 66bf 08bf
00000160: 1130 8c3e 97df 053f 2749 5ebe 0f6f a8be
00000170: 0f61 e13e 9fe6 f0be 6e9d a7be aa10 0d3f
00000180: 4d96 0bbe 6701 0bbf a902 f8be 7eff 7fbe
00000190: 7549 a43e 9371 0d3f 1b79 033e 5a88 d53d
000001a0: 3af4 85be a11e 77be c6aa 9b3e 173c d23e
000001b0: b9aa 11bf 5f0c 80be b493 04bf daab ce3d
000001c0: 5102 0dbf f580 073f 3acb bdbd 1921 4c3e
000001d0: c7f9 07bf 13a5 f1be ba8f fc3e 795a d3bd
000001e0: 7491 8dbe 0d8d b33e 0511 903e a1a1 cdbe
000001f0: 855a 7cbe e131 a6be 9634 f8be 25c0 8bbe

running_mean f4 [128]
-0.0076747346 -0.008122815 -0.0031038418 2.6466737 2.4969168 -0.0077727474 -0.0027986383 -0.0011177906
-0.00094256346 3.1936944 -0.005278646 2.5607579 -0.0063103405 2.6286912 -0.01394989 1.3810056
-0.001571589 -0.004780834 -0.0063736294 -0.007567986 2.7179918 2.8599439 -0.03248827 -0.008779194
-0.0055287792 2.570867 -0.0050547393 3.1320422 -0.0023030117 -0.0045020357 -0.0077287783 -0.0038491506
2.9194603 2.727209 -0.008193933 -0.032081477 -0.007652716 -0.018249827 -0.009666187 2.6262949
1.6294137 -0.0063283355 -0.0078826975 -0.0077863634 2.7295232 -0.004061282 2.604321 2.8239675
-0.0071783853 2.8989198 -0.006616474 -0.008092647 -0.00872589 -0.03331481 2.3467548 -0.0031609833
-0.0046639973 -0.0038980031 2.1502855 2.8513846 -0.0054740724 1.3814317 -0.002740526 -0.0047981124
-0.0024856236 3.4039776 2.4435778 2.7515862 -0.0072726174 1.5146838 2.6784468 3.1946988
2.1733656 3.2569723 -0.031423807 1.4239928 -0.008708917 1.6975889 -0.0038973899 2.0424404
-0.032766264 -0.0029919331 -0.028660446 2.2924726 -0.007467698 -0.026309282 2.949627 -0.0036249054
2.9665048 -0.0021813242 1.6979951 2.7288175 -0.0012441353 -0.0072038197 1.5846871 -0.0017130881
1.7947507 -0.0018401552 -0.0010483176 2.9371903 2.7738025 -0.0020799944 2.4024444 1.4437637
-0.007715894 -0.003175851 1.4675263 -0.0043410636 -0.0014728433 2.200165 -0.0014998069 2.7036939
-0.008047222 -0.0077024363 -0.007874698 2.9182923 -0.008893995 -0.008474769 -0.004536294 -0.019110074
1.6304153 -0.0048847324 2.55761 -0.0044129635 2.6364603 2.371101 -0.0036505787 1.9403701
00000000: 577c fbbb 8e15 05bc d369 4bbb 1a63 2940
00000010: 7ccd 1f40 88b2 febb 5c69 37bb d482 92ba
00000020: 5d16 77ba 7d65 4c40 7ef8 acbb 75e3 2340
00000030: f9c6 cebb 7a3c 2840 148e 64bc cbc4 b03f
00000040: c7fd cdba 8ba8 9cbb e1d9 d0bb defc f7bb
00000050: 94f3 2d40 5209 3740 6c12 05bd 9cd6 0fbc
00000060: c32a b5bb 1689 2440 3aa2 a5bb 6173 4840
00000070: 20ee 16bb d085 93bb b141 fdbb 0842 7cbb
00000080: 70d8 3a40 988a 2e40 d93f 06bc de67 03bd
00000090: a2c3 fabb a980 95bc ed5e 1ebc 3715 2840
000000a0: a190 d03f ed5d cfbb 6e26 01bc c024 ffbb
000000b0: 82b0 2e40 8114 85bb 32ad 2640 e2bb 3440
000000c0: a938 ebbb e787 3940 02cf d8bb 0697 04bc
000000d0: 09f7 0ebc 1c75 08bd 3b31 1640 8028 4fbb
000000e0: 72d4 98bb a475 7fbb 479e 0940 167d 3640
000000f0: d95f b3bb c1d2 b03f 669a 33bb 7c39 9dbb
00000100: d8e5 22bb c5da 5940 9463 1c40 fd19 3040
00000110: 234f eebb 29e1 c13f ac6b 2b40 f275 4c40
00000120: 6c18 0b40 3c72 5040 40b6 00bd 6545 b63f
00000130: d8af 0ebc 984a d93f 5a6b 7fbb 58b7 0240
00000140: eb35 06bd 4f14 44bb 50c9 eabc dfb7 1240
00000150: 97b3 f4bb 9086 d7bc b0c6 3c40 d28f 6dbb
00000160: 37db 3d40 8cf4 0ebb e757 d93f f2a4 2e40
00000170: 4112 a3ba 050e ecbb 07d7 ca3f b389 e0ba
00000180: 64ba e53f 5d31 f1ba b467 89ba edfa 3b40
00000190: fb85 3140 8450 08bb a6c1 1940 40cd b83f
000001a0: 9cd5 fcbb f021 50bb e7d7 bb3f 7b3f 8ebb
000001b0: 6c0c c1ba 81cf 0c40 2b95 c4ba 5209 2d40
000001c0: 7fd8 03bc b864 fcbb e104 01bc 4dc5 3a40
000001d0: 1eb8 11bc c2d9 0abc 31a5 94bb bb8c 9cbc
000001e0: 73b1 d03f 1b10 a0bb e2af 2340 9f9a 90bb
000001f0: c4bb 2840 1ec0 1740 8c3e 6fbb 0c5e f83f

running_var f4 [128]
2.3808393e-08 2.734908e-08 8.95963e-09 0.0022371972 0.0021752296 1.8573026e-08 9.467429e-09 7.339871e-09
3.515502e-09 0.0036555675 1.3291975e-08 0.003924046 1.3677109e-08 0.0021188394 5.8249974e-08 0.00069300504
2.8998655e-09 6.3592624e-09 1.5367199e-08 2.1487265e-08 0.0025291415 0.002567809 2.9343715e-07 2.8255641e-08
1.378469e-08 0.0020300858 9.395707e-09 0.0028411362 5.308895e-09 8.367079e-09 2.4481755e-08 5.0384408e-09
0.0029448413 0.0024083985 2.6209934e-08 3.3612537e-07 2.189483e-08 1.171157e-07 2.734943e-08 0.0019937428
0.0025790662 3.455225e-08 1.782428e-08 2.1214667e-08 0.0023127256 9.2724495e-09 0.0022004256 0.0025481724
1.5701268e-08 0.002703995 2.238615e-08 1.8125194e-08 2.554628e-08 3.2541456e-07 0.0026115717 5.1560796e-09
1.1052185e-08 1.6076443e-08 0.002667007 0.0024086318 9.325103e-09 0.0020119504 3.1377982e-09 1.2721724e-08
3.323433e-09 0.0038929146 0.0017970329 0.0023971125 1.8406393e-08 0.00095706136 0.0024058095 0.0039621643
0.002540062 0.0032520734 2.9451502e-07 0.0008209456 3.8961993e-08 0.001817486 1.2931905e-08 0.0017308466
3.079892e-07 9.192002e-09 2.729871e-07 0.0030400269 1.9424737e-08 2.2579512e-07 0.0025494127 6.5221313e-09
0.0029926214 5.2029168e-09 0.0021573927 0.002468692 5.5938356e-09 1.8274198e-08 0.0023452938 4.638288e-09
0.001696808 3.701446e-09 4.1583017e-09 0.002571957 0.0023629554 4.949563e-09 0.0031711299 0.0020582094
2.686379e-08 7.026947e-09 0.001976485 1.26819355e-08 4.177991e-09 0.001501852 9.480127e-09 0.0025121686
2.337755e-08 2.5166495e-08 2.5262064e-08 0.0026450579 2.2460764e-08 3.3777965e-08 7.389732e-09 1.1797883e-07
0.0013951621 1.4686953e-08 0.0035251544 1.2545615e-08 0.0033554276 0.0032426899 6.6868298e-09 0.0019442402
00000000: 3683 cc32 43ed ea32 dfec 1932 f19d 123b
00000010: 4c8e 0e3b 848a 9f32 31a6 2232 3032 fc31
00000020: 5d95 7131 3f92 6f3b b95a 6432 4995 803b
00000030: 90f8 6a32 3adc 0a3b 862e 7a33 c8aa 353a
00000040: f946 4731 aa80 da31 d400 8432 ff92 b832
00000050: f4bf 253b b048 283b b289 9d34 d0b6 f232
00000060: b5d1 6c32 300b 053b c26a 2132 5b32 3a3b
00000070: 8969 b631 cdbe 0f32 f34b d232 981e ad31
00000080: 3dfe 403b 39d6 1d3b 4124 e132 b874 b434
00000090: 3e13 bc32 0981 fb33 08ee ea32 74a9 023b
000000a0: 8d05 293b 9a66 1433 021c 9932 8c3b b632
000000b0: 1991 173b aa4c 1f32 0435 103b 3dff 263b
000000c0: 74df 8632 8235 313b aa4b c032 b9b1 9b32
000000d0: dd70 db32 a3b4 ae34 e726 2b3b 5b29 b131
000000e0: 06e0 3d32 7918 8a32 f4c8 2e3b 23da 1d3b
000000f0: 3d34 2032 edda 033b bba0 5731 bc8e 5a32
00000100: 7462 6431 4520 7f3b 6b8a eb3a e018 1d3b
00000110: 161c 9e32 4de3 7a3a c9aa 1d3b 0bd5 813b
00000120: 2b77 263b bd20 553b d61d 9e34 ba34 573a
00000130: 2a57 2733 b638 ee3a 1f2b 5e32 93dd e23a
00000140: b759 a534 daea 1d32 108f 9234 303b 473b
00000150: 73db a632 1772 7234 0c14 273b 4619 e031
00000160: db1f 443b 57c5 b231 0b63 0d3b c7c9 213b
00000170: e633 c031 63f9 9c32 80b3 193b d05e 9f31
00000180: 6e67 de3a 875c 7e31 cfe0 8e31 478e 283b
00000190: d0db 1a3b d110 aa31 bbd2 4f3b 06e3 063b
000001a0: 19c2 e632 ae71 f131 ea87 013b bedf 5932
000001b0: ff8d 8f31 cad9 c43a 0ade 2232 32a3 243b
000001c0: c7cf c832 b52d d832 deff d832 b558 2d3b
000001d0: beef c032 4413 1133 c5e8 fd31 8c5b fd33
000001e0: dfdd b63a e751 7c32 4706 673b 3388 5732
000001f0: bce6 5b3b 4f83 543b fac1 e531 e0d5 fe3a

weight f4 [128, 128]
0.005458674 -0.09496723 0.103035025 -0.004190293 0.043224733 0.05086297 0.009858878 -0.07436858
0.09533039 0.055465333 0.072035134 -0.021318091 0.027577365 -0.060869943 0.0072181434 0.0038816198
0.0629772 -0.031859063 0.09498557 0.014066262 0.062971726 -0.0030190393 0.083490156 -0.012271196
0.034369387 0.044535186 -0.063503794 -0.014264663 0.0481578 -0.040250406 -0.04494313 -0.060888264
-0.05892184 0.012377169 0.059592932 0.10355166 0.061719794 0.039080784 0.07968532 -0.01892457
-0.02901611 -0.06205231 -0.07668203 -0.084287494 -0.072645396 0.07804038 0.0024136778 0.004152374
-0.08006887 -0.004257091 -0.070795186 -0.04793399 0.013964626 -0.026266819 0.010973716 -0.037893146
-0.057373427 -0.029732613 -0.00865819 -0.07903252 0.007593749 0.0052440544 -0.0056241862 -0.0888445
-0.055602666 0.055794004 -0.024298063 -0.00082882 -0.056279343 0.0050923843 -0.029823013 -0.01670949
-0.015349434 0.008692292 -0.047571313 -0.016626468 0.06255398 -0.0011442718 0.045189217 -0.04131636
-0.035177287 -0.06941049 -0.032575227 -0.035352264 0.07864976 0.07668053 -0.044253156 -0.034983087
-0.043541957 0.07940872 -0.037588224 0.049759597 0.053981032 -0.078122854 0.042773206 -0.03262978
-0.006571184 -0.08240849 -0.06917199 0.018258018 0.0262739 -0.04205099 0.010666281 0.05445773
-0.06361584 -0.026147302 0.003309406 -0.06624328 0.009017838 0.02661658 -0.031051323 0.011289721
-0.09037828 0.038514555 0.095720604 -0.0353638 -0.07752538 -0.09808346 0.042723473 -0.02463695
-0.0254857 0.040501203 0.06358145 0.07926794 0.025421603 0.042481575 0.06344755 -0.053246632
0.0013730251 -0.06572538 0.033371836 -0.037855063 0.024690827 -0.04885023 0.03703636 0.090913266
0.15768656 -0.03747278 -0.07205166 0.0074951774 -0.15201974 0.0019587525 0.09654044 -0.038866043
0.11367254 -0.07750072 0.034889106 0.078356616 0.012174516 0.019219037 0.12558751 0.060786456
-0.06691029 -0.0021972028 -0.1511206 0.049593985 -0.10474707 0.017876206 -0.10722834 0.076231904
0.024621647 -0.053703845 -0.11342538 0.12788217 -0.031019172 0.0027220994 0.16838367 -0.023493389
-0.029231597 0.024468882 -0.037660707 0.03794995 -0.0044167 0.17323038 0.073635064 0.044472605
-0.021098893 0.02835079 0.008128858 -0.07318334 -0.02869006 0.06718129 0.011223767 0.008582831
-0.16219598 -0.03853373 -0.005426965 -0.006223243 0.16858414 0.025761852 0.14077778 -0.023608124
0.16877912 -0.020103527 0.010012097 0.05022717 0.09156073 -0.006325502 0.039116886 0.003262638
-0.0077286013 0.005533462 0.054422904 0.026604122 -0.042093936 -0.006069765 0.08558961 0.006382753
0.1269976 0.025637465 0.15439397 0.036974456 0.05579695 0.07712606 -0.05458259 -0.0620501
-0.009794684 0.16049652 -0.044481903 0.028506493 0.09626862 -0.0830011 -0.0045556184 0.10999428
0.0016676645 -0.07787926 -0.043693926 -0.020142283 0.0075506787 0.065424405 0.026217889 0.04336853
-0.08772995 -0.0141162975 0.03903538 0.09749747 -0.12437854 -0.044698365 0.0071448637 -0.051724754
-0.09448761 0.15174505 -0.05609388 0.008759174 -0.0371115 -0.06011095 0.010345729 -0.04939873
-0.023830133 0.016377963 0.024158802 -0.0815909 -0.050299313 -0.08873013 -0.16182612 -0.024244508
00000000: adde b23b 2e7e c2bd 0704 d33d ba4e 89bb
00000010: 6b0c 313d b155 503d 2287 213c 8e4e 98bd
00000020: 943c c33d 9e2f 633d 2887 933d 47a3 aebc
00000030: ede9 e13c c352 79bd 2d86 ec3b c662 7e3b
00000040: 31fa 803d a67e 02bd cb87 c23d 2e76 663c
00000050: 52f7 803d 13db 45bb e3fc aa3d 200d 49bc
00000060: eac6 0c3d 876a 363d 470e 82bd 55b6 69bc
00000070: 1d41 453d 9cdd 24bd 4a16 38bd f965 79bd
00000080: 0758 71bd 9cc9 4a3c b817 743d e512 d43d
00000090: e5cd 7c3d 2c13 203d 0f32 a33d b307 9bbc
000000a0: 31b3 edbc 902a 7ebd 780b 9dbd ec9e acbd
000000b0: 1cc7 94bd a2d3 9f3d cb2e 1e3b a310 883b
000000c0: 26fb a3bd 117f 8bbb 11fd 90bd 6e56 44bd
000000d0: e3cb 643c 832d d7bc 1acb 333c d835 1bbd
000000e0: 6600 6bbd cf91 f3bc 15db 0dbc cddb a1bd
000000f0: fcd4 f83b 51d6 ab3b 184b b8bb 1bf4 b5bd
00000100: 9fbf 63bd 4188 643d bb0c c7bc 2b45 59ba
00000110: 2b85 66bd 04de a63b 644f f4bc 57e2 88bc
00000120: 317c 7bbc 1d6a 0e3c 23da 42bd 3b34 88bc
00000130: 4d1c 803d 64fb 95ba 5418 393d 583b 29bd
00000140: 0f16 10bd 1627 8ebd 9a6d 05bd 89cd 10bd
00000150: 2013 a13d af0a 9d3d cc42 35bd 6d4a 0fbd
00000160: 0d59 32bd 0aa1 a23d 1cf6 19bd b8d0 4b3d
00000170: 371b 5d3d e0fe 9fbd f532 2f3d cea6 05bd
00000180: 1653 d7bb c8c5 a8bd 0baa 8dbd d791 953c
00000190: 5d3c d73c a93d 2cbd a0c1 2e3c 120f 5f3d
000001a0: 0649 82bd de32 d6bc 9fe2 583b 8faa 87bd
000001b0: 8ebf 133c 040b da3c 585f febc 86f8 383c
000001c0: 3f18 b9bd 70c1 1d3d 2a09 c43d a2d9 10bd
000001d0: a0c5 9ebd fbdf c8bd cffe 2e3d 6ed3 c9bc
000001e0: 63c7 d0bc 97e4 253d fe36 823d 3b57 a23d
000001f0: f740 d03c 2901 2e3d caf0 813d 2419 5abd
00000200: 14f7 b33a 079b 86bd e8b0 083d e90d 1bbd
00000210: 6b44 ca3c 2e17 48bd 70b3 173d bc30 ba3d
00000220: 9678 213e 0f7d 19bd d28f 93bd 1b9a f53b
00000230: 10ab 1bbe 6a5e 003b ffb6 c53d 0032 1fbd
00000240: 26cd e83d b3b8 9ebd e1e7 0e3d 6f79 a03d
00000250: 9f77 473c 3e71 9d3c 039a 003e 38fb 783d
00000260: 4308 89bd f2fe 0fbb 5cbf 1abe 1023 4b3d
00000270: a285 d6bd 1f71 923c 889a dbbd 791f 9c3d
00000280: 56b3 c93c 90f8 5bbd 914b e8bd 8bf3 023e
00000290: eb1b febc 4065 323b c56c 2c3e 3575 c0bc
000002a0: 1a77 efbc f772 c83c 1d42 1abd 6871 1b3d
000002b0: f7b9 90bb 4e63 313e fbcd 963d e828 363d
000002c0: 96d7 acbc ea3f e83c e72e 053c 26e1 95bd
000002d0: 6b07 ebbc 5896 893d e4e3 373c 019f 0c3c
000002e0: b416 26be 8bd5 1dbd afd4 b1bb 59ec cbbb
000002f0: 52a1 2c3e 850a d33c 0d28 103e d365 c1bc
00000300: 6fd4 2c3e 27b0 a4bc c709 243c 01bb 4d3d
00000310: 3184 bb3d 2846 cfbb 0739 203d fcd1 553b
00000320: 3540 fdbb 0b52 b53b 8dea 5e3d e3f0 d93c
00000330: b16a 2cbd e1e4 c6bb 9b49 af3d 6a26 d13b
00000340: a90b 023e a905 d23c 7419 1e3e 8772 173d
00000350: 588b 643d 45f4 9d3d fe91 5fbd 3f28 7ebd
00000360: e279 20bc 3359 243e a832 36bd 7386 e93c
00000370: 7b28 c53d 7bfc a9bd 4c47 95bb ae44 e13d
00000380: 8995 da3a 297f 9fbd 67f8 32bd 6e01 a5bc
00000390: af6b f73b 3bfd 853d e6c6 d63c 33a3 313d
000003a0: c3ab b3bd 0b48 67bc 90e3 1f3d c1ac c73d
000003b0: 2dba febd a215 37bd 761f ea3b 56dd 53bd
000003c0: b882 c1bd 0e63 1b3e b2c2 65bd a382 0f3c
000003d0: 3a02 18bd e636 76bd 2281 293c 5356 4abd
000003e0: 6937 c3bc 142b 863c aee8 c53c 2119 a7bd
000003f0: a706 4ebd 24b8 b5bd bfb5 25be 6b9c c6bc
