models/ecg/64/discriminator.pt (torch, 165043 bytes, 20 tensors)

a f4 [128, 1]
0	0xbde13db6	-0.109980986
1	0x3e41d76e	0.18929836
2	0x3e177b16	0.14793047
3	0xbd582478	-0.052769154
4	0x3e99675a	0.29961663
5	0x3c77ebc0	0.015131891
6	0x3e49d0dc	0.1970858
7	0x3e58704c	0.21136588
8	0xbc647580	-0.01394403
9	0xbe087f0a	-0.13329712
10	0xbd24e868	-0.040260702
11	0xbe11d6c5	-0.14242084
12	0xbdf04898	-0.11732596
13	0xbe97ecff	-0.29673
14	0x3dcbf8f8	0.099595964
15	0xbbf966c0	-0.0076111257
16	0xbe18e7aa	-0.14932123
17	0xbd7e025c	-0.06201397
18	0xbe0404a2	-0.12892392
19	0x3e6651c0	0.22492123
20	0xbe8c9645	-0.27458397
21	0x3e02d388	0.12776005
22	0xbd1a8e90	-0.037733614
23	0xbe0e8da6	-0.13921222
24	0x3e451336	0.1924561
25	0xbe62cf10	-0.221493
26	0x3e5be524	0.21474129
27	0x3c6a5540	0.014302552
28	0x3de1d4c8	0.11026913
29	0xbde11678	-0.10990614
30	0xbd70cb1c	-0.05878745
31	0xbe81cd86	-0.25352114
32	0xbe11f744	-0.1425448
33	0xbd9b80d8	-0.07592934
34	0xbdda8368	-0.10669595
35	0xbe0e4d26	-0.13896617
36	0x3e809b0a	0.25118285
37	0x3db6c28c	0.089238256
38	0xbdc24be2	-0.0948713
39	0x3e91a37a	0.28445035
40	0xbbb2b300	-0.0054534674
41	0xbcd3f2e0	-0.025872648
42	0x3e89cd14	0.26914275
43	0xbe625176	-0.22101387
44	0x3e636f3c	0.22210401
45	0xbcbb7b00	-0.0228858
46	0x3e0fca26	0.14041957
47	0xbe56c693	-0.20974188
48	0xbccc5310	-0.024941951
49	0x3e8f4550	0.2798257
50	0x3e1d8b50	0.15385175
51	0x3e0dbc96	0.13841471
52	0xbe716720	-0.23574495
53	0xbe29f5ab	-0.16597621
54	0xbe2089f6	-0.15677628
55	0x3d1bd350	0.03804332
56	0x3bc65480	0.0060525537
57	0x3e5c1580	0.21492577
58	0xbe888274	-0.26662028
59	0x3e98f37e	0.2987327
60	0x3d6ab518	0.05730161
61	0xbe73466e	-0.23757336
62	0xbe163f0d	-0.1467249
63	0x3d815468	0.06314927
64	0x3e4c1030	0.1992805
65	0xbc91afe0	-0.017784059
66	0xbcf03d50	-0.029326111
67	0xbdc04df8	-0.09389871
68	0x3e7cb9fc	0.24680322
69	0xbe592d03	-0.21208577
70	0x3d2657b8	0.040611
71	0xbe85d244	-0.26136982
72	0x3e955d3c	0.29172695
73	0xbc083180	-0.008312583
74	0xbdd85f90	-0.10565102
75	0xbe2c2e4c	-0.16814536
76	0x3e52da48	0.2059108
77	0x3e627274	0.22113973
78	0x3e0a603e	0.13513276
79	0xbd2a7588	-0.041615993
80	0x3e55acb0	0.20866656
81	0x3e66b0bc	0.22528356
82	0xbd09d550	-0.033650696
83	0xbe122993	-0.14273672
84	0x3e99a998	0.30012202
85	0xbe8d2be3	-0.27572545
86	0xbe3461e5	-0.17615469
87	0x3e2a381e	0.1662297
88	0xbe136a49	-0.14396013
89	0xbde44828	-0.11146575
90	0xbe34e81e	-0.1766667
91	0x3e838eea	0.25694972
92	0xbe2314c9	-0.15925898
93	0x3dd47304	0.103735
94	0x3cd396e0	0.025828779
95	0x3db4d674	0.08829966
96	0xbc214ae0	-0.009844512
97	0x3e58e670	0.21181655
98	0xbe423bce	-0.18968126
99	0xbe480e90	-0.19536805
100	0xbdefea1e	-0.11714576
101	0xbe71fd0c	-0.23631686
102	0xbe5b4353	-0.21412401
103	0x3dcc3294	0.099705845
104	0xbdc21372	-0.09476365
105	0xbe45fdfc	-0.19335169
106	0x3d15b030	0.03654498
107	0x3e312208	0.17298138
108	0xbe780704	-0.24221426
109	0x3e8291b2	0.25501782
110	0xbe95ab26	-0.29232138
111	0x3d85bfbc	0.06530711
112	0x3e6222d4	0.22083598
113	0x3e0276c6	0.12740621
114	0xbe653b9f	-0.22386025
115	0xbe6fae54	-0.23406345
116	0xbe161560	-0.14656591
117	0xbdd549da	-0.10414477
118	0xbe7ca252	-0.24671295
119	0x3e7f133c	0.24909681
120	0x3d8d9c74	0.06914607
121	0xbe3d98c4	-0.18515307
122	0xbe6c9299	-0.23102798
123	0x3e6b3c04	0.22972113
124	0xbdb922e2	-0.090398565
125	0x3e6f1dc4	0.23351198
126	0xbe3b421c	-0.18286937
127	0xbd9fcf0e	-0.078031644

bias f4 [2, 2]
0	0x00000000	0.0
1	0x00000000	0.0
2	0x00000000	0.0
3	0x00000000	0.0

weight f4 [128, 128]
0	0xba292f00	-0.0006453842
1	0xbc8b36f4	-0.016993977
2	0xbd80d5cf	-0.06290781
3	0xbda1ba84	-0.07896903
4	0xbd828ff3	-0.063751124
5	0xbd31414e	-0.04327517
6	0xbd484113	-0.048890185
7	0x3d505606	0.05086329
8	0x3d8c6b09	0.06856353
9	0x3da4854f	0.08033239
10	0x3da7f25f	0.082005255
11	0x3d1576c6	0.036490224
12	0xbda0e8fe	-0.0785694
13	0xbd1241ae	-0.03570717
14	0x3d861515	0.0654699
15	0xbd59a078	-0.05313155
16	0xbc790248	-0.015198298
17	0x3cea1670	0.028575152
18	0x3d965a05	0.073413886
19	0xbd15aa86	-0.036539577
20	0xbdb444e3	-0.088022016
21	0xbd1f3a57	-0.038873997
22	0xbd2112e9	-0.039324675
23	0xbb974050	-0.004615821
24	0x3d6a0d5a	0.05714164
25	0x3ce70800	0.028202057
26	0xbd5f3e94	-0.05450304
27	0x3c04b500	0.008099794
28	0x3c8a1554	0.016855873
29	0x3b041e00	0.0020159483
30	0xbbe8a470	-0.0070996806
31	0x3d4876a6	0.048941277
32	0x3c417ae0	0.011809081
33	0x3d6b4bae	0.05744522
34	0xbb8db620	-0.0043246895
35	0x3d8956a9	0.06705982
36	0x3dabce1b	0.08388921
37	0x3d9e4a0d	0.07728968
38	0xbd16af97	-0.03678855
39	0xbba058b0	-0.004893385
40	0x3d22d352	0.039752312
41	0xbdb08cca	-0.086206034
42	0xbd37f10f	-0.044907626
43	0xbd9bd1e2	-0.07608391
44	0xbc22e410	-0.00994207
45	0xbd912f14	-0.070890576
46	0xbd9be1ad	-0.076114036
47	0xbd8cef76	-0.06881611
48	0xbdb4693a	-0.08809133
49	0x3cd44478	0.025911555
50	0x3c913080	0.017723322
51	0xbd431671	-0.047628824
52	0xbc42cb48	-0.011889286
53	0x3d784e9e	0.06062185
54	0xbc363be8	-0.011122681
55	0x3d506282	0.050875194
56	0x3cd81f44	0.026382096
57	0xbcebc8aa	-0.028782208
58	0x3d050612	0.032476492
59	0xbd847e2d	-0.064693786
60	0xbd386999	-0.04502258
61	0xbd14315c	-0.036179885
62	0x3da4098d	0.08009634
63	0xbcda3706	-0.026637565
64	0xbd8ab813	-0.067733906
65	0x3d8e96af	0.06962334
66	0x3d2a9ac2	0.041651495
67	0x3d805f39	0.06268162
68	0x3d58d3e6	0.052936457
69	0x3da1710b	0.07882889
70	0x3b18d600	0.0023320913
71	0xbd82f465	-0.06394271
72	0xbc3c99a8	-0.011511244
73	0xbc1661c0	-0.009178579
74	0xbd0e826f	-0.03479236
75	0x3d77cda6	0.060498856
76	0xbab92000	-0.0014123917
77	0x3c3b40b8	0.011429004
78	0x3d46d5de	0.048543803
79	0x3cd77970	0.026303023
80	0xbd57b47a	-0.05266235
81	0x3d2ae8a2	0.041725762
82	0x3d1d3a6e	0.0383858
83	0x3d80e8d5	0.06294409
84	0xbd8b8166	-0.0681179
85	0x3d6458fa	0.055748917
86	0xbdb18ec0	-0.086698055
87	0xbda7a44b	-0.08185633
88	0x3db392dd	0.08768246
89	0xbd2abb87	-0.041682746
90	0x3da2b5cb	0.079448305
91	0xbd0aae7c	-0.033857808
92	0x3d5ddabe	0.054163687
93	0x3db34f45	0.08755354
94	0xbd0bbfc5	-0.034118433
95	0xbd9bb39a	-0.07602616
96	0x3d4418aa	0.047875084
97	0xbd3ddf0a	-0.046355285
98	0x3cc1fd84	0.023680456
99	0xbd0050fd	-0.031327236
100	0x3d826ab9	0.06368012
101	0x3d04e792	0.032447405
102	0x3d59d96e	0.053185873
103	0x3d07de3a	0.033170916
104	0xbd634e7d	-0.055494774
105	0x3d6f796a	0.0584654
106	0x3c155320	0.009114057
107	0xbd5bf9e2	-0.053705104
108	0x3bbe7c60	0.0058131665
109	0xbd4b8a20	-0.049692273
110	0xbd753526	-0.05986514
111	0xbd8c3319	-0.068456836
112	0x3cad1dd8	0.021132395
113	0x3d141ef4	0.03616233
114	0x3d914435	0.070930876
115	0xbda1159b	-0.07865449
116	0xbdab7e1b	-0.08373662
117	0x3c9f772c	0.019466005
118	0x3d60e222	0.054903157
119	0xbc004170	-0.0078281015
120	0xbb788480	-0.0037920773
121	0x3d9af5a3	0.07566383
122	0x3cb5ba98	0.022183701
123	0xbc5d3958	-0.013502441
124	0x3ca87b80	0.020566702
125	0xbd6ee796	-0.058326326
126	0xbd5b0d23	-0.053479325
127	0xbd609e99	-0.05483875
128	0x3c9af8e4	0.018917508
129	0x3d45a66e	0.048254423
130	0x3d81dbd1	0.06340755
131	0x3cf007c8	0.029300585
132	0x3da1d8ad	0.07902656
133	0x3d216de6	0.039411448
134	0x3ccca678	0.024981722
135	0xbce674ca	-0.028131861
136	0x3d3db8e6	0.04631891
137	0x3d4c4f66	0.049880408
138	0x3db1a467	0.086739354
139	0xbcfb8d02	-0.030706886
140	0x3c2e0bf0	0.010622963
141	0xbd65d910	-0.05611521
142	0xbd4d0e7b	-0.050062638
143	0x3cc3c2cc	0.023896597
144	0x3db08f73	0.08621111
145	0x3d6bf87a	0.057610013
146	0x3d7457f2	0.059654184
147	0xbd4c6f01	-0.04991055
148	0x3d011e94	0.031523302
149	0x3cfe7d0c	0.031065486
150	0xbda94847	-0.08265739
151	0x3cb84c38	0.022497281
152	0xbdaaf5a2	-0.08347632
153	0x3d232bba	0.039836623
154	0xbd90ad38	-0.07064289
155	0xbc065728	-0.008199491
156	0xbcd501a4	-0.026001759
157	0xbd909d32	-0.070612326
158	0xbdb23519	-0.08701534
159	0x3d93bcc3	0.07213738
160	0x3d1d18ea	0.038353838
161	0xbd1a4871	-0.03766674
162	0xbdb2c204	-0.08728412
163	0xbda1387b	-0.07872101
164	0x3c80ad9c	0.015707783
165	0x3da261dd	0.07928822
166	0x3d104e6a	0.03523103
167	0x3c939f4c	0.018020295
168	0xbd1c1670	-0.038107336
169	0x3d6cd12a	0.057816662
170	0xbd4827be	-0.048866026
171	0x3c9a6984	0.018849142
172	0xbd53366c	-0.051565573
173	0xbd8dafd5	-0.06918303
174	0x3cef7e60	0.029235065
175	0x3b4b7020	0.0031042174
176	0xbcbcab8c	-0.023031019
177	0xbda2523a	-0.0792584
178	0x3d96f4a3	0.073708795
179	0xbd3a81ac	-0.04553382
180	0x3da901a1	0.08252264
181	0x3c8e34c4	0.017359145
182	0x3da89285	0.082310714
183	0xbd763272	-0.060106702
184	0x3d925555	0.07145182
185	0xbd8b6166	-0.06805687
186	0xbc4d8170	-0.012543067
187	0x3c72d538	0.014821343
188	0x3d3beade	0.045878284
189	0x3b549720	0.003243871
190	0x3da17e07	0.07885366
191	0xbd770f7f	-0.060317513
192	0xbd908ced	-0.070581295
193	0xbda3c027	-0.079956345
194	0xbd797fc0	-0.060912848
195	0xbd5ea498	-0.054356188
196	0xb9c38700	-0.0003729388
197	0x3db44d75	0.08803836
198	0x3839d800	4.4308603e-05
199	0x3ce2c4f4	0.027681805
200	0xbcd0c2b0	-0.02548346
201	0xbd659af2	-0.05605597
202	0x3cd57fa4	0.02606184
203	0x3d6c354e	0.057668023
204	0x3c6e1748	0.014531918
205	0xbd111b5e	-0.03542649
206	0x3db2ba05	0.08726887
207	0x3d85d22d	0.065342285
208	0xbcd02258	-0.025407001
209	0xbd4ebd49	-0.050473485
210	0x3db4a9ed	0.08821473
211	0xbdb443e2	-0.0880201
212	0x3da64b81	0.0811987
213	0x3b7ba720	0.0038399175
214	0xbd179148	-0.037003785
215	0x3d9cd787	0.07658296
216	0xbda5075c	-0.08058044
217	0x3cfd5d94	0.03092841
218	0x3ca36808	0.019947067
219	0xbd4d5f41	-0.05013967
220	0x3da7074f	0.08155691
221	0x3d3e1606	0.046407722
222	0x3bbb32c0	0.005712837
223	0xbd207427	-0.03917327
224	0xbc0d4898	-0.008623265
225	0x3d9c9d03	0.07647135
226	0x3d940fe9	0.07229597
227	0xbd1b29d5	-0.03788169
228	0xbda2f354	-0.079565674
229	0xbd040913	-0.032235216
230	0xbd1833b4	-0.037158683
231	0x3cb9c484	0.022676714
232	0xbda9c43b	-0.08289381
233	0x3cd598b8	0.026073799
234	0xbbd880d0	-0.0066071525
235	0x3d36dd1a	0.044644453
236	0xbda275c1	-0.07932616
237	0xbca21e1c	-0.019789748
238	0x3d15d526	0.036580227
239	0xbc08adc0	-0.0083422065
240	0x3b36dbc0	0.0027901977
241	0xbdb19622	-0.08671214
242	0xbb268500	-0.0025408864
243	0x3c798278	0.01522886
244	0xbc61cfd8	-0.013782464
245	0x3c586e80	0.013209939
246	0x3d30712e	0.043076687
247	0xbd79334e	-0.060839944
248	0xbb4b9740	-0.0031065494
249	0x3c241528	0.01001481
250	0x3d928e0f	0.07156002
251	0x3daf3def	0.08556735
252	0x3d9e878d	0.07740698
253	0x3d8ca5df	0.06867575
254	0x3d49bbc2	0.049251325
255	0x3d9bdc7b	0.07610413

bias f4 [128]
0	0xbd85fc59	-0.06542272
1	0xbd2af323	-0.04173578
2	0x3d02cd5a	0.03193412
3	0xbd70e6b2	-0.05881376
4	0xbd2d4d3d	-0.04230999
5	0x3d192ad2	0.037394352
6	0x3d99c52b	0.0750831
7	0x3c8c583c	0.017131917
8	0xbb0132a0	-0.0019714013
9	0xbd29dae9	-0.041468535
10	0xbcd12f84	-0.025535353
11	0xbdb23dcc	-0.08703193
12	0x3daaa897	0.08332937
13	0x3c59d5f0	0.013295636
14	0x3d9f3e19	0.07775516
15	0xbba9ac50	-0.005178012
16	0xbd440f20	-0.047865987
17	0x3cdbf980	0.02685237
18	0xbdb323e1	-0.08747078
19	0x3bfafcb0	0.007659517
20	0xbcba4610	-0.022738487
21	0x3d15f746	0.03661277
22	0x3cb548c4	0.022129424
23	0x3d94520b	0.07242211
24	0x3daa060b	0.08301934
25	0x3d7f874e	0.062384896
26	0xbd3887df	-0.04505145
27	0xbca1c8dc	-0.019749098
28	0x3d8d52d5	0.069005646
29	0xbdae4fa3	-0.08511283
30	0x3d5a02b6	0.05322524
31	0xbd3b684f	-0.045753773
32	0x3c5bce48	0.0134158805
33	0xbba497e0	-0.0050229877
34	0xbc43a208	-0.011940487
35	0xbcd932a8	-0.026513413
36	0x3d41d3f2	0.047321267
37	0x3d964d6d	0.073389865
38	0x3d7e5202	0.062089927
39	0xbdaaaa26	-0.083332345
40	0x3d7ccdaa	0.061719574
41	0x3d614e16	0.05500611
42	0xbd49e8e6	-0.049294375
43	0xbc9a022c	-0.018799864
44	0xbda7bb0f	-0.081899755
45	0x3d6a3dc2	0.057187803
46	0xbd31e6bc	-0.043432936
47	0x3c89b788	0.016811147
48	0x3d3474a2	0.044056542
49	0x3d702682	0.058630474
50	0x39e10100	0.0004291609
51	0x3db24bbd	0.08705852
52	0x3db35527	0.08756476
53	0x3d9d0b9d	0.07668231
54	0x3c326218	0.010887645
55	0x3d2a9332	0.041644283
56	0xbcea4856	-0.028598946
57	0x3db10029	0.08642609
58	0x3daa2585	0.083079375
59	0xbd94a592	-0.072581425
60	0x3d00fc62	0.03149069
61	0xbd8fcbcf	-0.07021295
62	0xbd1da9b8	-0.038491935
63	0x3ce6ba50	0.028165013
64	0x3c5f4090	0.013626233
65	0x3d7aa512	0.06119258
66	0x3d8bce73	0.068264864
67	0x3cd5fd8c	0.026121877
68	0x3c55a040	0.013038695
69	0xbd75ef87	-0.060042884
70	0xbb946ab0	-0.0045293197
71	0x3cb89d84	0.022536047
72	0xbd5885f2	-0.052862115
73	0x3c89eb38	0.016835794
74	0x3bca02f0	0.006164901
75	0xbd394fe7	-0.045242216
76	0xbcc99f24	-0.024612017
77	0x3d0e5fe0	0.034759402
78	0xbd4982a7	-0.049196865
79	0xbd04bff6	-0.03240963
80	0xbcbbcee4	-0.022925802
81	0x3cbd638c	0.023118757
82	0xbcea01aa	-0.028565247
83	0x3d82a083	0.063782714
84	0x3d6624ca	0.05618743
85	0xbcf158b6	-0.029461246
86	0xb9961800	-0.0002862811
87	0xbcf6d338	-0.030130014
88	0xbda77362	-0.081763044
89	0xbda5624d	-0.0807539
90	0xbd989bb6	-0.074515745
91	0xbd85fb83	-0.06542113
92	0xbda6ec0c	-0.08150491
93	0x3d53e8fe	0.05173587
94	0xbd55f297	-0.052233305
95	0xbda00a34	-0.07814446
96	0xbc715260	-0.014729112
97	0xbcf1b4ae	-0.0295051
98	0x3d6242d6	0.05523952
99	0xbda122bf	-0.078679554
100	0xbd01001b	-0.03149424
101	0x3caa1a64	0.020764537
102	0xbdb2b92e	-0.087267265
103	0x3d2c4a1e	0.04206287
104	0xbcfbb9b0	-0.030728191
105	0xbd43f4c3	-0.047840845
106	0x3b4ce560	0.0031264648
107	0xbcb4ed20	-0.022085726
108	0x3dad037f	0.084479325
109	0xbd670296	-0.05639895
110	0x3d5f9c96	0.05459269
111	0xbd579083	-0.05262805
112	0x3d1de176	0.038545094
113	0x3dafa7b3	0.08576908
114	0xbc972aac	-0.018452965
115	0xbd392b66	-0.045207404
116	0xbc25cdf0	-0.0101199
117	0x3d427076	0.047470532
118	0xbd3e8b2a	-0.046519436
119	0xbda243b6	-0.07923071
120	0xbd656e2b	-0.056013267
121	0x3da703af	0.081549995
122	0xbd8b68c4	-0.06807092
123	0x3d1bd2e2	0.03804291
124	0xbd166d1a	-0.03672514
125	0xbb86c920	-0.0041133314
126	0xbc293c18	-0.010329269
127	0xbd3ff7be	-0.046867125

a f4 [4, 1]
0	0x3edb8668	0.4287598
1	0x3ea19070	0.3155551
2	0x3ef9333c	0.486719
3	0x3f8a4c5d	1.0804554

bias f4 [64, 64]
0	0x00000000	0.0
1	0x00000000	0.0
2	0x00000000	0.0
3	0x00000000	0.0
4	0x00000000	0.0
5	0x00000000	0.0
6	0x00000000	0.0
7	0x00000000	0.0
8	0x00000000	0.0
9	0x00000000	0.0
10	0x00000000	0.0
11	0x00000000	0.0
12	0x00000000	0.0
13	0x00000000	0.0
14	0x00000000	0.0
15	0x00000000	0.0
16	0x00000000	0.0
17	0x00000000	0.0
18	0x00000000	0.0
19	0x00000000	0.0
20	0x00000000	0.0
21	0x00000000	0.0
22	0x00000000	0.0
23	0x00000000	0.0
24	0x00000000	0.0
25	0x00000000	0.0
26	0x00000000	0.0
27	0x00000000	0.0
28	0x00000000	0.0
29	0x00000000	0.0
30	0x00000000	0.0
31	0x00000000	0.0
32	0x00000000	0.0
33	0x00000000	0.0
34	0x00000000	0.0
35	0x00000000	0.0
36	0x00000000	0.0
37	0x00000000	0.0
38	0x00000000	0.0
39	0x00000000	0.0
40	0x00000000	0.0
41	0x00000000	0.0
42	0x00000000	0.0
43	0x00000000	0.0
44	0x00000000	0.0
45	0x00000000	0.0
46	0x00000000	0.0
47	0x00000000	0.0
48	0x00000000	0.0
49	0x00000000	0.0
50	0x00000000	0.0
51	0x00000000	0.0
52	0x00000000	0.0
53	0x00000000	0.0
54	0x00000000	0.0
55	0x00000000	0.0
56	0x00000000	0.0
57	0x00000000	0.0
58	0x00000000	0.0
59	0x00000000	0.0
60	0x00000000	0.0
61	0x00000000	0.0
62	0x00000000	0.0
63	0x00000000	0.0
64	0x00000000	0.0
65	0x00000000	0.0
66	0x00000000	0.0
67	0x00000000	0.0
68	0x00000000	0.0
69	0x00000000	0.0
70	0x00000000	0.0
71	0x00000000	0.0
72	0x00000000	0.0
73	0x00000000	0.0
74	0x00000000	0.0
75	0x00000000	0.0
76	0x00000000	0.0
77	0x00000000	0.0
78	0x00000000	0.0
79	0x00000000	0.0
80	0x00000000	0.0
81	0x00000000	0.0
82	0x00000000	0.0
83	0x00000000	0.0
84	0x00000000	0.0
85	0x00000000	0.0
86	0x00000000	0.0
87	0x00000000	0.0
88	0x00000000	0.0
89	0x00000000	0.0
90	0x00000000	0.0
91	0x00000000	0.0
92	0x00000000	0.0
93	0x00000000	0.0
94	0x00000000	0.0
95	0x00000000	0.0
96	0x00000000	0.0
97	0x00000000	0.0
98	0x00000000	0.0
99	0x00000000	0.0
100	0x00000000	0.0
101	0x00000000	0.0
102	0x00000000	0.0
103	0x00000000	0.0
104	0x00000000	0.0
105	0x00000000	0.0
106	0x00000000	0.0
107	0x00000000	0.0
108	0x00000000	0.0
109	0x00000000	0.0
110	0x00000000	0.0
111	0x00000000	0.0
112	0x00000000	0.0
113	0x00000000	0.0
114	0x00000000	0.0
115	0x00000000	0.0
116	0x00000000	0.0
117	0x00000000	0.0
118	0x00000000	0.0
119	0x00000000	0.0
120	0x00000000	0.0
121	0x00000000	0.0
122	0x00000000	0.0
123	0x00000000	0.0
124	0x00000000	0.0
125	0x00000000	0.0
126	0x00000000	0.0
127	0x00000000	0.0
128	0x00000000	0.0
129	0x00000000	0.0
130	0x00000000	0.0
131	0x00000000	0.0
132	0x00000000	0.0
133	0x00000000	0.0
134	0x00000000	0.0
135	0x00000000	0.0
136	0x00000000	0.0
137	0x00000000	0.0
138	0x00000000	0.0
139	0x00000000	0.0
140	0x00000000	0.0
141	0x00000000	0.0
142	0x00000000	0.0
143	0x00000000	0.0
144	0x00000000	0.0
145	0x00000000	0.0
146	0x00000000	0.0
147	0x00000000	0.0
148	0x00000000	0.0
149	0x00000000	0.0
150	0x00000000	0.0
151	0x00000000	0.0
152	0x00000000	0.0
153	0x00000000	0.0
154	0x00000000	0.0
155	0x00000000	0.0
156	0x00000000	0.0
157	0x00000000	0.0
158	0x00000000	0.0
159	0x00000000	0.0
160	0x00000000	0.0
161	0x00000000	0.0
162	0x00000000	0.0
163	0x00000000	0.0
164	0x00000000	0.0
165	0x00000000	0.0
166	0x00000000	0.0
167	0x00000000	0.0
168	0x00000000	0.0
169	0x00000000	0.0
170	0x00000000	0.0
171	0x00000000	0.0
172	0x00000000	0.0
173	0x00000000	0.0
174	0x00000000	0.0
175	0x00000000	0.0
176	0x00000000	0.0
177	0x00000000	0.0
178	0x00000000	0.0
179	0x00000000	0.0
180	0x00000000	0.0
181	0x00000000	0.0
182	0x00000000	0.0
183	0x00000000	0.0
184	0x00000000	0.0
185	0x00000000	0.0
186	0x00000000	0.0
187	0x00000000	0.0
188	0x00000000	0.0
189	0x00000000	0.0
190	0x00000000	0.0
191	0x00000000	0.0
192	0x00000000	0.0
193	0x00000000	0.0
194	0x00000000	0.0
195	0x00000000	0.0
196	0x00000000	0.0
197	0x00000000	0.0
198	0x00000000	0.0
199	0x00000000	0.0
200	0x00000000	0.0
201	0x00000000	0.0
202	0x00000000	0.0
203	0x00000000	0.0
204	0x00000000	0.0
205	0x00000000	0.0
206	0x00000000	0.0
207	0x00000000	0.0
208	0x00000000	0.0
209	0x00000000	0.0
210	0x00000000	0.0
211	0x00000000	0.0
212	0x00000000	0.0
213	0x00000000	0.0
214	0x00000000	0.0
215	0x00000000	0.0
216	0x00000000	0.0
217	0x00000000	0.0
218	0x00000000	0.0
219	0x00000000	0.0
220	0x00000000	0.0
221	0x00000000	0.0
222	0x00000000	0.0
223	0x00000000	0.0
224	0x00000000	0.0
225	0x00000000	0.0
226	0x00000000	0.0
227	0x00000000	0.0
228	0x00000000	0.0
229	0x00000000	0.0
230	0x00000000	0.0
231	0x00000000	0.0
232	0x00000000	0.0
233	0x00000000	0.0
234	0x00000000	0.0
235	0x00000000	0.0
236	0x00000000	0.0
237	0x00000000	0.0
238	0x00000000	0.0
239	0x00000000	0.0
240	0x00000000	0.0
241	0x00000000	0.0
242	0x00000000	0.0
243	0x00000000	0.0
244	0x00000000	0.0
245	0x00000000	0.0
246	0x00000000	0.0
247	0x00000000	0.0
248	0x00000000	0.0
249	0x00000000	0.0
250	0x00000000	0.0
251	0x00000000	0.0
252	0x00000000	0.0
253	0x00000000	0.0
254	0x00000000	0.0
255	0x00000000	0.0

weight f4 [4, 4]
0	0x3ee78338	0.452173
1	0x3e704a80	0.2346592
2	0x3de8ac88	0.11361033
3	0x3eec9310	0.4620595
4	0x3e22a248	0.15882218
5	0x3d4eb280	0.0504632
6	0x3e466378	0.19373882
7	0xbe33bad8	-0.17551744
8	0x3e55b0f0	0.20868278
9	0xbeb49d26	-0.35276145
10	0x3e8ab400	0.27090454
11	0xbe9f85bc	-0.3115672
12	0xbee5ed88	-0.44907784
13	0x3eb97556	0.36222333
14	0x3eae7d40	0.34079933
15	0xbec36172	-0.38160282

bias f4 [4]
0	0x3e1abbfc	0.15110773
1	0x3ef413f8	0.47671485
2	0xbedfeff6	-0.43737763
3	0xbd85c5c8	-0.065318644

weight f4 [128, 128]
0	0xbc8c21d4	-0.017105974
1	0xbdb3ac98	-0.08773154
2	0x3d982de1	0.07430626
3	0x3bd978a0	0.006636694
4	0xbb628dc0	-0.0034569353
5	0xbd2317b4	-0.039817527
6	0x3d98c253	0.074589394
7	0x3d4e3f2e	0.05035322
8	0xbbd553b0	-0.0065102205
9	0x3d9d0729	0.07667381
10	0x3c90dad8	0.017682478
11	0x3ba20ae0	0.004945144
12	0x3d42e456	0.04758104
13	0xbd1ab7e1	-0.037773017
14	0x3c555bf0	0.013022408
15	0xbdb2cb98	-0.08730239
16	0xbd11ab41	-0.03556371
17	0xbd918902	-0.0710621
18	0xbd142097	-0.036163893
19	0x3d0c41e8	0.03424254
20	0xbd9c5532	-0.07633437
21	0xbd269b2b	-0.040675323
22	0xbd0ffc10	-0.035152495
23	0xbcdac638	-0.026705846
24	0x3b88ced0	0.0041750446
25	0x3db2a485	0.08722786
26	0x3d865165	0.065584935
27	0x3b228e40	0.0024804026
28	0xbd900592	-0.070323125
29	0x3da6e6ab	0.08149465
30	0xbd0b8336	-0.03406068
31	0x3d699556	0.057027183
32	0xbc8a18c8	-0.01685752
33	0xbd1ff074	-0.039047673
34	0xbda45165	-0.08023337
35	0x3cde97f8	0.027172074
36	0xbda91648	-0.08256203
37	0x3da4a12b	0.08038553
38	0x3d44012a	0.047852673
39	0x3ccc72b8	0.024957046
40	0xbd8cfc0e	-0.06884013
41	0x3d2bb2ca	0.041918553
42	0x3d7896de	0.060690753
43	0x3c176988	0.009241469
44	0x3d7ce6f2	0.061743684
45	0xb64e0000	-3.0696392e-06
46	0x3d9d2427	0.07672911
47	0xbcac4514	-0.021029033
48	0xbcd3ab7c	-0.025838606
49	0xbcb357a4	-0.021892376
50	0x3d2c2f62	0.042037375
51	0xbcf3f2e6	-0.029778909
52	0x3da138f5	0.07872192
53	0xbda22e0e	-0.079189405
54	0xbd958cd6	-0.07302253
55	0x3db49c61	0.088188894
56	0x3d74345e	0.059620254
57	0x3d344056	0.044006668
58	0x3d902753	0.070387505
59	0xbd552ed8	-0.052046627
60	0xbbd47290	-0.0064833835
61	0x3d0dc4c4	0.03461148
62	0xba8c7fc0	-0.0010719225
63	0xbcf8df12	-0.030379806
64	0x3ced3d38	0.028959855
65	0xbd90d77b	-0.0707235
66	0xbb9d5e40	-0.0048024952
67	0x3d346612	0.044042654
68	0x3d2213be	0.03956961
69	0x3d2853ae	0.04109543
70	0xbd9d871b	-0.07691785
71	0x3d92288d	0.07136641
72	0xbd94c21a	-0.072635844
73	0x3c8f8840	0.017521024
74	0x3da9d27d	0.082921006
75	0x3d877ff9	0.06616206
76	0x3d74291e	0.059609525
77	0xbd528b7b	-0.05140255
78	0xbd23b112	-0.03996379
79	0xbd9d7e4e	-0.07690106
80	0x3d9b5a1b	0.07585546
81	0xbd28a5f1	-0.04117388
82	0xb9d93000	-0.00041425228
83	0x3d8475bd	0.06467769
84	0xbd201d77	-0.0390906
85	0xbc187ff0	-0.009307846
86	0x3d5a25f6	0.05325886
87	0x3ba49820	0.0050230175
88	0x3da1acc5	0.07894281
89	0xbcb8e3b0	-0.022569507
90	0xbd9a2f3f	-0.07528543
91	0xbdab4e1b	-0.08364507
92	0xbd4776fc	-0.048697457
93	0xbd94ca7a	-0.07265182
94	0x3d136acc	0.03599052
95	0xbd590beb	-0.05298988
96	0xbd4b4ad1	-0.049631897
97	0xbd3b30ed	-0.045700956
98	0x3d91920b	0.071079336
99	0xbd17f137	-0.037095275
100	0xbd8c0d54	-0.0683848
101	0x3d5aa6a2	0.05338157
102	0x3dad3b6f	0.08458602
103	0x3d4c0866	0.049812697
104	0xbc9dc438	-0.019258603
105	0x3d3fcfde	0.046829097
106	0x3d7c3682	0.06157542
107	0xbd13c686	-0.036078
108	0xbd37fb25	-0.044917244
109	0xbca9013c	-0.020630471
110	0xbd313cc1	-0.04327083
111	0xbdb4f56a	-0.088358715
112	0x3d856a8d	0.065144636
113	0xbd8d0d8d	-0.0688735
114	0xbd2839c1	-0.041070703
115	0xbd7ff29a	-0.062487222
116	0xbd68003d	-0.056640852
117	0x3c8040a0	0.015655816
118	0xbb680820	-0.0035405234
119	0x3d3c527e	0.04597711
120	0x3c607740	0.013700306
121	0xbd00ed20	-0.03147614
122	0xbd88cd82	-0.066798225
123	0xbd0e2639	-0.03470442
124	0x3d713c8e	0.05889564
125	0xbda91d98	-0.08257598
126	0x3beb8710	0.0071877316
127	0xbb084dc0	-0.0020798296
128	0x3cade994	0.021229543
129	0x3d82cc2f	0.06386601
130	0xbd951478	-0.07279295
131	0x3d061540	0.03273511
132	0xbbee22e0	-0.007267341
133	0x3d4702fe	0.048586838
134	0x3a298400	0.0006466508
135	0x3d9765ab	0.073924385
136	0xbcd5462a	-0.026034433
137	0xbd337348	-0.043811113
138	0xbd79be10	-0.060972273
139	0xbcaa6668	-0.020800784
140	0x3d8e49f9	0.06947703
141	0xbd301dcd	-0.04299717
142	0xbd60c6c5	-0.05487706
143	0x3c16f5b8	0.009213857
144	0x3d9ff25d	0.07809899
145	0x3c635108	0.0138743
146	0xbb74e160	-0.003736578
147	0x3c9e5274	0.019326426
148	0xbd29e903	-0.041481983
149	0x3d32a43e	0.043613665
150	0xbcea871c	-0.028628878
151	0x3d4769be	0.048684828
152	0x3cc1b960	0.023647964
153	0x3d9eb723	0.07749774
154	0x3d85e187	0.065371566
155	0x3d953ed5	0.07287375
156	0x3d993c75	0.074822344
157	0x3cb28ef0	0.021796674
158	0x3d434512	0.047673292
159	0xbd64d440	-0.05586648
160	0x3db29205	0.08719257
161	0xbc0350e0	-0.008014888
162	0x3b3058c0	0.0026908368
163	0x3c4d2a00	0.012522221
164	0x3d7dfbee	0.062007837
165	0xbd489cc1	-0.048977617
166	0x3d7bf956	0.061517082
167	0x3d9f7b99	0.07787246
168	0x3cf57024	0.0299607
169	0x3c550fe0	0.013004273
170	0x3b9926a0	0.004673794
171	0xb84a3000	-4.8205256e-05
172	0xbd9d812f	-0.076906554
173	0x3dab19bb	0.08354517
174	0x3cf73900	0.030178547
175	0xbd8fe773	-0.07026567
176	0xbd23fe7d	-0.04003762
177	0x3d8ce061	0.068787344
178	0xbd4a923d	-0.04945587
179	0x3d6c74fa	0.057728745
180	0xbc618f70	-0.013767108
181	0xbd5cc528	-0.05389896
182	0xbbaeb810	-0.0053320006
183	0xbc828c9c	-0.015936188
184	0x3c627570	0.013821945
185	0x3b8a5cd0	0.00422249
186	0xbda2dbab	-0.079520546
187	0xbd326df6	-0.0435619
188	0xbc1fdfc8	-0.009757943
189	0xbd9ec364	-0.077521116
190	0xbd657200	-0.056016922
191	0xbba3be00	-0.004997015
192	0xbd925b8b	-0.07146367
193	0xbd99e55e	-0.075144514
194	0x3d48462a	0.04889504
195	0xbd878f46	-0.06619124
196	0xbd900281	-0.070317276
197	0xbd9742f2	-0.07385816
198	0xbcf46786	-0.02983452
199	0xbd786324	-0.060641423
200	0xbd8b7487	-0.06809335
201	0xbc1c63c8	-0.009545274
202	0xbd90d8f6	-0.07072632
203	0xbc377128	-0.011196412
204	0xbc6f8600	-0.01461935
205	0x3c1f1a10	0.009710804
206	0xbd4244ff	-0.04742908
207	0xbd77c8a6	-0.060494088
208	0xbd466bdb	-0.048442703
209	0x3c923028	0.017845228
210	0xbdab8141	-0.083742626
211	0x3d8ca727	0.06867819
212	0x3d302692	0.043005534
213	0x3daaaf85	0.08334259
214	0x3d111154	0.035416916
215	0x3a8edb40	0.0010899082
216	0x3cce5874	0.025188662
217	0xbda5ce89	-0.08096034
218	0xbd2ff9a9	-0.042962704
219	0xbcb53c3c	-0.022123449
220	0xbd966770	-0.07343948
221	0x3da273cb	0.07932242
222	0xbd890c1a	-0.06691761
223	0xbb7e3a20	-0.003879197
224	0xbda5fc2c	-0.081047386
225	0x3d976d8b	0.073939405
226	0xbc2abf20	-0.010421544
227	0xbd684781	-0.056708816
228	0xbda44200	-0.08020401
229	0x3ca6ced8	0.020362303
230	0xbd5145d3	-0.05109198
231	0xbd0efd8f	-0.03490978
232	0xbda20120	-0.07910371
233	0x3d14a32c	0.036288425
234	0x3d6ecfe6	0.058303736
235	0xbc879604	-0.016551025
236	0x3d72fefe	0.05932521
237	0x3d23eaaa	0.040018715
238	0x3d6ec8e6	0.05829706
239	0xbd88f7e2	-0.06687905
240	0x3c265f20	0.0101545155
241	0x3daa0241	0.08301211
242	0xbc31ed10	-0.010859743
243	0x3d47f56a	0.04881803
244	0xbd86c21f	-0.065799944
245	0x3d3488ca	0.044075765
246	0xbd0173fc	-0.031604752
247	0x3cbc9688	0.023020998
248	0x3b6ef120	0.003645964
249	0x3bff2590	0.00778646
250	0x3dadc26d	0.084843494
251	0x3b2308c0	0.0024877042
252	0x3d8c5ab3	0.06853237
253	0x3d43a3ae	0.04776352
254	0x3d499212	0.04921157
255	0xbc0beb28	-0.008539952

bias f4 [128]
0	0x3d89057d	0.066905
1	0xbd9d069f	-0.076672785
2	0x3d852965	0.06502036
3	0x3cb5472c	0.022128664
4	0x3c6eded0	0.01457949
5	0x3d999c3b	0.07500502
6	0xbcc279b4	-0.023739673
7	0xbdb47120	-0.088106394
8	0x3d742bf6	0.059612237
9	0x3cd66974	0.02617333
10	0xbcce01f8	-0.025147423
11	0xbb009a00	-0.001962304
12	0xbc725058	-0.014789663
13	0xbd76ab0e	-0.060221724
14	0x3d6a47e2	0.05719746
15	0x3d9ce43b	0.07660719
16	0xbbddefb0	-0.0067729577
17	0x3d45de82	0.048307903
18	0xbcf01070	-0.029304713
19	0xbd01d4b4	-0.03169699
20	0xbd417a2b	-0.04723565
21	0x3cbad7d0	0.022807986
22	0x3cc27b24	0.023740359
23	0xbd927eb9	-0.07153077
24	0x3c17cdc8	0.009265371
25	0x3d7982fe	0.06091594
26	0x3dadc001	0.084838875
27	0xbdb021f3	-0.08600225
28	0xbca375a8	-0.019953564
29	0xbc29dcd8	-0.010367595
30	0x3d3c53ba	0.045978285
31	0x3d995953	0.0748774
32	0x3d90f12d	0.07077251
33	0x3b164400	0.0022928715
34	0xbd682fb7	-0.05668613
35	0xbb57f440	-0.003295198
36	0x3bacd610	0.0052745417
37	0x3d8e86eb	0.06959327
38	0xbce57bfa	-0.028013218
39	0xbda641ef	-0.081180446
40	0x3d659d46	0.05605819
41	0xbd75acfe	-0.05997943
42	0xbc8c7734	-0.017146684
43	0xbd8e31c3	-0.06943085
44	0x3cc22b7c	0.023702376
45	0xbd5bf8b4	-0.05370398
46	0x3b43e860	0.0029893145
47	0xbc575090	-0.013141766
48	0xbcca1a94	-0.024670877
49	0xbc3ffeb0	-0.011718437
50	0xbd74d3e4	-0.059772387
51	0x3d93e883	0.072220825
52	0xbc9b6114	-0.018967189
53	0xbd72b24a	-0.05925206
54	0x3d456712	0.048194
55	0x3d8bc0fb	0.068239175
56	0x3db02f1d	0.08602736
57	0xbb839c40	-0.004016429
58	0x3d4940be	0.04913401
59	0xbd85b551	-0.06528724
60	0xbd5a3a3b	-0.05327819
61	0x3c5b3478	0.013379209
62	0x3d92cc1d	0.07167838
63	0xbb9984d0	-0.004685022
64	0xbd4e2169	-0.05032483
65	0x3d99ef8d	0.07516394
66	0xbd67877e	-0.0565257
67	0xbc8f091c	-0.017460398
68	0x3cdd591c	0.02702003
69	0xbc8ed374	-0.017434813
70	0x3d360406	0.04443743
71	0x3da300ef	0.079591624
72	0xbc01e1f0	-0.007927403
73	0x3cd3de58	0.025862858
74	0x3d8ca6d3	0.06867757
75	0xbb9bd590	-0.0047556832
76	0xbcdb6eae	-0.026786175
77	0x3d85b3c1	0.06528426
78	0xbd15dfa0	-0.03659022
79	0x3d8d327d	0.068943955
80	0xbd2d48f6	-0.04230591
81	0x3d93818d	0.07202444
82	0x3cd88760	0.02643174
83	0xbdac95be	-0.084269986
84	0xbd23a150	-0.03994876
85	0xbc210718	-0.009828351
86	0x3c8fc760	0.017551124
87	0xbd907d1c	-0.07055113
88	0xbd8b3a20	-0.06798196
89	0x3d98e0b3	0.07464733
90	0x3d7f49e2	0.06232632
91	0x3d7f2e72	0.062300153
92	0xbd676423	-0.056491982
93	0xbd03dda7	-0.032193806
94	0xbd9decf8	-0.07711214
95	0x3d6b4b26	0.057444714
96	0xbd8c0123	-0.06836154
97	0xbd4eb2fa	-0.050463654
98	0x3d6cba52	0.057794876
99	0xbd298db7	-0.041394915
100	0x3cc56738	0.02409707
101	0xbd90ee16	-0.07076661
102	0xbcdd7f22	-0.02703816
103	0xbd8224a5	-0.06354646
104	0x3d1d83aa	0.038455643
105	0x3be774e0	0.007063493
106	0xbc874454	-0.016512074
107	0x3cd87d7c	0.026427023
108	0x3d0ac854	0.033882454
109	0xbd644f91	-0.055739943
110	0x3c2172d8	0.009854041
111	0x3d4ab0ae	0.0494849
112	0x3ac4cfc0	0.0015015528
113	0x3da84bdd	0.08217595
114	0xbd8ca200	-0.068668365
115	0xbd4c9758	-0.04994902
116	0x3c258e08	0.010104664
117	0x3d39d352	0.045367546
118	0xbda3ae2e	-0.079922065
119	0xbd9cb539	-0.07651753
120	0xbccf5430	-0.025308698
121	0xbcb01ba0	-0.021497548
122	0x3d4798d2	0.048729725
123	0xbd53306c	-0.05155985
124	0x3c9b9ed0	0.018996626
125	0xbca3b23c	-0.01998245
126	0x3c491390	0.0122727305
127	0xbdb1b5cc	-0.08677253

weight f4 [128]
0	0x3f800000	1.0
1	0x3f800000	1.0
2	0x3f800000	1.0
3	0x3f800000	1.0
4	0x3f800000	1.0
5	0x3f800000	1.0
6	0x3f800000	1.0
7	0x3f800000	1.0
8	0x3f800000	1.0
9	0x3f800000	1.0
10	0x3f800000	1.0
11	0x3f800000	1.0
12	0x3f800000	1.0
13	0x3f800000	1.0
14	0x3f800000	1.0
15	0x3f800000	1.0
16	0x3f800000	1.0
17	0x3f800000	1.0
18	0x3f800000	1.0
19	0x3f800000	1.0
20	0x3f800000	1.0
21	0x3f800000	1.0
22	0x3f800000	1.0
23	0x3f800000	1.0
24	0x3f800000	1.0
25	0x3f800000	1.0
26	0x3f800000	1.0
27	0x3f800000	1.0
28	0x3f800000	1.0
29	0x3f800000	1.0
30	0x3f800000	1.0
31	0x3f800000	1.0
32	0x3f800000	1.0
33	0x3f800000	1.0
34	0x3f800000	1.0
35	0x3f800000	1.0
36	0x3f800000	1.0
37	0x3f800000	1.0
38	0x3f800000	1.0
39	0x3f800000	1.0
40	0x3f800000	1.0
41	0x3f800000	1.0
42	0x3f800000	1.0
43	0x3f800000	1.0
44	0x3f800000	1.0
45	0x3f800000	1.0
46	0x3f800000	1.0
47	0x3f800000	1.0
48	0x3f800000	1.0
49	0x3f800000	1.0
50	0x3f800000	1.0
51	0x3f800000	1.0
52	0x3f800000	1.0
53	0x3f800000	1.0
54	0x3f800000	1.0
55	0x3f800000	1.0
56	0x3f800000	1.0
57	0x3f800000	1.0
58	0x3f800000	1.0
59	0x3f800000	1.0
60	0x3f800000	1.0
61	0x3f800000	1.0
62	0x3f800000	1.0
63	0x3f800000	1.0
64	0x3f800000	1.0
65	0x3f800000	1.0
66	0x3f800000	1.0
67	0x3f800000	1.0
68	0x3f800000	1.0
69	0x3f800000	1.0
70	0x3f800000	1.0
71	0x3f800000	1.0
72	0x3f800000	1.0
73	0x3f800000	1.0
74	0x3f800000	1.0
75	0x3f800000	1.0
76	0x3f800000	1.0
77	0x3f800000	1.0
78	0x3f800000	1.0
79	0x3f800000	1.0
80	0x3f800000	1.0
81	0x3f800000	1.0
82	0x3f800000	1.0
83	0x3f800000	1.0
84	0x3f800000	1.0
85	0x3f800000	1.0
86	0x3f800000	1.0
87	0x3f800000	1.0
88	0x3f800000	1.0
89	0x3f800000	1.0
90	0x3f800000	1.0
91	0x3f800000	1.0
92	0x3f800000	1.0
93	0x3f800000	1.0
94	0x3f800000	1.0
95	0x3f800000	1.0
96	0x3f800000	1.0
97	0x3f800000	1.0
98	0x3f800000	1.0
99	0x3f800000	1.0
100	0x3f800000	1.0
101	0x3f800000	1.0
102	0x3f800000	1.0
103	0x3f800000	1.0
104	0x3f800000	1.0
105	0x3f800000	1.0
106	0x3f800000	1.0
107	0x3f800000	1.0
108	0x3f800000	1.0
109	0x3f800000	1.0
110	0x3f800000	1.0
111	0x3f800000	1.0
112	0x3f800000	1.0
113	0x3f800000	1.0
114	0x3f800000	1.0
115	0x3f800000	1.0
116	0x3f800000	1.0
117	0x3f800000	1.0
118	0x3f800000	1.0
119	0x3f800000	1.0
120	0x3f800000	1.0
121	0x3f800000	1.0
122	0x3f800000	1.0
123	0x3f800000	1.0
124	0x3f800000	1.0
125	0x3f800000	1.0
126	0x3f800000	1.0
127	0x3f800000	1.0

bias f4 [128]
0	0x00000000	0.0
1	0x00000000	0.0
2	0x00000000	0.0
3	0x00000000	0.0
4	0x00000000	0.0
5	0x00000000	0.0
6	0x00000000	0.0
7	0x00000000	0.0
8	0x00000000	0.0
9	0x00000000	0.0
10	0x00000000	0.0
11	0x00000000	0.0
12	0x00000000	0.0
13	0x00000000	0.0
14	0x00000000	0.0
15	0x00000000	0.0
16	0x00000000	0.0
17	0x00000000	0.0
18	0x00000000	0.0
19	0x00000000	0.0
20	0x00000000	0.0
21	0x00000000	0.0
22	0x00000000	0.0
23	0x00000000	0.0
24	0x00000000	0.0
25	0x00000000	0.0
26	0x00000000	0.0
27	0x00000000	0.0
28	0x00000000	0.0
29	0x00000000	0.0
30	0x00000000	0.0
31	0x00000000	0.0
32	0x00000000	0.0
33	0x00000000	0.0
34	0x00000000	0.0
35	0x00000000	0.0
36	0x00000000	0.0
37	0x00000000	0.0
38	0x00000000	0.0
39	0x00000000	0.0
40	0x00000000	0.0
41	0x00000000	0.0
42	0x00000000	0.0
43	0x00000000	0.0
44	0x00000000	0.0
45	0x00000000	0.0
46	0x00000000	0.0
47	0x00000000	0.0
48	0x00000000	0.0
49	0x00000000	0.0
50	0x00000000	0.0
51	0x00000000	0.0
52	0x00000000	0.0
53	0x00000000	0.0
54	0x00000000	0.0
55	0x00000000	0.0
56	0x00000000	0.0
57	0x00000000	0.0
58	0x00000000	0.0
59	0x00000000	0.0
60	0x00000000	0.0
61	0x00000000	0.0
62	0x00000000	0.0
63	0x00000000	0.0
64	0x00000000	0.0
65	0x00000000	0.0
66	0x00000000	0.0
67	0x00000000	0.0
68	0x00000000	0.0
69	0x00000000	0.0
70	0x00000000	0.0
71	0x00000000	0.0
72	0x00000000	0.0
73	0x00000000	0.0
74	0x00000000	0.0
75	0x00000000	0.0
76	0x00000000	0.0
77	0x00000000	0.0
78	0x00000000	0.0
79	0x00000000	0.0
80	0x00000000	0.0
81	0x00000000	0.0
82	0x00000000	0.0
83	0x00000000	0.0
84	0x00000000	0.0
85	0x00000000	0.0
86	0x00000000	0.0
87	0x00000000	0.0
88	0x00000000	0.0
89	0x00000000	0.0
90	0x00000000	0.0
91	0x00000000	0.0
92	0x00000000	0.0
93	0x00000000	0.0
94	0x00000000	0.0
95	0x00000000	0.0
96	0x00000000	0.0
97	0x00000000	0.0
98	0x00000000	0.0
99	0x00000000	0.0
100	0x00000000	0.0
101	0x00000000	0.0
102	0x00000000	0.0
103	0x00000000	0.0
104	0x00000000	0.0
105	0x00000000	0.0
106	0x00000000	0.0
107	0x00000000	0.0
108	0x00000000	0.0
109	0x00000000	0.0
110	0x00000000	0.0
111	0x00000000	0.0
112	0x00000000	0.0
113	0x00000000	0.0
114	0x00000000	0.0
115	0x00000000	0.0
116	0x00000000	0.0
117	0x00000000	0.0
118	0x00000000	0.0
119	0x00000000	0.0
120	0x00000000	0.0
121	0x00000000	0.0
122	0x00000000	0.0
123	0x00000000	0.0
124	0x00000000	0.0
125	0x00000000	0.0
126	0x00000000	0.0
127	0x00000000	0.0

running_mean f4 [128]
0	0x3d9f16f0	0.07768047
1	0x3cfadbe2	0.030622426
2	0x3f05321d	0.5202959
3	0x3f42aa61	0.7604123
4	0x3d38b519	0.045094583
5	0x3f14707a	0.57984126
6	0x3e4bc37f	0.19898795
7	0x3ca4b05d	0.020103628
8	0x3f1ab651	0.6043444
9	0x3c28529a	0.0102736
10	0x3d8eda38	0.06975216
11	0x3c2bd633	0.010488081
12	0x3c2255d8	0.009908162
13	0x3ec5897c	0.38581455
14	0xbaf754d0	-0.0018869881
15	0x3d7d9e2c	0.061918423
16	0x3f0cb013	0.5495617
17	0x3f1bf3b6	0.6091875
18	0x3cd3b7da	0.025844503
19	0x3daaf4f3	0.083475016
20	0x3f4baa3f	0.7955665
21	0x3cbcc77f	0.023044346
22	0x3e3e00cc	0.18554991
23	0xbb1e0459	-0.0024111478
24	0x3d3a2418	0.045444578
25	0x3c532856	0.012888035
26	0x3ea5f58c	0.324139
27	0x3f6d6975	0.9273904
28	0x3edcdeb0	0.43138647
29	0x3f10cb23	0.5655996
30	0x3d8ae1ba	0.06781335
31	0x3d9fc51f	0.0780127
32	0x3edd2cbe	0.43198198
33	0x3cc75dfd	0.02433681
34	0x3f28fba5	0.6600898
35	0x3bd2a747	0.0064286324
36	0x3d54f8c7	0.051995065
37	0x3ecb28a4	0.39679444
38	0x3f8dd3fe	1.108032
39	0x3d42adf1	0.047529165
40	0x3f834964	1.0256772
41	0x3e0c274a	0.13686863
42	0x3e4bc29e	0.1989846
43	0x3e08319e	0.13300177
44	0x3cfb1c15	0.030653039
45	0x3f68baf7	0.90910286
46	0xbb0a40fa	-0.0021095858
47	0x3e95579b	0.291684
48	0x3f654362	0.89555943
49	0x3f543227	0.82889026
50	0x3f7670a9	0.96265656
51	0x3ebaba02	0.36470038
52	0x3c92d074	0.017921664
53	0x3b6cf5ac	0.0036157174
54	0x3cf67363	0.030084318
55	0x3f271a4a	0.6527449
56	0x3f68d422	0.9094869
57	0x3f62b804	0.88562036
58	0x3ec8c314	0.39211333
59	0x3c04a675	0.008096327
60	0x3efc1306	0.49233264
61	0x3e78f603	0.24312596
62	0x3cb29918	0.021801516
63	0x3f01f314	0.5076153
64	0x3ca4b9b6	0.020108085
65	0xbb3c34f0	-0.0028718077
66	0x3cf83bc0	0.030301929
67	0x3d86c552	0.065806046
68	0x3e4acc73	0.19804554
69	0x3ee9e9c0	0.4568615
70	0x3fc61c08	1.5477304
71	0x3ff8acd9	1.9427749
72	0x3ca435f2	0.020045254
73	0x3c3dba04	0.011579994
74	0x3cd4e181	0.025986435
75	0x3eb09578	0.34489036
76	0x3d924225	0.07141522
77	0x3e4f87f5	0.20266707
78	0x3ed24bb8	0.41073394
79	0x3f0e6eda	0.55637896
80	0x3f076c6f	0.5289983
81	0x3ef33b9e	0.47506422
82	0x3eaaa776	0.33330888
83	0x3e904398	0.2817657
84	0x3f113cec	0.56733584
85	0x3d03cdb6	0.032178603
86	0x3d287f24	0.041136876
87	0x3f6b70f3	0.9196922
88	0x3b2e8c4d	0.0026633919
89	0x3f356d87	0.7087025
90	0x3f2161ca	0.6303984
91	0x3f577da2	0.84176075
92	0x3dc7e0b4	0.097596556
93	0x3e1301b2	0.14356115
94	0x3c4c5172	0.01247059
95	0x3d235735	0.03987809
96	0x3f10b9b7	0.5653338
97	0x3bf86452	0.0075803185
98	0x3c5cf31b	0.013485695
99	0x3d02bb00	0.03191662
100	0x3f1c81b8	0.61135435
101	0x3d2542d4	0.040346935
102	0xbb7d9ae4	-0.0038697058
103	0x3e72e8bc	0.23721594
104	0x3d85c930	0.06532514
105	0x3c977f7e	0.01849341
106	0x3e8a8804	0.27056897
107	0x3d9e0525	0.07715825
108	0x3f8fc6ca	1.1232541
109	0x3f564619	0.8370071
110	0x3e9b5612	0.30339104
111	0x3f49982f	0.7874784
112	0x3ee3fbfb	0.44528183
113	0x3cb5b501	0.022181036
114	0x3f07a7a7	0.5299019
115	0x3ea38e62	0.31944567
116	0x3e9ab12a	0.3021329
117	0x3e87eb13	0.26546535
118	0x3bef0fd8	0.00729559
119	0x3cd90555	0.0264918
120	0x3d98910b	0.0744954
121	0x3c8f55ef	0.017497031
122	0x3edbee08	0.4295504
123	0x3e22e64b	0.15908162
124	0x3defa228	0.11700851
125	0x3e6184dd	0.2202334
126	0x3d432309	0.047640834
127	0x3d5893b3	0.052875232

running_var f4 [128]
0	0x3d47e114	0.048798636
1	0x3c7e28e9	0.015512683
2	0x3d7c49b2	0.06159372
3	0x3db14b7f	0.08656978
4	0x3cbd052b	0.023073753
5	0x3d636ac4	0.05552174
6	0x3d08a589	0.03336099
7	0x3c79a091	0.015236036
8	0x3d1a0d48	0.037610322
9	0x3c0a6c87	0.0084487265
10	0x3c9519ee	0.01820084
11	0x3c19eb6e	0.00939451
12	0x3c43aa18	0.011942409
13	0x3ce04424	0.027376242
14	0x3b8c387e	0.0042791953
15	0x3ce88696	0.028384488
16	0x3cfd7ae7	0.030942393
17	0x3d989b07	0.07451444
18	0x3c147f5d	0.009063569
19	0x3d9f4a42	0.077778354
20	0x3d57a357	0.052646007
21	0x3c5c2e92	0.013438838
22	0x3da3dd2f	0.08001172
23	0x3b8cf2c8	0.0043014027
24	0x3cc2f911	0.023800405
25	0x3c22d74b	0.009939025
26	0x3d1d813a	0.03845332
27	0x3d56e0eb	0.052460592
28	0x3cf37b93	0.02972201
29	0x3d5b06ea	0.05347339
30	0x3c7718c7	0.015081591
31	0x3d1dc9da	0.03852258
32	0x3d4043f7	0.046939816
33	0x3c5e97f8	0.013586037
34	0x3d35a6dc	0.044348583
35	0x3be2c8e6	0.0069209216
36	0x3c9f8d92	0.019476686
37	0x3d299b44	0.04140784
38	0x3d85586d	0.065110065
39	0x3cc8e468	0.024522975
40	0x3d895fcd	0.06707726
41	0x3d8fc7f5	0.07020561
42	0x3d1a3455	0.037647564
43	0x3cc4b021	0.024009766
44	0x3c7c3fe6	0.015396094
45	0x3d80237f	0.0625677
46	0x3b750957	0.00373896
47	0x3db5ed39	0.08883137
48	0x3d9fa478	0.07795042
49	0x3df2ce30	0.118557334
50	0x3dd3ece2	0.10347916
51	0x3cf23e88	0.029570833
52	0x3c4809b5	0.012209346
53	0x3ba889d4	0.0051433835
54	0x3c6d723e	0.0144925695
55	0x3d54d7d2	0.051963635
56	0x3df4e0f5	0.1195697
57	0x3d869264	0.065708905
58	0x3de33efe	0.11095999
59	0x3bd18caf	0.0063949446
60	0x3d812962	0.06306721
61	0x3d29c32a	0.04144589
62	0x3c208ef8	0.009799711
63	0x3d21b7ae	0.03948181
64	0x3c688a03	0.014193061
65	0x3b3d2445	0.002886073
66	0x3ccad5c7	0.02476014
67	0x3d117cc0	0.03551936
68	0x3ce1e2e0	0.027574003
69	0x3d14bc47	0.036312368
70	0x3df0c273	0.11755838
71	0x3d9fc7e7	0.078018
72	0x3c6d560e	0.014485849
73	0x3c5540c6	0.0130159315
74	0x3c4563d2	0.012047725
75	0x3d736621	0.05942357
76	0x3d0bb398	0.03410682
77	0x3cacddda	0.02110188
78	0x3d0b080d	0.033943225
79	0x3d9ace39	0.07558865
80	0x3d1f24f8	0.038853616
81	0x3d68f4ea	0.056874193
82	0x3d02da62	0.031946547
83	0x3d7f0630	0.06226176
84	0x3d443d54	0.04791005
85	0x3c8fa460	0.017534435
86	0x3c9ae07d	0.018905872
87	0x3d8a9e37	0.06768458
88	0x3baadca7	0.005214292
89	0x3d9b983c	0.07597396
90	0x3d585eba	0.052824713
91	0x3db44fd7	0.08804291
92	0x3cba43c2	0.022737388
93	0x3ca85c0f	0.02055171
94	0x3c25e8e9	0.010126331
95	0x3ca0432b	0.019563278
96	0x3d1f6fe8	0.03892508
97	0x3ba7fa55	0.0051262775
98	0x3c463fff	0.012100219
99	0x3c9e0795	0.019290725
100	0x3d37715f	0.044785853
101	0x3c3f659a	0.011681939
102	0x3b5e0425	0.0033876982
103	0x3d0dbed8	0.03460583
104	0x3d06cd1a	0.032910444
105	0x3c65c535	0.014024069
106	0x3d63bb89	0.05559877
107	0x3d262c74	0.040569738
108	0x3d6366b5	0.05551787
109	0x3dba40e8	0.09094411
110	0x3d074f4d	0.03303461
111	0x3d74faac	0.05980937
112	0x3d5ff5bf	0.05467772
113	0x3c42cd63	0.011889788
114	0x3cf5cff9	0.030006396
115	0x3cc63273	0.024193978
116	0x3d483b65	0.048884768
117	0x3d922fff	0.07138061
118	0x3bbb79fd	0.0057213292
119	0x3c88488f	0.016636161
120	0x3d50d978	0.050988644
121	0x3c2811af	0.010258122
122	0x3d4828ea	0.048867144
123	0x3cf71309	0.030160444
124	0x3d0e3791	0.03472096
125	0x3dbafdab	0.091304146
126	0x3cbf7323	0.023370331
127	0x3ceb71e5	0.028740833

weight f4 [1, 128]
0	0x3aa661c0	0.0012693927
1	0xbd89a8c7	-0.06721645
2	0x3beae790	0.0071687177
3	0xbd088fbf	-0.033340212
4	0x3c9d3b04	0.01919318
5	0xbd9669ee	-0.07344423
6	0xbd8dc90c	-0.06923112
7	0x3d13e14e	0.03610354
8	0x3d974f17	0.07388132
9	0xbdb1bb97	-0.08678358
10	0x3b05aa20	0.0020395592
11	0x3b3b3200	0.0028563738
12	0xbda9f605	-0.082988776
13	0x3cb1c240	0.02169907
14	0x3d80f2ab	0.06296285
15	0x3d56c78e	0.052436404
16	0xbcdcb81c	-0.026943259
17	0x3cb6a76c	0.02229663
18	0xbba89030	-0.0051441416
19	0xbae4db40	-0.0017460361
20	0xbd424dbf	-0.047437426
21	0x3d78f956	0.06078466
22	0xbca026e8	-0.019549802
23	0x3d8e5175	0.069491304
24	0xbd0bd53a	-0.034138896
25	0xbd7952dc	-0.060870036
26	0xbda374d4	-0.079812676
27	0x3cae08f8	0.021244511
28	0xbd890909	-0.066911764
29	0xbb51f800	-0.0032038689
30	0xbc7c8260	-0.015411943
31	0x3daa5265	0.08316497
32	0x3bfb7c80	0.0076747537
33	0x3d368de6	0.04456892
34	0xbc8d8148	-0.01727356
35	0x3d58cbae	0.05292862
36	0xbc967fbc	-0.018371455
37	0x3d99c3cb	0.07508048
38	0xbb1b9720	-0.00237412
39	0xbd969021	-0.07351709
40	0x3da63f0d	0.08117495
41	0x3c04ea48	0.008112498
42	0xbd6db65c	-0.05803524
43	0xbd162023	-0.03665174
44	0xbcc08f78	-0.023505911
45	0x3d92a447	0.0716024
46	0x3b877cc0	0.0041347444
47	0xbb59aa80	-0.0033213198
48	0xbd7a9838	-0.061180323
49	0x3cd460e8	0.025925115
50	0xbcd1bbb8	-0.025602207
51	0xbb3f49c0	-0.0029188246
52	0xbdb3e78e	-0.087844
53	0x3c9dabf0	0.019247025
54	0xbc3b02a0	-0.0114142
55	0xbd2d4302	-0.04230023
56	0xbd55dde5	-0.05221357
57	0x3d183a92	0.037165232
58	0xbd5f645d	-0.054539073
59	0x3c508670	0.012727365
60	0xbd916e26	-0.07101087
61	0x3d7f027a	0.06225822
62	0x3d9f5d87	0.07781511
63	0x3db3d113	0.08780112
64	0x3d5b6a6a	0.05356828
65	0xbd45f156	-0.04832586
66	0xbd38b3be	-0.04509329
67	0xbc7014d8	-0.014653407
68	0x3d34f84e	0.044182114
69	0xbccd45a8	-0.025057629
70	0x3d9aaafb	0.07552143
71	0x3d89d93f	0.067308895
72	0xbdb421be	-0.08795498
73	0x3d0af0e0	0.033921123
74	0x3d90d623	0.07072093
75	0xbb0953c0	-0.002095446
76	0x3d9dc671	0.07703865
77	0xbda6d8d8	-0.081468284
78	0x3cbcbd5c	0.023039512
79	0x3d70c042	0.0587771
80	0xbbe2c720	-0.00692071
81	0x3cfd9c24	0.030958243
82	0x3db336bb	0.087506734
83	0xbd2a397d	-0.04155873
84	0x3cc4cf7c	0.024024718
85	0x3bac84f0	0.005264871
86	0x3d9cec1f	0.07662224
87	0x3c79a2f8	0.015236609
88	0x3a8177c0	0.0009877607
89	0x3da0eff1	0.07858265
90	0x3b814c60	0.003945872
91	0x3d7d6ad2	0.06186945
92	0x3d6e2cda	0.058148243
93	0xbd9bd7f7	-0.076095514
94	0x3d94a65b	0.07258292
95	0xbd4eb335	-0.050463874
96	0x3d2602d6	0.04053005
97	0xbd7bc0e2	-0.061463244
98	0xb9c8e200	-0.00038315356
99	0xbd059429	-0.032612
100	0xbd13c8d2	-0.03608019
101	0x3d7f92d2	0.062395878
102	0xbd65f051	-0.056137387
103	0xbd6397f9	-0.055564854
104	0x3d70396a	0.058648504
105	0xbd2e7705	-0.042593975
106	0xbd31f1c6	-0.043443464
107	0x3d74c30e	0.05975633
108	0xbc6a3748	-0.014295407
109	0x3d650a16	0.05591782
110	0xbcd5d8c8	-0.026104346
111	0xbdb0ff89	-0.086424895
112	0x3da69d5d	0.081354834
113	0xbd7112ae	-0.058855705
114	0xbceadcce	-0.028669741
115	0x3d0ebd0c	0.034848258
116	0x3d8278eb	0.063707195
117	0xbd3786af	-0.04480618
118	0x3c90eb04	0.01769019
119	0xbdab13ec	-0.08353409
120	0x3d99028b	0.07471188
121	0xbb4e7fa0	-0.0031509176
122	0x3a9b9fc0	0.0011873171
123	0x3cdc22a4	0.026871987
124	0x3d282bc6	0.04105737
125	0x3c322e40	0.010875285
126	0xbdac03cc	-0.08399162
127	0x3d4e74aa	0.05040423

bias f4 [2]
0	0x3e7d1896	0.2471641
1	0xbda9b882	-0.08287145

weight_orig f4 [2, 2, 7]
0	0xbe62637e	-0.22108266
1	0x3c8727c0	0.016498446
2	0xbd7e1008	-0.062027007
3	0x3cf0cd10	0.029394656
4	0xbe66e975	-0.22549994
5	0x3d756600	0.059911728
6	0x3da12a20	0.07869363
7	0xbe81a7d1	-0.25323346
8	0xbe6c698a	-0.23087135
9	0x3e51e7d0	0.20498586
10	0x3d403800	0.046928406
11	0x3ce19480	0.02753663
12	0x3e3d95ac	0.18514127
13	0xbe2eb38c	-0.17060679
14	0x3dbc548c	0.091958135
15	0x3db04cb0	0.08608377
16	0xbdc00014	-0.09375015
17	0xbd73e824	-0.05954756
18	0xbe2a7e2e	-0.16649696
19	0x3db286e8	0.087171376
20	0xbd8b9070	-0.06814659
21	0xbe23c4f0	-0.15993094
22	0x3ce626e0	0.028094709
23	0x3dd4407c	0.10363862
24	0x3e450f18	0.19244039
25	0xbde943da	-0.11389895
26	0x3e73f396	0.2382339
27	0xbd624354	-0.05523999

weight_u f4 [2]
0	0xbf7f66b2	-0.99766076
1	0x3d8bffe2	0.06835915

weight_v f4 [14]
0	0x3d4ff789	0.050773177
1	0xbcf89eaa	-0.030349094
2	0xbb6eb247	-0.003642218
3	0x3f0fb312	0.56132615
4	0x3d9e16ff	0.0771923
5	0x3eccbf29	0.39989594
6	0x3e80bf01	0.25145724
7	0xbed394ca	-0.41324455
8	0xbdeee14b	-0.11664065
9	0x3ee474ac	0.44620264
10	0xbe351d34	-0.17686921
11	0xbb2336c3	-0.0024904467
12	0xbe388f1f	-0.18023346
13	0x3d9184e4	0.07105425

weight f4 [2, 2, 7]
0	0xbe62637e	-0.22108266
1	0x3c8727c0	0.016498446
2	0xbd7e1008	-0.062027007
3	0x3cf0cd10	0.029394656
4	0xbe66e975	-0.22549994
5	0x3d756600	0.059911728
6	0x3da12a20	0.07869363
7	0xbe81a7d1	-0.25323346
8	0xbe6c698a	-0.23087135
9	0x3e51e7d0	0.20498586
10	0x3d403800	0.046928406
11	0x3ce19480	0.02753663
12	0x3e3d95ac	0.18514127
13	0xbe2eb38c	-0.17060679
14	0x3dbc548c	0.091958135
15	0x3db04cb0	0.08608377
16	0xbdc00014	-0.09375015
17	0xbd73e824	-0.05954756
18	0xbe2a7e2e	-0.16649696
19	0x3db286e8	0.087171376
20	0xbd8b9070	-0.06814659
21	0xbe23c4f0	-0.15993094
22	0x3ce626e0	0.028094709
23	0x3dd4407c	0.10363862
24	0x3e450f18	0.19244039
25	0xbde943da	-0.11389895
26	0x3e73f396	0.2382339
27	0xbd624354	-0.05523999
