models/ecg/64/generator.pt (torch, 235277 bytes, 30 tensors)

bias f4 [2]
0	0x3e560902	0.20901874
1	0xbde95860	-0.11393809

weight_orig f4 [2, 2, 7]
0	0xbda340ee	-0.07971369
1	0xbdd7c6e8	-0.10535985
2	0x3e28c2f8	0.16480625
3	0x3e35dff6	0.17761216
4	0x3e52ca56	0.20584998
5	0x3de6bfbc	0.11267039
6	0x3e780e9a	0.2422432
7	0x3e339b04	0.17539603
8	0x3e47e40e	0.1952059
9	0x3e0824d2	0.13295296
10	0x3c8f37d0	0.017482668
11	0xbd2c5b98	-0.042079538
12	0x3be02280	0.00684005
13	0x3e4b641a	0.19862404
14	0x3b782f80	0.003787011
15	0x3e735f16	0.23766741
16	0x3dbe6bd0	0.09297907
17	0xbd90d208	-0.0707131
18	0xbe11da5c	-0.14243454
19	0xbdab7372	-0.08371629
20	0x3da004d4	0.07813421
21	0x3cf7aa60	0.030232608
22	0x3d9184dc	0.07105419
23	0xbe23f3fc	-0.16011041
24	0xbd6e1880	-0.058128834
25	0x3e656584	0.22402006
26	0xbd76afe4	-0.060226336
27	0x3e58a36e	0.21156093

weight_u f4 [2]
0	0x3d41061d	0.04712497
1	0x3f7fb731	0.998889

weight_v f4 [14]
0	0xbe6817a6	-0.22665271
1	0xbef1e19c	-0.4724244
2	0xbc91c3ed	-0.01779362
3	0x3ddfbcf5	0.109247126
4	0x3e1848ca	0.14871517
5	0xbd30f8c5	-0.043205995
6	0xbed0a751	-0.40752652
7	0x3ecb530f	0.39711806
8	0x3e97f16b	0.29676375
9	0x3ec40833	0.38287506
10	0x3e44af90	0.19207597
11	0xbd6b8f7a	-0.057509877
12	0xbe518007	-0.20458995
13	0x3e61ff69	0.22070087

weight f4 [2, 2, 7]
0	0xbda340ee	-0.07971369
1	0xbdd7c6e8	-0.10535985
2	0x3e28c2f8	0.16480625
3	0x3e35dff6	0.17761216
4	0x3e52ca56	0.20584998
5	0x3de6bfbc	0.11267039
6	0x3e780e9a	0.2422432
7	0x3e339b04	0.17539603
8	0x3e47e40e	0.1952059
9	0x3e0824d2	0.13295296
10	0x3c8f37d0	0.017482668
11	0xbd2c5b98	-0.042079538
12	0x3be02280	0.00684005
13	0x3e4b641a	0.19862404
14	0x3b782f80	0.003787011
15	0x3e735f16	0.23766741
16	0x3dbe6bd0	0.09297907
17	0xbd90d208	-0.0707131
18	0xbe11da5c	-0.14243454
19	0xbdab7372	-0.08371629
20	0x3da004d4	0.07813421
21	0x3cf7aa60	0.030232608
22	0x3d9184dc	0.07105419
23	0xbe23f3fc	-0.16011041
24	0xbd6e1880	-0.058128834
25	0x3e656584	0.22402006
26	0xbd76afe4	-0.060226336
27	0x3e58a36e	0.21156093

bias f4 [2]
0	0x3cf01fc0	0.029312015
1	0x3bd62340	0.006534964

weight_orig f4 [2, 2, 7]
0	0xbe20b346	-0.15693387
1	0x3e857837	0.2606828
2	0xbe37b314	-0.17939407
3	0x3e3bd596	0.18343195
4	0x3e8031d7	0.25038025
5	0x3e830975	0.25593153
6	0xbddaa9ea	-0.1067694
7	0xbe2d674e	-0.16933939
8	0x3e039916	0.12851366
9	0x3e88049f	0.26566026
10	0x3e093cf2	0.13402155
11	0x3e7b891e	0.24564025
12	0x3d7c2f18	0.06156835
13	0xbe47a40c	-0.19496173
14	0xbd998aba	-0.07497163
15	0xbdb2acec	-0.087243885
16	0x3e79827a	0.24366179
17	0xbe0472b7	-0.12934385
18	0x3d8d8bac	0.06911406
19	0xbccfcdc0	-0.025366664
20	0xbd857698	-0.065167606
21	0x3dfb9a3c	0.12285277
22	0xbe216a72	-0.15763262
23	0x3d6e4360	0.058169723
24	0xbe2c361a	-0.16817513
25	0xbe7107bb	-0.23538105
26	0x3e76b92a	0.24094072
27	0xbd3a33f4	-0.045459703

weight_u f4 [2]
0	0x3f199c11	0.60003763
1	0xbf4ccaf3	-0.79997176

weight_v f4 [14]
0	0xbe53513e	-0.2063646
1	0x3e44ee31	0.19231488
2	0x3d6f2881	0.058388237
3	0x3d548985	0.05188896
4	0x3e214563	0.15749125
5	0xbd08ba37	-0.033380713
6	0xbdcb0686	-0.099133536
7	0xbeaef54c	-0.34171522
8	0xbe96fc96	-0.29489583
9	0x3ef100d3	0.4707094
10	0xbe40e06c	-0.1883561
11	0x3ef55570	0.47916746
12	0xbec1a40e	-0.37820476
13	0xbe599dec	-0.21251649

weight f4 [2, 2, 7]
0	0xbe20b346	-0.15693387
1	0x3e857837	0.2606828
2	0xbe37b314	-0.17939407
3	0x3e3bd596	0.18343195
4	0x3e8031d7	0.25038025
5	0x3e830975	0.25593153
6	0xbddaa9ea	-0.1067694
7	0xbe2d674e	-0.16933939
8	0x3e039916	0.12851366
9	0x3e88049f	0.26566026
10	0x3e093cf2	0.13402155
11	0x3e7b891e	0.24564025
12	0x3d7c2f18	0.06156835
13	0xbe47a40c	-0.19496173
14	0xbd998aba	-0.07497163
15	0xbdb2acec	-0.087243885
16	0x3e79827a	0.24366179
17	0xbe0472b7	-0.12934385
18	0x3d8d8bac	0.06911406
19	0xbccfcdc0	-0.025366664
20	0xbd857698	-0.065167606
21	0x3dfb9a3c	0.12285277
22	0xbe216a72	-0.15763262
23	0x3d6e4360	0.058169723
24	0xbe2c361a	-0.16817513
25	0xbe7107bb	-0.23538105
26	0x3e76b92a	0.24094072
27	0xbd3a33f4	-0.045459703

weight_ih_l0 f4 [8, 2]
0	0xbe4eeeec	-0.20208329
1	0x3e98abfe	0.2981872
2	0xbe9e22bf	-0.30885884
3	0xbf03605a	-0.51318896
4	0xbe074634	-0.13210374
5	0xbee7f926	-0.45307273
6	0x3f2fd2dd	0.68681127
7	0xbb20ce00	-0.0024536848
8	0x3f0b630f	0.54448026
9	0x3d830610	0.06397641
10	0xbe98df1f	-0.29857728
11	0xbeeca6b3	-0.4622093
12	0x3eec5aea	0.46163112
13	0xbf347912	-0.7049724
14	0x3f1c930d	0.6116188
15	0x3e887d18	0.2665794

weight_hh_l0 f4 [8, 2]
0	0x3e69bd30	0.22826076
1	0x3ab86c00	0.0014070272
2	0xbf035fd8	-0.5131812
3	0x3dcee528	0.10102302
4	0x3f1b9c1f	0.60785097
5	0xbeac44ea	-0.33646327
6	0xbf2915d8	-0.66048956
7	0x3f18b83f	0.5965614
8	0x3d325520	0.043538213
9	0xbea80b26	-0.32821006
10	0x3e362bb4	0.17790109
11	0x3f1d662f	0.61484045
12	0x3ede10b2	0.43372113
13	0xbc6eff80	-0.014587283
14	0x3efb8e7e	0.4913215
15	0xbdd7de98	-0.10540503

bias_ih_l0 f4 [8]
0	0xbef7a3b4	-0.48367083
1	0xbf1e35fd	-0.6180113
2	0x3f1d5f5b	0.61473626
3	0x3e407ccc	0.18797606
4	0x3f28b58b	0.6590201
5	0x3e80e8b2	0.25177532
6	0x3e841d5a	0.25803643
7	0xbd8b2630	-0.06794393

bias_hh_l0 f4 [8]
0	0x3ecd0542	0.40043074
1	0xbd7858c0	-0.060631514
2	0x3e8150d6	0.25256985
3	0xbe645e70	-0.2230165
4	0x3de69788	0.11259371
5	0x3f28d587	0.65950817
6	0xbe9724d4	-0.29520285
7	0x3f0e3965	0.5555633

a f4 [128, 1]
0	0xbe6a5d3b	-0.22887127
1	0x3e803f80	0.25048447
2	0xbdf8bc51	-0.121452935
3	0x3e7f7ec8	0.24950707
4	0xbe865db3	-0.26243362
5	0x3e598b54	0.21244556
6	0x3bff0b3f	0.007783323
7	0x3cab5e70	0.020919055
8	0xbce718b4	-0.028210022
9	0xbd08d716	-0.033408247
10	0xbe2fd3f8	-0.17170703
11	0x3e7b0163	0.24512248
12	0xbe063758	-0.1310705
13	0x3dae3a30	0.08507192
14	0xbd20c3ea	-0.03924934
15	0xbcb9ba71	-0.02267191
16	0xbd7a7420	-0.0611459
17	0xbea388ff	-0.31940457
18	0xbd88b346	-0.06674819
19	0xbdd65a4c	-0.104664415
20	0xbd4ccef8	-0.05000207
21	0xbe7eb0f7	-0.24872194
22	0x3cb1ac97	0.021688743
23	0xbe9895a1	-0.29801658
24	0x3c94dc38	0.018171415
25	0xbc8a0070	-0.016845912
26	0x3d970f5c	0.073759764
27	0x3e52caac	0.20585126
28	0xbdb7d8d6	-0.08976905
29	0x3d2e77ee	0.042594843
30	0xbe42f5a1	-0.19039012
31	0x3e157d92	0.14598683
32	0xbdbc8d28	-0.09206611
33	0xbe7df4d5	-0.24800427
34	0x3e51b2dc	0.20478386
35	0x3c8bb430	0.017053694
36	0xbcd49c15	-0.025953332
37	0xbe80335c	-0.25039184
38	0x3d7e46a8	0.0620791
39	0xbd851cb0	-0.06499612
40	0xbe5e59b1	-0.21713902
41	0xbe208732	-0.15676573
42	0x3e96dd8a	0.29465896
43	0xbe0c3017	-0.1369022
44	0xbe2453db	-0.16047613
45	0xbcb0f381	-0.021600487
46	0xbe62b66e	-0.22139904
47	0xbe0ee672	-0.13955095
48	0x3cac6add	0.02104705
49	0xbe2d68da	-0.16934529
50	0xbddcb061	-0.10775829
51	0x3e2af078	0.16693294
52	0xbc9fca50	-0.01950565
53	0xbdf190aa	-0.117951706
54	0x3de962ac	0.11395773
55	0x3e91ba5f	0.28462502
56	0x3e8e1644	0.27751362
57	0xbd1d5ce8	-0.03841868
58	0x3e7666fc	0.24062723
59	0x3e37430e	0.17896673
60	0xbdbd4a84	-0.09242728
61	0x3e2999fc	0.16562647
62	0x3e1a9168	0.1509453
63	0xbe602f5d	-0.21893068
64	0x3d9cc24f	0.07654249
65	0x3e25099e	0.1611695
66	0xbe09a3b6	-0.13441357
67	0xbe798a46	-0.24369153
68	0x3d074286	0.033022426
69	0x3d952a0a	0.07283409
70	0xbcb1b9f0	-0.021695107
71	0xb9d6cdc6	-0.00040970574
72	0x3c1eb340	0.009686291
73	0x3e58edae	0.21184418
74	0x3e3d934a	0.18513218
75	0xbe70ef81	-0.23528863
76	0x3e44bde2	0.1921306
77	0xbcb39041	-0.021919372
78	0x3c8801d0	0.016602427
79	0x3dbbf7d6	0.0917813
80	0xbe963823	-0.29339704
81	0x3e02df3d	0.12780471
82	0xbd95f730	-0.07322538
83	0xbd1f76e0	-0.038931727
84	0x3d8bc19e	0.06824039
85	0x3ce44c00	0.02786827
86	0x3e5f0388	0.21778691
87	0x3d8a433b	0.067511044
88	0x3dccbb38	0.09996647
89	0x3e398397	0.18116604
90	0xbdea41f1	-0.114383586
91	0x3ca2958e	0.019846704
92	0x3e604b65	0.2190376
93	0x3d9a470c	0.07533082
94	0xbc805b7e	-0.015668627
95	0xbe09f10e	-0.13470861
96	0xbd9977dc	-0.074935645
97	0xbc05c405	-0.0081644105
98	0xbd022384	-0.03177215
99	0x3ca2f0cd	0.019890213
100	0x3e0ea3c7	0.13929664
101	0x3e84fbeb	0.25973448
102	0x3d896047	0.067078166
103	0x3cadb4ae	0.021204319
104	0x3dea7910	0.11448872
105	0xbe031a97	-0.12803112
106	0x3d94ff2f	0.07275235
107	0x3d79fa88	0.06102994
108	0xbd733bec	-0.059383318
109	0x3d687d6d	0.05676024
110	0x3e0d596f	0.13803647
111	0x3e0cfea0	0.13769007
112	0x3e72f174	0.2372492
113	0x3dec699a	0.115435794
114	0xbdfbbf38	-0.122923315
115	0xbe8fce6b	-0.28087172
116	0xbdbc121f	-0.09183144
117	0x3e85b478	0.2611425
118	0xbdc1c570	-0.09461486
119	0xbe82b383	-0.25527582
120	0xbada4000	-0.0016651154
121	0x3e30344e	0.17207453
122	0xbda10aa0	-0.07863355
123	0x3e8f72a0	0.2801714
124	0xbe95fe05	-0.29295364
125	0x3dbe994c	0.09306583
126	0x3e179a81	0.14805032
127	0xbd1496c0	-0.03627658

bias f4 [2, 2]
0	0x3dfe46ca	0.12415846
1	0xbdfe46cc	-0.12415847
2	0x3e1d6033	0.15368728
3	0xbe1d6037	-0.15368734

weight f4 [128, 128]
0	0x3d850bc7	0.06496387
1	0xbc9d05de	-0.019167837
2	0x3d99e2c3	0.075139545
3	0xbc9b37f6	-0.018947583
4	0x3cd2a81f	0.025714932
5	0x3b9d6c03	0.0048041358
6	0xbc019778	-0.007909648
7	0xbcf6a67e	-0.030108687
8	0xbd3170fa	-0.043320633
9	0xbce2227c	-0.027604334
10	0xbd80c9ff	-0.06288528
11	0xbcbe69cc	-0.023243807
12	0xbdc0f9fe	-0.09422682
13	0xbd8f2453	-0.0698935
14	0x3d092859	0.033485744
15	0x3d72d582	0.05928565
16	0x3d2537a9	0.040336285
17	0xbd8785cc	-0.066173166
18	0x3d71749b	0.058949094
19	0x3d81936a	0.06326945
20	0x3d5a9ca0	0.053372025
21	0xbcd91ebb	-0.026503911
22	0xbdc68223	-0.0969279
23	0xbca965d2	-0.020678435
24	0xbd19b16d	-0.037522722
25	0xbd567152	-0.052354164
26	0xbd587d09	-0.052853618
27	0xba5b4af3	-0.00083653553
28	0xbd35822d	-0.0443136
29	0xbd786ef4	-0.06065269
30	0x3d578252	0.052614518
31	0xbda4e922	-0.08052279
32	0xbd05bcce	-0.03265076
33	0xbbe2d668	-0.006922532
34	0x3d8bf7e2	0.06834389
35	0xbdb88e37	-0.090115
36	0x3d1795a1	0.03700793
37	0xbc22012b	-0.009887974
38	0x3d9a9669	0.0754822
39	0x3cd93b89	0.026517646
40	0x3d8b4ef0	0.068021655
41	0x3cfd1a8b	0.030896446
42	0x3d7ac94a	0.06122712
43	0xbc0308c7	-0.007997698
44	0xbd93fc42	-0.07225849
45	0x3d8b3d45	0.067987956
46	0xbc4eb758	-0.012616955
47	0x3c0aab08	0.008463629
48	0xbc84835e	-0.016175922
49	0x3d901ea6	0.07037096
50	0xbcd5612e	-0.026047315
51	0xbd4bb3e8	-0.04973212
52	0xbbfbf401	-0.0076889996
53	0xbd80a899	-0.062821575
54	0xbd55593e	-0.05208706
55	0xbd993f47	-0.07482772
56	0x3d8060e0	0.062684774
57	0x3d99bd55	0.07506815
58	0x3d232c9d	0.03983747
59	0x3d8ba507	0.06818586
60	0xbdb3b12d	-0.08774028
61	0x3ccd7356	0.02507941
62	0x3c0f77e6	0.008756613
63	0xbd809a39	-0.06279416
64	0x3cf505bc	0.02990996
65	0x3d0e3676	0.034719907
66	0x3d763e33	0.06011791
67	0xbc9528fe	-0.018208023
68	0xbc9cb7ca	-0.019130606
69	0x3d859ce7	0.06524067
70	0xbd7a5d68	-0.061124235
71	0xbccc7a16	-0.024960559
72	0xbd468826	-0.048469685
73	0xbd66100e	-0.056167655
74	0x3d595732	0.05306167
75	0xbcbdf947	-0.023190154
76	0xbda25e5f	-0.07928156
77	0xbd864291	-0.06555665
78	0xbd688bcd	-0.05677395
79	0xbd9b9b58	-0.07597989
80	0xbd124fac	-0.035720512
81	0x3d3d0b28	0.046153218
82	0x3c9b3948	0.018948212
83	0xbd26190c	-0.04055123
84	0xbd6a6fee	-0.05723565
85	0xbdc4597c	-0.0958738
86	0xbd0059c9	-0.031335626
87	0xbbf807f3	-0.007569307
88	0xbd348f80	-0.044082165
89	0xbd2f663e	-0.042822115
90	0x3c58c595	0.013230701
91	0x3c336df9	0.0109515125
92	0xbce85a00	-0.028363228
93	0x3c00903b	0.007846887
94	0xbd2f434f	-0.0427888
95	0xbd7b81d6	-0.061403118
96	0xbd62b7c5	-0.055351038
97	0x3d996c33	0.074913405
98	0xbdcd9d0a	-0.100397184
99	0xbd1375dc	-0.03600107
100	0xbdbd8375	-0.09253589
101	0xbca05a7f	-0.019574402
102	0xbd2524a2	-0.04031814
103	0xbc3b9926	-0.011450088
104	0x3d0224b9	0.031773303
105	0xbdc385d7	-0.09547012
106	0x3c5b3e1b	0.013381506
107	0x3d64abd2	0.055827923
108	0xbdbb5afa	-0.09148212
109	0x3d1e5b24	0.038661137
110	0x3d3f7712	0.046744414
111	0xbcb70f6d	-0.022346223
112	0x3d6ee79f	0.05832636
113	0xbdc2f16d	-0.095187046
114	0xbdba9892	-0.09111132
115	0xbdc9876a	-0.09840281
116	0x3d784102	0.06060887
117	0xbda75192	-0.08169855
118	0xbd85128a	-0.06497677
119	0xbb97ddc4	-0.004634591
120	0x3d159d54	0.036526993
121	0x3d8cc600	0.06873703
122	0xbc97e46a	-0.018541533
123	0xbd687449	-0.056751523
124	0xbdc04197	-0.0938751
125	0x3d6ea33e	0.05826115
126	0x3d2b44b1	0.041813556
127	0xbd968c8f	-0.07351028
128	0x3c4dc3aa	0.012558857
129	0x3d7cc442	0.061710604
130	0x39ae3cb3	0.0003323309
131	0xbcafd315	-0.021462956
132	0x3cd1af06	0.025596153
133	0x3c46638b	0.012108694
134	0x3d4f552f	0.050618347
135	0xbdb4668c	-0.08808622
136	0x3d72de6f	0.05929416
137	0x3d827564	0.06370047
138	0xbda5aac3	-0.08089211
139	0xbd30c2f5	-0.043154676
140	0x3cd7bed8	0.026336119
141	0xb80b4371	-3.3202992e-05
142	0x3cfc336c	0.030786239
143	0xbda645b5	-0.08118764
144	0xbb4608f9	-0.003021775
145	0x3d8c1914	0.06840721
146	0xbbcc37ac	-0.0062322225
147	0xbda18e2e	-0.07888447
148	0xbc4034c4	-0.01173133
149	0xbdaf0528	-0.08545905
150	0xbda484e3	-0.08033159
151	0xbc093365	-0.00837407
152	0x3d4857ce	0.048911862
153	0x3d2e3a0d	0.04253583
154	0x3d028094	0.031860903
155	0x3d336e2b	0.043806236
156	0xbda6d9eb	-0.08147033
157	0xbda0afb8	-0.07846016
158	0x3c21e93d	0.0098822685
159	0xbd8f85c4	-0.07007936
160	0x3be9acd8	0.0071312003
161	0xbb8b1566	-0.0042444943
162	0x3d4e0acc	0.050303265
163	0x3c8140b3	0.015777921
164	0xbcfb3ab3	-0.030667638
165	0xbd4c7ebf	-0.049925562
166	0xbdc28726	-0.09498434
167	0xbcc280c0	-0.023743033
168	0xbd436432	-0.047702976
169	0x3d131354	0.035907105
170	0xb9566ca3	-0.000204491
171	0x3c42819f	0.011871724
172	0xbdaf4518	-0.085581005
173	0x3d586faa	0.052840866
174	0xbd8fb756	-0.070173904
175	0x3da02a47	0.07820564
176	0xbcf5f66a	-0.030024726
177	0x3d28e69b	0.041235548
178	0xbb19478a	-0.0023388588
179	0x3c8389cf	0.016056923
180	0x3d07c137	0.03314325
181	0xbdc5c84d	-0.09657345
182	0xbd660a29	-0.056162033
183	0xbdc3a879	-0.09553618
184	0xbd578b51	-0.052623097
185	0xbd1ef195	-0.03880461
186	0x3d53c933	0.05170555
187	0xbdafb04d	-0.085785486
188	0xbd7bc037	-0.061462607
189	0x3c84838c	0.016176008
190	0x3cd7327d	0.026269192
191	0xbd66c2f3	-0.05633826
192	0xbd05b1b4	-0.032640174
193	0xbd6414db	-0.05568395
194	0xbd00992d	-0.03139608
195	0xbc8e4515	-0.017366925
196	0xbc591797	-0.013250253
197	0xbbadf652	-0.0053089047
198	0xbdadf1a7	-0.08493357
199	0xbd8922b9	-0.06696076
200	0xbdb59111	-0.0886556
201	0xbd8badb9	-0.06820244
202	0xbd17b375	-0.037036378
203	0x3d1a4245	0.037660856
204	0xbd0c0583	-0.034184944
205	0x3d5c219d	0.053742994
206	0xbb23dc37	-0.0025003084
207	0x3d2dc0ce	0.0424202
208	0xbdbfcf05	-0.09365658
209	0x3cae63b3	0.021287775
210	0x3a8c7ede	0.0010718962
211	0x3d77be39	0.060484145
212	0xbd65aaaf	-0.05607098
213	0x3c9f28f6	0.019428711
214	0x3c4d452e	0.012528701
215	0xbd05e27f	-0.032686707
216	0xbb80bf61	-0.003929064
217	0xbcc64e44	-0.024207242
218	0x3d77ef63	0.06053103
219	0xbd075185	-0.033036727
220	0x3b381492	0.0028088433
221	0x3d3bef50	0.045882523
222	0x3d4d6598	0.050145715
223	0x3d8faa73	0.070149325
224	0xbcca78df	-0.024715839
225	0x3cf0e509	0.029406087
226	0xbc597756	-0.013273081
227	0xbdb39f37	-0.08770602
228	0xbd4b93aa	-0.04970137
229	0x3bbaa0e8	0.005695451
230	0xbd73f44b	-0.059559148
231	0xbd2b49f9	-0.041818593
232	0x3b1c6241	0.0023862275
233	0xbd56e105	-0.05246069
234	0xbce439e9	-0.027859645
235	0xbdafaed0	-0.08578265
236	0xbd969a2b	-0.07353624
237	0x3d9a993c	0.075487584
238	0x3d804345	0.06262831
239	0x3d940121	0.07226778
240	0x3d28785e	0.041130416
241	0x3d9c4fc9	0.07632405
242	0x3d9a2694	0.075268894
243	0x3cb6a1c5	0.022293935
244	0x3d39b0e5	0.045334715
245	0x3b53bd85	0.0032309007
246	0xbd24fe5a	-0.04028163
247	0xbcb603d0	-0.022218615
248	0xbd62ee7a	-0.05540321
249	0xbd86828e	-0.0656787
250	0x3d1206e8	0.035651118
251	0xbd940823	-0.072281145
252	0x3d605255	0.054766018
253	0xbc1b4698	-0.00947728
254	0xbd928b50	-0.07155478
255	0xbc87d221	-0.01657969

bias f4 [128]
0	0xbd2035cf	-0.039113816
1	0xbd0a0fb0	-0.033706367
2	0xbb415e0f	-0.0029505526
3	0xbd54b492	-0.051930018
4	0xbd55a488	-0.052158862
5	0xbda8fa53	-0.082508706
6	0x3b494aac	0.0030714674
7	0x3d2a6542	0.041600473
8	0x3d994acf	0.07484972
9	0xbc87902d	-0.01654824
10	0xbc8757a4	-0.016521282
11	0x3ce90c37	0.028448207
12	0x3be274ab	0.0069108806
13	0xbc0ea480	-0.008706212
14	0x3d8c73e7	0.06858044
15	0xbd827b84	-0.06371215
16	0x3ad905ab	0.0016557475
17	0x3dbfb55a	0.09360762
18	0x3d95eccf	0.07320558
19	0x3d5776a8	0.052603394
20	0x3d7443ca	0.05963496
21	0xbd5dc1bc	-0.054139838
22	0xbc440031	-0.011962936
23	0xbc054970	-0.008135185
24	0xbdcea4b7	-0.100900106
25	0xbdb2db5f	-0.08733248
26	0xbc28b7c0	-0.010297716
27	0x3cd65e18	0.026167914
28	0x3d09211a	0.033478834
29	0xbdb39286	-0.087681815
30	0x3c7875de	0.0151648205
31	0x3da5d849	0.08097894
32	0xbcc142a7	-0.023591353
33	0xbd8b17d6	-0.06791656
34	0x3b784560	0.0037883148
35	0xbd906818	-0.07051104
36	0xbd1b3418	-0.037891477
37	0xbd3a2b3a	-0.04545138
38	0x3cf3720c	0.029717468
39	0x3d65862a	0.056036152
40	0xbd872794	-0.06599346
41	0x3d3f1bfb	0.046657544
42	0x3bcb00a0	0.006195143
43	0xbc99d4de	-0.01877826
44	0xbcd843ae	-0.02639946
45	0x3d79f74c	0.061026856
46	0xbc8d4ac0	-0.017247558
47	0xbd9e0c13	-0.07717147
48	0x3c3e8647	0.011628694
49	0x3bfe49f0	0.007760279
50	0xbcd9e908	-0.026600376
51	0x3d9651c9	0.07339818
52	0xbd3e4f23	-0.04646219
53	0xbc5b1b40	-0.013373196
54	0x3d7c2155	0.061555225
55	0xbcd96676	-0.026538115
56	0xbd8ed4b3	-0.06974163
57	0xbcc94898	-0.024570748
58	0x3d593dea	0.05303756
59	0xbd1af49b	-0.03783093
60	0x3cfc5e8b	0.0308068
61	0xbbd64040	-0.006538421
62	0x3db0512d	0.08609233
63	0x3c96e648	0.018420354
64	0xbd3ac4fd	-0.04559802
65	0x3c9938a3	0.018703764
66	0xbd9ce6f1	-0.07661236
67	0xbd1a11da	-0.03761468
68	0x3d395f5a	0.04525695
69	0x3d0d9832	0.034568973
70	0x3d103f4e	0.035216622
71	0xbc93eb03	-0.018056398
72	0x3d951aad	0.072804786
73	0xbd9ce9be	-0.0766177
74	0x3d394f12	0.045241423
75	0x3cf988a6	0.030460667
76	0x3c8157dc	0.015788965
77	0x3abb7ab0	0.0014303531
78	0xbd8150f2	-0.06314267
79	0x3d8ad2d4	0.067784935
80	0xbd3d9fc3	-0.04629494
81	0x3c842c86	0.016134512
82	0x3c8025e8	0.015643075
83	0x3c118320	0.00888136
84	0x3d96a1b3	0.073550604
85	0xbcfdd652	-0.030985985
86	0xbda9ab51	-0.08284629
87	0x3db0e97e	0.08638285
88	0xbcbb8228	-0.022889212
89	0xbd1ab2cd	-0.037768174
90	0xbdad41cc	-0.084598154
91	0xbc2fb6df	-0.010724752
92	0x3df82f71	0.12118424
93	0xbd185c8d	-0.03719764
94	0x3dadb828	0.08482391
95	0x3c04922a	0.008091489
96	0xbd851cb6	-0.06499617
97	0xbcd2e1ec	-0.025742494
98	0x3d744e2f	0.059644874
99	0x3d8484e7	0.064706616
100	0x3ca7e93f	0.020496963
101	0xbdaf0d4a	-0.085474566
102	0xbd7a7807	-0.061149623
103	0x3d18920f	0.037248667
104	0xbd3c633a	-0.045993067
105	0xbd8ab068	-0.06771928
106	0xbc758bde	-0.01498696
107	0xbda8d9a4	-0.08244637
108	0xbd78f9cc	-0.0607851
109	0x3d836c9e	0.064172015
110	0x3cf70928	0.030155733
111	0x3d96763b	0.073467694
112	0x3d560f32	0.052260585
113	0x3de46d74	0.11153689
114	0xbd9ea86f	-0.0774697
115	0xbd938019	-0.07202167
116	0x3d1faec4	0.03898503
117	0x3c4a3d98	0.012343787
118	0xbd76fa7e	-0.06029748
119	0xbcba7468	-0.022760585
120	0xbd36cf63	-0.044631373
121	0xbda4604b	-0.08026179
122	0x3cde9532	0.027170751
123	0xbc870524	-0.016481943
124	0xbd619202	-0.055070885
125	0x3d35060f	0.04419523
126	0xbcb24600	-0.021761894
127	0x3982439e	0.0002484591

a f4 [4, 1]
0	0xbe71961b	-0.23592417
1	0xbf400e37	-0.7502169
2	0xbf92f4eb	-1.1480993
3	0xbeddf28b	-0.43349108

bias f4 [64, 64]
0	0x3d084734	0.03327103
1	0xbba17ea8	-0.0049284287
2	0x3d26d2e6	0.040728472
3	0x3c9b0efe	0.018928047
4	0x3c9aa47a	0.018877257
5	0xbce9574e	-0.028484013
6	0xbd87a6ec	-0.06623635
7	0xbc388bd9	-0.011263811
8	0x3df2fb0a	0.11864288
9	0xbcf23f64	-0.029571243
10	0xbce29271	-0.02765772
11	0x3d3af26c	0.045641348
12	0x3c07f624	0.008298431
13	0x3cf29b2c	0.029615007
14	0xbbc7a2dd	-0.006092413
15	0xbd8808a7	-0.06642275
16	0x3d99f104	0.07516673
17	0x3d1774f2	0.036976762
18	0x3ca6aee7	0.020347072
19	0xbd616b7b	-0.055034142
20	0xbd2834a9	-0.041065846
21	0x3be58a4f	0.007005013
22	0xbd5d014e	-0.053956322
23	0xbd9346a4	-0.07191208
24	0xbdc4a096	-0.09600942
25	0xbcf908bd	-0.030399675
26	0xbca0de1f	-0.019637166
27	0x3d9367c8	0.07197529
28	0xbd647e77	-0.05578467
29	0xbd475d84	-0.048673168
30	0xbd59e20a	-0.053194083
31	0x3c9a19e2	0.01881117
32	0xbd84a349	-0.06476457
33	0x3d77f23e	0.060533755
34	0xbdca9e51	-0.09893478
35	0xbbe807d5	-0.007081012
36	0x3d19bf9e	0.037536256
37	0x3dc0b1ee	0.094089374
38	0xbb88ad70	-0.004171066
39	0xbd523ef2	-0.05132956
40	0xbde4c4bb	-0.11170336
41	0x3d039fcf	0.032134827
42	0x3cc4254d	0.023943568
43	0xbd010c84	-0.031506076
44	0xbc9f2ff3	-0.019432044
45	0x3d49e917	0.049294557
46	0x3cc219b1	0.023693891
47	0x3c366f42	0.011134924
48	0x3d663775	0.05620523
49	0xbc566ce5	-0.013087486
50	0x3ae5146f	0.0017477403
51	0x3cac66de	0.021045145
52	0x3b1c3942	0.002383784
53	0xbd0ff724	-0.0351478
54	0x3d60534a	0.05476693
55	0xbc6894bf	-0.01419562
56	0x3d614608	0.054998428
57	0x3d10ef98	0.035384744
58	0xbcc6f639	-0.02428733
59	0xbc5c490d	-0.013445151
60	0xbacc31fd	-0.0015578863
61	0x3d059fe8	0.0326232
62	0xbc903d62	-0.017607395
63	0xb9388ac1	-0.00017599297
64	0x3cb93c19	0.022611665
65	0x3d5629d2	0.052285977
66	0xbda8fdf2	-0.08251561
67	0x3cfb620b	0.030686399
68	0x3d0639aa	0.032769836
69	0xbdda55db	-0.10660907
70	0x3bc71073	0.006074959
71	0x3ca906a0	0.020633042
72	0xbd307458	-0.043079704
73	0xbb84cbca	-0.004052614
74	0xbd747034	-0.059677318
75	0xbdb2c30a	-0.08728607
76	0x3cf53a85	0.02993513
77	0x3d35633f	0.0442841
78	0xbd569309	-0.052386317
79	0xbbb7237f	-0.0055889483
80	0x3d31a8c3	0.043373834
81	0x3d993112	0.074800625
82	0x3dafa0a7	0.08575564
83	0x3d91a1fe	0.07110976
84	0xbd56ea4f	-0.052469548
85	0xbcb3fa90	-0.021970063
86	0xbc0997b1	-0.008397982
87	0xbc89e8b3	-0.016834592
88	0xbd1fcdda	-0.039014675
89	0x3c9ec7f4	0.019382454
90	0x3d9dcff8	0.077056825
91	0xbd07b9f4	-0.033136323
92	0xbc45af61	-0.012065739
93	0x3e09d045	0.13458355
94	0xbc83bd8f	-0.0160816
95	0x3d0fc18e	0.035096698
96	0xbd715fe9	-0.058929358
97	0x3cf21525	0.029551098
98	0x3cc852c0	0.02445352
99	0x3d817d46	0.06322722
100	0x3d4f0ccd	0.050549317
101	0xbce6cad8	-0.028172895
102	0x3c91d0c3	0.01779974
103	0x3c3965a1	0.011315734
104	0xbb693925	-0.003558704
105	0xbd479ec6	-0.048735403
106	0xbbf9afb9	-0.0076198247
107	0xbc1af87b	-0.009458656
108	0x3d99c69c	0.07508585
109	0xbc32d376	-0.010914674
110	0x3e183c1e	0.14866683
111	0x3a0297b5	0.00049817126
112	0x3d82ab92	0.06380381
113	0x3d37b01a	0.044845678
114	0x3b9cec74	0.0047889296
115	0x3d166f68	0.03672734
116	0x3bcfeb0e	0.0063451594
117	0x3b8d42d0	0.004310943
118	0xbd5dbc06	-0.05413439
119	0xbda6bd9f	-0.08141636
120	0xbd16402d	-0.036682297
121	0xbcf98922	-0.030460898
122	0xbdfbcfa7	-0.12295466
123	0x3bf55e69	0.007488061
124	0xbcb3fe79	-0.021971928
125	0xbd689221	-0.056779984
126	0xbcd35273	-0.02579615
127	0x3b5dba13	0.0033832833
128	0x3cd0657d	0.025439018
129	0xbcaf7006	-0.021415722
130	0xbbd91d24	-0.0066257883
131	0xbcaf8aea	-0.021428544
132	0x3c034098	0.008011006
133	0xbca05c9e	-0.019575413
134	0x3d86f8d8	0.06590432
135	0xbc2f0a50	-0.010683611
136	0x3c7c7acd	0.015410137
137	0xbd270d68	-0.04078427
138	0xbd1054f0	-0.035237253
139	0x3c5a6551	0.01332982
140	0x3d9fa636	0.07795374
141	0x3d164ac3	0.036692392
142	0x3db81714	0.08988777
143	0x3d3b3360	0.045703292
144	0xbdbae104	-0.091249496
145	0xbd0cbc82	-0.034359463
146	0xbd9a0e71	-0.07522286
147	0xbd65a50f	-0.056065615
148	0xbbb283f5	-0.0054478594
149	0xbd2912d9	-0.04127774
150	0xbd3c867e	-0.0460267
151	0x3da39c7c	0.079888314
152	0xbd88cd00	-0.06679726
153	0xbd08c5e7	-0.03339186
154	0x3c84b817	0.016201062
155	0xbd1ae989	-0.037820373
156	0xbca43286	-0.020043623
157	0x3d7fe823	0.062477242
158	0x3d9aeef7	0.0756511
159	0x3b96541e	0.0045876643
160	0x3c9b425f	0.018952547
161	0xbdaf06f1	-0.08546246
162	0x3d3a223e	0.045442812
163	0x3c3f3f56	0.011672815
164	0x3cc6e4f8	0.024279103
165	0xbce951be	-0.02848136
166	0x3d5798cf	0.052635964
167	0x3deb4153	0.11487069
168	0x3d4fa751	0.050696675
169	0xbdda4710	-0.10658085
170	0xbbf8aac3	-0.0075887158
171	0x3d84d429	0.06485779
172	0x3de585fa	0.112071946
173	0x3d1482bb	0.036257487
174	0xbc830686	-0.015994322
175	0xbcfa8bf7	-0.030584319
176	0xbdc278e3	-0.094957136
177	0x3c4a8316	0.012360355
178	0xbce129be	-0.027485725
179	0xbd44832d	-0.04797666
180	0xbae806c6	-0.0017702214
181	0x3d31e137	0.043427672
182	0xbd86e43d	-0.06586502
183	0xbd544953	-0.05182774
184	0x3cdbf193	0.02684859
185	0x3d93d26b	0.072178684
186	0xbd5f51a1	-0.054521207
187	0xbd049e9a	-0.032377817
188	0x3b8973c3	0.004194708
189	0x3d129776	0.035788976
190	0x3d02a893	0.031899046
191	0xbd1cba4c	-0.038263604
192	0xbc2102bd	-0.009827313
193	0x3d487a7d	0.04894494
194	0xbc06b50f	-0.008221879
195	0xbcc3bd8e	-0.023894098
196	0x3d72e17c	0.05929707
197	0xbd91905b	-0.07107612
198	0xbd74e8ed	-0.059792448
199	0xbda6d1c0	-0.081454754
200	0x3d9db61d	0.07700751
201	0xbcf3527d	-0.02970242
202	0xbd2665b4	-0.040624335
203	0x3db77402	0.089576736
204	0x3bf6c286	0.007530513
205	0x3d32e613	0.043676447
206	0xbc73228a	-0.014839778
207	0x3ca7ca44	0.02048219
208	0xbdbd46b1	-0.09241999
209	0x3b8b0dc4	0.0042435843
210	0xbd535ae2	-0.051600344
211	0x3c1cdeb7	0.009574584
212	0x3dee0323	0.11621692
213	0x3d75d500	0.060017586
214	0xbaa372f9	-0.0012470178
215	0x3c40bb0c	0.011763345
216	0x3d4f7379	0.050647233
217	0x3c635ddc	0.013877358
218	0x3cd04da0	0.02542764
219	0x3c7845f3	0.015153396
220	0xbbd74a27	-0.006570119
221	0xbbd44cfc	-0.006478904
222	0xbd86c401	-0.065803535
223	0xbc46c46b	-0.012131791
224	0x3cc9c46d	0.024629796
225	0xbb4011f0	-0.0029307567
226	0x3d28680c	0.04111485
227	0xbcad600d	-0.021163965
228	0xbd17a44b	-0.037021916
229	0xbcbc2608	-0.022967353
230	0xbbbb58aa	-0.0057173567
231	0x3c604d63	0.013690325
232	0x3d0e60ee	0.034760408
233	0xbca1f961	-0.019772233
234	0xbd957f2a	-0.07299645
235	0x3cc25dd6	0.023726385
236	0x3cd3d9c3	0.025860673
237	0xbc9efbab	-0.019407114
238	0xbc86d35c	-0.016458206
239	0xbd236a61	-0.039896373
240	0xbdddb1d8	-0.10824937
241	0x3c19eb32	0.009394454
242	0xbd3ee333	-0.046603393
243	0x3cb745b8	0.022372112
244	0x3d9d2f8a	0.07675083
245	0xbc52fd3d	-0.0128777595
246	0x3b10f32f	0.0022117605
247	0x3c8467a1	0.016162695
248	0xbd35cac7	-0.044382837
249	0x3c62be77	0.013839356
250	0x3dce300f	0.1006776
251	0xbd9b739b	-0.07590409
252	0x3b651b31	0.0034958834
253	0x3d5bab8b	0.053630393
254	0xbdb32857	-0.087479286
255	0x3d1c16ca	0.03810767

weight f4 [4, 4]
0	0x3ef7e5d5	0.48417535
1	0xbe76b1be	-0.24091241
2	0xbebe7849	-0.37201145
3	0x3d981165	0.07425193
4	0xbe22f3a5	-0.15913256
5	0x3eed1b7a	0.46310025
6	0x3ea2a39c	0.3176545
7	0x3e1f712e	0.15570518
8	0xbe8e7b53	-0.27828464
9	0x3ef6047b	0.48050293
10	0x3eda4395	0.42629686
11	0x3ec97552	0.3934732
12	0x3ea2a1ca	0.3176406
13	0xbdf4f8a4	-0.11961487
14	0x3ef4d7db	0.47820935
15	0xbeffbbdd	-0.49948016

bias f4 [4]
0	0x3ed95620	0.4244852
1	0xbbb3383b	-0.0054693497
2	0xbcce3ae8	-0.025174573
3	0x3e567d89	0.20946325

weight f4 [128, 128]
0	0x3d29027d	0.04126214
1	0x3ac52a0e	0.001504244
2	0xbc5e2e69	-0.01356087
3	0xba417797	-0.0007380186
4	0x3c681fd6	0.0141677465
5	0xbc904ab0	-0.017613739
6	0xbd3f232e	-0.04666441
7	0x3dae18d4	0.08500829
8	0x3d696644	0.056982294
9	0x3d8434cf	0.06455385
10	0x3d3e9f09	0.046538386
11	0x3d69223a	0.056917407
12	0x3d370177	0.04467913
13	0xbbde91cf	-0.006792284
14	0xbc6b37b6	-0.014356544
15	0x3e2bfc73	0.1679552
16	0x3c47ce98	0.012195252
17	0x3e292694	0.16518623
18	0x3d85f2db	0.06540462
19	0x3e25078d	0.16116162
20	0x3d584ebb	0.05280946
21	0xbd441e3f	-0.047880407
22	0x3cb2c927	0.021824433
23	0x3db40c9b	0.08791467
24	0x3d1e9326	0.03871455
25	0x3c16e0e0	0.009208888
26	0xbd1bf445	-0.03807475
27	0xbd9f26b8	-0.07771057
28	0x3d84eca4	0.06490448
29	0x3d9741a8	0.0738557
30	0x3d092cec	0.033490106
31	0x3cd236b5	0.025660852
32	0xbc4a76c7	-0.01235742
33	0x3d2b4748	0.041816026
34	0x3cfe2233	0.031022167
35	0x3ddb581d	0.10710166
36	0x3e05a4ea	0.13051191
37	0x3d267a49	0.040643964
38	0x3d98f819	0.07469196
39	0xbc6d5bac	-0.014487188
40	0x3dc7fa8e	0.097645864
41	0x3e235716	0.1595119
42	0x3a675029	0.00088238955
43	0x3dada286	0.084782645
44	0x3c148115	0.009063979
45	0x3cd67fba	0.026183952
46	0x3af79b62	0.0018890912
47	0x3da22f71	0.07919205
48	0x3ddbee43	0.10738804
49	0x3de7637b	0.11298271
50	0x3db7c81d	0.089737155
51	0x3e12a393	0.14320211
52	0xbc4622f5	-0.012093295
53	0x3d655684	0.05599071
54	0xbc1f8550	-0.009736374
55	0xbad73960	-0.0016420297
56	0x3c1bf579	0.009518974
57	0x3d95c86d	0.07313619
58	0x3dd6e737	0.104933195
59	0x3d43f02a	0.04783646
60	0x3d366568	0.044530302
61	0x3e35c271	0.17749955
62	0x3da30f33	0.079618834
63	0x39c521be	0.00037599908
64	0x3d84b076	0.0647897
65	0x3d975a8e	0.07390319
66	0x3c9f2f7e	0.019431826
67	0x3df965e3	0.121776365
68	0x3c7462b2	0.014916109
69	0x3bbe269c	0.0058029424
70	0xbbeab1a3	-0.007162289
71	0x3dd7079f	0.104995005
72	0xbc5f90e6	-0.013645386
73	0x3dc56322	0.09638049
74	0x3d2bf4bf	0.041981455
75	0x3e0e832a	0.13917223
76	0x3db54e18	0.08852786
77	0x3cb84276	0.022492629
78	0x3ccde9c2	0.025135878
79	0x3d9dd955	0.077074684
80	0x3c79930d	0.015232814
81	0xbc3e77e8	-0.011625268
82	0xbc2ae774	-0.010431159
83	0x3c6cf2b3	0.014462161
84	0xbd6dc7ec	-0.05805199
85	0x3d8b530c	0.06802949
86	0x3d84c672	0.06483163
87	0x3e5ab0ca	0.21356502
88	0x3d4b1062	0.04957617
89	0x38882561	6.491948e-05
90	0x3d2e693c	0.042580828
91	0x3e0ba9cc	0.13638991
92	0x3d520186	0.051270984
93	0x3dda4672	0.106579676
94	0x3daf49c1	0.08558989
95	0x3da9bf63	0.08288457
96	0xbd0e3f3c	-0.034728274
97	0x3d264182	0.040589817
98	0xbd34dab8	-0.0441539
99	0x3d9032f1	0.07040966
100	0x3d7a6b39	0.06113741
101	0x3d25d83c	0.04048942
102	0xbc098602	-0.008393766
103	0x3e1771ee	0.14789554
104	0xbd8ca932	-0.06868209
105	0x3d9f9d0a	0.07793625
106	0xbb9aaa61	-0.004720018
107	0x3dd8c529	0.1058448
108	0x3ca9ba9b	0.020718863
109	0xbc8e744c	-0.017389439
110	0x3d656969	0.05600873
111	0x3dbd8dee	0.092555866
112	0xbc877ed1	-0.016539963
113	0xbc4d197c	-0.012518283
114	0x3d8adb84	0.067801505
115	0x3c8fa976	0.01753686
116	0xbcdfcccb	-0.027319333
117	0x3c88888d	0.016666675
118	0xbd184325	-0.03717341
119	0xbd48a396	-0.048984133
120	0x3cb29753	0.021800673
121	0x3e26e25a	0.16297284
122	0x3d5e95f9	0.054342244
123	0x3db218de	0.08696149
124	0xbb87eea0	-0.0041483194
125	0x3dd188d4	0.10231176
126	0xbcf49a20	-0.029858649
127	0x3d75f059	0.060043667
128	0xbd51b786	-0.051200412
129	0xbd003eb6	-0.031309806
130	0xbd45ccf2	-0.048291154
131	0x3d8f6f21	0.07003618
132	0xbcea738f	-0.028619556
133	0xbd8c0fe2	-0.06838967
134	0x3d429a63	0.047510516
135	0x3c6fb5d1	0.014630751
136	0xbd2cf353	-0.04222424
137	0x3d69537c	0.056964383
138	0xbd1812c6	-0.03712728
139	0xbd842bd7	-0.06453674
140	0x3da3461b	0.07972356
141	0xbd607039	-0.054794524
142	0xbd8f8feb	-0.07009872
143	0xbcd7d1a7	-0.026345087
144	0xbd59a67b	-0.053137284
145	0x3d89d1ad	0.067294456
146	0xbd61cde1	-0.055127982
147	0x3d015cae	0.031582527
148	0x3d93a438	0.072090566
149	0xbd1f73ba	-0.038928725
150	0xbd442e35	-0.04789563
151	0x3d82254d	0.06354771
152	0xbdcfc9ee	-0.10145937
153	0xbd8af31b	-0.0678465
154	0x3cea2212	0.0285807
155	0xbc01a127	-0.007911957
156	0xbd9d3895	-0.07676808
157	0x3d747a09	0.059686694
158	0x3c92859f	0.017885981
159	0xbdd6f4b9	-0.10495896
160	0x3d3a6f83	0.045516502
161	0xbda8b4af	-0.08237588
162	0x3c6d60e6	0.014488434
163	0xbd72369c	-0.05913411
164	0xbdb42415	-0.087959446
165	0x3bb74554	0.0055929814
166	0xbddf77e4	-0.10911539
167	0xbdd9443b	-0.10608717
168	0x3bf7c425	0.007561224
169	0xbdc2f3d4	-0.09519163
170	0xbd02e79b	-0.031959157
171	0xbd3da208	-0.046297103
172	0xbaaee01e	-0.0013341939
173	0x3d625f0d	0.05526643
174	0x3da2e0ce	0.07953034
175	0x3d169731	0.03676528
176	0xbcddf597	-0.027094645
177	0xbd6a07ed	-0.057136465
178	0x3d05e055	0.032684643
179	0x3cf36940	0.029713273
180	0xbdb9966e	-0.09061895
181	0xbdccd75c	-0.10002014
182	0xbc957732	-0.018245313
183	0xbd5af395	-0.053454954
184	0x3d4fe915	0.050759394
185	0x3d93b7f2	0.07212819
186	0x3dfcfe13	0.12353148
187	0x3c01f0e9	0.007930973
188	0xbd47476a	-0.04865209
189	0xbd282cf7	-0.041058507
190	0xbdab5b2e	-0.083670005
191	0x3d2c153b	0.042012434
192	0xbd8ef3fd	-0.06980131
193	0xbd90e7f5	-0.07075492
194	0x3d2a5df5	0.04159351
195	0xbddb0bc8	-0.106956065
196	0x3c8f9ec8	0.017531767
197	0x3b5633f4	0.0032684775
198	0xbd53d7db	-0.051719528
199	0x3d1b7a8c	0.037958667
200	0x3d3c4658	0.045965523
201	0x3d9a7513	0.075418614
202	0x3ce9d436	0.028543573
203	0xbb146c87	-0.0022647695
204	0xbd117a81	-0.03551722
205	0x3c030ca2	0.007998617
206	0xbda5dc80	-0.08098698
207	0xbd0c09dc	-0.03418909
208	0xbcd77caa	-0.026304562
209	0x3d1f22ea	0.038851656
210	0xbda0090a	-0.07814224
211	0xbbbdabe6	-0.005788314
212	0x3ba6b6b5	0.0050876983
213	0xbd7b9a2f	-0.061426338
214	0xbcef4894	-0.029209413
215	0x3d96f1d5	0.073703445
216	0xbc23ecbc	-0.010005172
217	0xbdbf2deb	-0.0933493
218	0xbd2e7cd4	-0.042599514
219	0xbd455237	-0.04817411
220	0x3d0639ff	0.032770153
221	0x3d628b49	0.055308614
222	0xbc0d5577	-0.008626333
223	0xbd46861a	-0.048467733
224	0xbcb7c308	-0.022431865
225	0xbd36e9d6	-0.044656597
226	0xbd36f8d3	-0.04467089
227	0xbcdac2c0	-0.026704192
228	0x3d8553fa	0.06510158
229	0x3d24effd	0.040267933
230	0xbc1d9c69	-0.009619811
231	0xbd9d56aa	-0.076825455
232	0xbc7928e7	-0.015207506
233	0xbd76452e	-0.06012457
234	0x3d8fc2b8	0.070195615
235	0x3daa45d6	0.083141014
236	0xbd83f3e8	-0.06443006
237	0xbd9be7e3	-0.07612588
238	0xbcb3224a	-0.021866936
239	0x3cc84363	0.024446195
240	0x3d0e9dc2	0.03481842
241	0x3b13e5e4	0.0022567445
242	0xbe0a662e	-0.13515541
243	0x3cdb5d95	0.026778022
244	0xbd622113	-0.055207323
245	0xbd55c419	-0.052188966
246	0xbda0688e	-0.07832442
247	0xbdc4e3f6	-0.096137926
248	0x3c8a8cd7	0.01691286
249	0xbc1d67a1	-0.009607227
250	0xbd9c5a9c	-0.0763447
251	0x3c034d8b	0.008014093
252	0xbd8b5442	-0.0680318
253	0x3d92028b	0.07129391
254	0xbd293e9c	-0.041319475
255	0xbd1d899b	-0.03846131

bias f4 [128]
0	0xbcc7c8f1	-0.024387809
1	0xbcc52f7e	-0.024070498
2	0xbd044e8b	-0.032301467
3	0xbdc9f6b0	-0.09861505
4	0xbdcda9d1	-0.100421555
5	0xbde8c86e	-0.11366354
6	0x3d861608	0.06547171
7	0xbd50c120	-0.05096543
8	0x3dfae109	0.12249953
9	0xbdc09612	-0.09403624
10	0x3d179f64	0.03701724
11	0x3cacb5d6	0.0210828
12	0xbda2e2e3	-0.079534315
13	0x3cc1e3b6	0.023668151
14	0x3d1de226	0.03854575
15	0x3d005157	0.03132757
16	0x3cba1f7a	0.022720087
17	0xbc8b8a4c	-0.017033719
18	0xbcd34190	-0.025788099
19	0x3b8cd6c0	0.004298061
20	0x3d0395f7	0.03212544
21	0xbc347207	-0.011013514
22	0x3d68043c	0.056644663
23	0xbd719ebd	-0.058989275
24	0xbd0c641d	-0.034275163
25	0xbd8903b2	-0.06690158
26	0x3cacd54e	0.021097805
27	0x3cace82b	0.0211068
28	0x3ce9e138	0.028549775
29	0x3d6db34d	0.058032323
30	0xbdee4728	-0.11634666
31	0x3d6255aa	0.055257477
32	0xbd84d224	-0.06485394
33	0xbc725ad8	-0.014792167
34	0x3cb3eb89	0.021962898
35	0xbaf0ee2a	-0.0018381525
36	0xbd8f7e01	-0.07006455
37	0x3b78c60e	0.0037959847
38	0xbdae99c4	-0.08525422
39	0x3d0b935a	0.034076072
40	0x3c12a299	0.008949899
41	0xbd1b713d	-0.03794979
42	0xbd552c6b	-0.052044313
43	0xbad15b22	-0.0015972594
44	0xbd89329e	-0.066991076
45	0xbd3f05ca	-0.04663638
46	0xbe0d2b92	-0.13786152
47	0xbd02f102	-0.031968124
48	0xbd77177e	-0.06032514
49	0x3d1ce3e0	0.038303256
50	0xbdc45ffb	-0.09588619
51	0x3d8f1a28	0.06987411
52	0x3d5e7076	0.05430647
53	0x3d45ecf0	0.048321664
54	0xbd92ded4	-0.07171407
55	0xbc40ed53	-0.0117753325
56	0x3c7fae61	0.01560554
57	0xbd5fa2be	-0.054598562
58	0xbcf31f49	-0.029678004
59	0xbdfb06d4	-0.12257162
60	0xbca127d2	-0.019672308
61	0xbdb9cf61	-0.090727575
62	0xbc9614ca	-0.01832046
63	0x3c86839e	0.016420182
64	0xbd89430e	-0.06702243
65	0x3e4cbb78	0.19993389
66	0x3d73ec91	0.05955178
67	0xbd0ff0a3	-0.0351416
68	0xbcba3e5a	-0.02273481
69	0xbdacba45	-0.084339656
70	0xbbbd3d90	-0.005775161
71	0x3cbf4e6f	0.02335283
72	0x3d82eb4b	0.06392535
73	0xbd3cbbec	-0.046077654
74	0xbca14426	-0.019685816
75	0xbcc32154	-0.023819603
76	0xbd3feec6	-0.04685857
77	0x3d8237d6	0.06358306
78	0xbd15dc12	-0.03658683
79	0x3d964cfa	0.07338901
80	0x3db4f809	0.088363715
81	0xbda59ca0	-0.080865145
82	0xbd1114bc	-0.035420164
83	0xbce48b05	-0.02789832
84	0x3d5960e7	0.05307093
85	0x3d03c6e3	0.032172095
86	0xbd2a8632	-0.041631885
87	0xbdf4bbe2	-0.11949898
88	0x3c89eaf5	0.016835669
89	0x3d88b485	0.06675056
90	0x3e17c494	0.14821082
91	0x3c8a3556	0.016871136
92	0x3dda6620	0.1066401
93	0xbcd8f7cb	-0.026485344
94	0xbd8ed753	-0.069746636
95	0x3d5ff67b	0.05467842
96	0xbda6af0f	-0.081388585
97	0xbda4cc1b	-0.080467425
98	0x3cc1f0a8	0.023674324
99	0x3cca7508	0.024714008
100	0xbc2ed374	-0.010670532
101	0x3d8e30a3	0.069428705
102	0x3d152c80	0.03641939
103	0xbca5e42b	-0.0202504
104	0xbe19f83e	-0.15036103
105	0x3d0f1795	0.0349346
106	0xbda4bc75	-0.08043758
107	0xbc8864d1	-0.016649636
108	0x3db2f79d	0.08738635
109	0xbd61fb83	-0.0551715
110	0xbdc9abfa	-0.09847255
111	0xbcbeddb9	-0.023299085
112	0xbd5ee58a	-0.054418124
113	0xbd41b784	-0.047294155
114	0x3d715bdc	0.058925495
115	0x3b9ffc9a	0.0048824074
116	0x3d84fda2	0.06493689
117	0xbd40626d	-0.046968866
118	0x3cc4b0f4	0.02401016
119	0xbbcb5b81	-0.0062059765
120	0xbcb84648	-0.02249445
121	0xbc996ebb	-0.018729558
122	0xbdd3f213	-0.10348906
123	0x3d92c29c	0.07166025
124	0xbd83b6bc	-0.06431338
125	0xbd126cee	-0.035748415
126	0xbcb0cf10	-0.02158311
127	0x3d7e4ced	0.06208508

weight f4 [128]
0	0x3f280b9b	0.6564271
1	0x3f607ac4	0.87687325
2	0x3f1a5f12	0.60301316
3	0x3f4af1e5	0.7927535
4	0x3ede4293	0.43410167
5	0x3ed9c74c	0.42534864
6	0x3eea56b1	0.45769265
7	0x3f344c86	0.70429265
8	0x3f0de079	0.55420643
9	0x3ed234db	0.4105595
10	0x3ee5ca42	0.44880873
11	0x3f6e4260	0.9307003
12	0x3f6441e9	0.8916307
13	0x3f634f6b	0.8879306
14	0x3f4f2a79	0.80924183
15	0x3f66fbda	0.90228045
16	0x3efa06d6	0.4883334
17	0x3ed2f0e9	0.41199425
18	0x3f67bc31	0.9052153
19	0x3f5b800b	0.85742253
20	0x3f27003e	0.65234745
21	0x3f091ac2	0.53556454
22	0x3f68a2a4	0.9087317
23	0x3efa82dd	0.48927966
24	0x3ed06f4d	0.40709916
25	0x3f13e2fe	0.5776824
26	0x3f55c0d4	0.8349736
27	0x3f5fefdc	0.8747537
28	0x3ee79f11	0.45238546
29	0x3ed80224	0.42189133
30	0x3f071bd8	0.5277686
31	0x3f4e361c	0.80551314
32	0x3f54dc85	0.83148986
33	0x3f2afa19	0.6678787
34	0x3f49d0b2	0.7883407
35	0x3f29b39d	0.66289693
36	0x3ee4837e	0.4463157
37	0x3f0aaa94	0.5416653
38	0x3f658f84	0.8967211
39	0x3f5053d3	0.81377906
40	0x3f5b5d46	0.856892
41	0x3f0d6ff3	0.55248946
42	0x3f80a5ed	1.0050637
43	0x3f0c2b7d	0.5475386
44	0x3f59de24	0.85104585
45	0x3eee41c9	0.46534565
46	0x3f31c04c	0.69434047
47	0x3f57ba4d	0.8426865
48	0x3eb41624	0.35173142
49	0x3f40ad5d	0.7526453
50	0x3f4f2f3d	0.80931455
51	0x3f81841b	1.011844
52	0x3eec9dc1	0.46214107
53	0x3ea224f8	0.3166883
54	0x3f6045f5	0.87606746
55	0x3f678f66	0.90453184
56	0x3f4d548c	0.80207133
57	0x3ecaee12	0.39634758
58	0x3f4e0870	0.80481625
59	0x3f086250	0.5327501
60	0x3f10fd85	0.5663684
61	0x3f2e0eca	0.67991316
62	0x3f00ebaa	0.50359595
63	0x3f1a0425	0.60162574
64	0x3f4d3c1b	0.8016984
65	0x3edf727e	0.43642038
66	0x3ee2681f	0.44220063
67	0x3ee72dde	0.4515218
68	0x3efbd9f2	0.49189717
69	0x3f64ec81	0.89423376
70	0x3f33c5fa	0.70223963
71	0x3f15070e	0.5821389
72	0x3ed73972	0.42036015
73	0x3f5ff45f	0.87482256
74	0x3f0948da	0.5362679
75	0x3f56c50e	0.8389443
76	0x3efed83e	0.49774355
77	0x3f51c912	0.81947434
78	0x3f494190	0.78615665
79	0x3f49433c	0.78618217
80	0x3f1af676	0.6053232
81	0x3f1e8f0a	0.6193701
82	0x3ee6c5db	0.45072827
83	0x3f581bff	0.8441772
84	0x3f179cf5	0.5922387
85	0x3ef1aa36	0.47200173
86	0x3ed55ea0	0.41673756
87	0x3f524d8d	0.82149583
88	0x3ee063eb	0.4382623
89	0x3f17766c	0.5916507
90	0x3f0f57d2	0.5599338
91	0x3f1ec2a6	0.6201576
92	0x3f0b70c7	0.5446896
93	0x3f6fae42	0.9362527
94	0x3ec2d6f0	0.3805461
95	0x3f0e98c4	0.5570185
96	0x3f503717	0.8133406
97	0x3ef5a9e0	0.47981167
98	0x3f566daf	0.83761114
99	0x3f55d67d	0.8353041
100	0x3f3bfc69	0.7343202
101	0x3f6af943	0.91786593
102	0x3f374968	0.71596384
103	0x3f63b617	0.8894972
104	0x3f038ad9	0.5138374
105	0x3f4e0fa5	0.8049262
106	0x3f47703d	0.7790564
107	0x3ef558f6	0.47919434
108	0x3ef6f3f6	0.48233002
109	0x3ede4b3c	0.43416774
110	0x3f2f3d5e	0.68453014
111	0x3f78198d	0.9691399
112	0x3f1f7500	0.622879
113	0x3f51926b	0.8186404
114	0x3f57e0a5	0.84327155
115	0x3f588b16	0.8458723
116	0x3f2a14b4	0.6643784
117	0x3f3d9e5c	0.7406976
118	0x3ef88a74	0.4854313
119	0x3ea3a46c	0.3196138
120	0x3f517397	0.81817
121	0x3f45d502	0.7727815
122	0x3ec842bc	0.39113414
123	0x3effe9dc	0.49983108
124	0x3ebfb3a4	0.37441742
125	0x3f04531c	0.51689315
126	0x3f245404	0.641907
127	0x3f0123ce	0.5044526

bias f4 [128]
0	0x3eb5af8f	0.35485503
1	0x3dc2ddc8	0.09514958
2	0x3c427cbd	0.01187056
3	0x3c872f90	0.016502172
4	0x3eb189fe	0.34675592
5	0xbe6d61ee	-0.23181888
6	0x3f2fddae	0.6869763
7	0x3dae7ae0	0.0851953
8	0x3ef6db44	0.4821416
9	0xbfbeda04	-1.4910283
10	0x3e4aa8f0	0.19791007
11	0x3da3f83a	0.0800633
12	0x3d97772d	0.07395778
13	0xbd7cff8c	-0.061767146
14	0xbc4478c6	-0.011991685
15	0x3e2771a8	0.1635195
16	0xbe838258	-0.25685382
17	0xbf38f401	-0.7224732
18	0xbd4bc066	-0.049744032
19	0x3d5c7e2a	0.053831257
20	0xbdb5f5d9	-0.08884782
21	0xbe08f654	-0.13375217
22	0x3da3eeab	0.08004507
23	0x3e0b7f4f	0.13622783
24	0xbe3831dd	-0.17987771
25	0x3f20373e	0.6258429
26	0xbc7f53e2	-0.015583964
27	0x3d7233aa	0.059131302
28	0x3ecd70c4	0.40125096
29	0x3ec01fa3	0.37524137
30	0x3f15d210	0.58523655
31	0x3d820622	0.06348826
32	0xbe84e36b	-0.25954756
33	0xbd6efc7a	-0.05834625
34	0x3d564a1f	0.05231678
35	0xbd5aee83	-0.05345012
36	0xbd71fc12	-0.059078284
37	0x3db52e35	0.08846704
38	0x3d2861af	0.041108783
39	0xbd955ce9	-0.07293112
40	0xbbceb165	-0.006307768
41	0xbe562fd5	-0.20916684
42	0x3da42c0c	0.08016214
43	0x3dd4aa5a	0.103840545
44	0xbcd918b7	-0.026501043
45	0x3e89bcf8	0.26901984
46	0x3ca6e074	0.0203707
47	0x3db17c32	0.086662665
48	0xbe264566	-0.16237411
49	0x3c4451a0	0.011982352
50	0x3d63a3a1	0.05557597
51	0x3dc9ead2	0.098592415
52	0x3f1747ca	0.59093916
53	0x3f10f861	0.56628996
54	0xbce979b7	-0.028500421
55	0xbc4b90af	-0.012424632
56	0x3dc63de8	0.096797764
57	0xbebb2b4e	-0.36556476
58	0x3dc9972a	0.098432854
59	0xbeb0b85a	-0.3451565
60	0xbd0f5257	-0.034990635
61	0xbe2b9a96	-0.16758189
62	0xbd952104	-0.07281688
63	0xbd16a0a9	-0.03677431
64	0x3d92d51d	0.071695544
65	0xbe8afc5d	-0.27145663
66	0xbdbdae0e	-0.09261714
67	0x3e2235b1	0.15840794
68	0xbfdc5bfe	-1.7215574
69	0x3d467b7b	0.048457604
70	0xbe8d96bf	-0.27654073
71	0xbd1ab2dc	-0.03776823
72	0xbf95b65f	-1.169628
73	0x3c46a705	0.0121247815
74	0xbf54a7b0	-0.8306837
75	0xbdb4aba4	-0.088218
76	0xbfde0876	-1.7346332
77	0xbd7ebebb	-0.062193613
78	0xbd8ef97f	-0.06981181
79	0xbcaed16e	-0.021340098
80	0x3f036fc4	0.51342416
81	0x3f6815a6	0.9065803
82	0x3eca34ba	0.39493352
83	0x3d6589ab	0.056039494
84	0xbedc21fe	-0.42994684
85	0x3d220e3d	0.03956436
86	0x3d892e03	0.06698229
87	0xbd84667d	-0.064648606
88	0x3e8d85ac	0.27641046
89	0x3df550da	0.11978312
90	0x3ef9af2d	0.4876646
91	0xbeb3db9d	-0.3512849
92	0xbfaaeb78	-1.3353109
93	0x3dd19885	0.10234169
94	0x3f0f9360	0.5608425
95	0x3c7affa4	0.015319739
96	0xbd95e743	-0.073195
97	0x3eaaf8d2	0.3339296
98	0xbd8430ab	-0.06454595
99	0xbd267fa8	-0.040649086
100	0xbd921afc	-0.07134053
101	0x3cf57707	0.029963983
102	0xbd17d452	-0.03706772
103	0x3d9e41ff	0.077274315
104	0x3e6e7e6e	0.23290417
105	0xbd91ebc1	-0.071250446
106	0xbd24583b	-0.040123206
107	0x3ef959c1	0.4870129
108	0x3f3965e6	0.7242111
109	0x3eae6925	0.34064594
110	0x3d5ae23f	0.05343842
111	0xbbe8a2dd	-0.007099493
112	0xbebd9ef3	-0.3703533
113	0xbd26c885	-0.040718574
114	0xbc7f3059	-0.015575492
115	0xbcd9c36c	-0.026582442
116	0x3d902dc1	0.07039977
117	0xbd8054a7	-0.06266146
118	0xbeec7aa0	-0.46187305
119	0x3f45ea6b	0.7731082
120	0x3d4d209a	0.05007992
121	0xbd8f9f92	-0.070128575
122	0x3f6b7253	0.9197132
123	0x3da7e623	0.08198192
124	0xbeaa1d85	-0.33225647
125	0x3cba2715	0.022723714
126	0xbe988411	-0.2978826
127	0x3db6c3ff	0.08924102

running_mean f4 [128]
0	0x406d7716	3.7103934
1	0xbc6bc15a	-0.01438936
2	0x4098fcd7	4.7808642
3	0xbd1bd9df	-0.038049575
4	0x401e40b8	2.4727
5	0x402be21a	2.6856751
6	0x40520059	3.2812712
7	0xbd13027f	-0.035891052
8	0x3f3e8607	0.7442326
9	0x402b4277	2.6759317
10	0x40328630	2.7894402
11	0xbd49bee4	-0.049254313
12	0xbbb0d774	-0.0053967778
13	0xbcd50bad	-0.026006544
14	0xbba15237	-0.004923131
15	0xbd8e10ea	-0.0693682
16	0x4063bb35	3.5583012
17	0x4094ce83	4.650209
18	0xbc0b60dc	-0.00850698
19	0xbd05ec25	-0.032695908
20	0x3f9b3be0	1.2127647
21	0x3ffbab15	1.9661585
22	0xbc1e9eec	-0.009681445
23	0x4042cbef	3.043697
24	0x4082c6b3	4.0867553
25	0x3fe94ae5	1.8225981
26	0xbba4c533	-0.005028391
27	0xbce66ee7	-0.028129054
28	0x4048fe7d	3.1405327
29	0x403c34c1	2.9407198
30	0x402f64cd	2.7405274
31	0xbcb30dd2	-0.021857176
32	0xbd2c90f6	-0.042130433
33	0x407c3c35	3.9411747
34	0xbbb78697	-0.005600761
35	0xbd17b560	-0.037038207
36	0x40855186	4.1662016
37	0x4079ef6e	3.9052386
38	0xbd0629ef	-0.032754835
39	0xbde5fdb6	-0.11230032
40	0xbc2e66e8	-0.010644652
41	0xbca2f5f4	-0.01989267
42	0xbda7ec73	-0.08199396
43	0x4060f038	3.5146618
44	0xbdb35d5a	-0.0875804
45	0x403f0fa6	2.98533
46	0xbcf1bef6	-0.029510003
47	0xbccfbfa9	-0.025359945
48	0x3fb57f3d	1.4179455
49	0xbc0df1ad	-0.008663577
50	0xbc573510	-0.01313521
51	0xbd66f124	-0.056382313
52	0x402db7da	2.7143464
53	0x4032c137	2.793043
54	0xbc802a8a	-0.015645284
55	0xbbc092d8	-0.00587688
56	0x406f2ec5	3.7372296
57	0x40560582	3.3440862
58	0xbd3341b0	-0.043763816
59	0x3f1898eb	0.59608334
60	0x4077d32e	3.8722644
61	0x4071de8c	3.7792082
62	0x4074d726	3.8256316
63	0x401a750b	2.4133937
64	0x40926f94	4.5761204
65	0x406ba719	3.6820738
66	0x40064b3f	2.0983427
67	0x4061f1b8	3.5303783
68	0x40493159	3.143637
69	0xbc6a3fbe	-0.014297424
70	0xbc108636	-0.008821061
71	0x40131af1	2.2985194
72	0x3ed3a75c	0.41338623
73	0xbbe42625	-0.006962555
74	0x4037fe53	2.8748977
75	0xbdd7b199	-0.10531921
76	0x40268086	2.6015944
77	0xbdead0ca	-0.114656046
78	0xbd8125f6	-0.063060686
79	0xbc32bc77	-0.010909191
80	0x40885dac	4.2614346
81	0x4092218f	4.5665965
82	0x3fa1d7ca	1.2643979
83	0xbc344ae6	-0.011004185
84	0x4085eae0	4.1849213
85	0x402df6b0	2.7181816
86	0x403709d1	2.8599741
87	0xbced6e56	-0.028983276
88	0x40695378	3.6457195
89	0x403800bb	2.8750446
90	0x3fda0cd7	1.7035168
91	0x3eb14a05	0.34626785
92	0x3fd49da5	1.6610609
93	0xbc7f8cf4	-0.015597571
94	0x40841532	4.1275873
95	0x3f50713f	0.814228
96	0xbdb99d1f	-0.090631716
97	0x40352ead	2.8309739
98	0xbd9a3fd9	-0.07531709
99	0xbc95acde	-0.018270906
100	0xbd6b8b82	-0.057506092
101	0xbb1bd5ac	-0.0023778481
102	0xbc5d710c	-0.013515722
103	0xbb30bbcb	-0.0026967402
104	0x3f28d425	0.65948707
105	0xbe014218	-0.12622869
106	0xbc7e76e0	-0.015531272
107	0x40319329	2.774607
108	0x3f7af06a	0.9802309
109	0x402f67cb	2.74071
110	0xbce42f91	-0.027854713
111	0xbd07cdea	-0.03315536
112	0x408529c3	4.161348
113	0xbc831808	-0.01600267
114	0xbc028679	-0.007966631
115	0xbc6ef41a	-0.014584566
116	0x40841c07	4.1284213
117	0x405c755d	3.4446633
118	0x3fa35792	1.2761099
119	0x4005fc30	2.0935173
120	0xbc6afa5b	-0.014341916
121	0xbddc8eca	-0.10769422
122	0x40204c0c	2.5046415
123	0x403c80ef	2.9453695
124	0x4035996b	2.837489
125	0x3fb5cc1e	1.4202917
126	0x40651e31	3.5799677
127	0x3f111855	0.5667775

running_var f4 [128]
0	0x3b446340	0.0029966384
1	0x3320f771	3.747795e-08
2	0x3ba4154b	0.005007421
3	0x34929dea	2.7309517e-07
4	0x3b17bfbf	0.002315506
5	0x3b40c524	0.002941438
6	0x3b821f7a	0.0039710375
7	0x347326b8	2.2645224e-07
8	0x3b49d3f9	0.0030796512
9	0x3b170a1c	0.0023046797
10	0x3abeb149	0.0014548685
11	0x34fad6c7	4.67224e-07
12	0x32605d6b	1.3059757e-08
13	0x340ed5ef	1.3302609e-07
14	0x3208bb68	7.958853e-09
15	0x356c2119	8.7965014e-07
16	0x3bcd50f3	0.0062657534
17	0x3b9c5313	0.0047706454
18	0x32d4fb7f	2.4794415e-08
19	0x34816177	2.4099037e-07
20	0x3b85d30e	0.0040839976
21	0x3b846278	0.0040400587
22	0x32ec0112	2.7474503e-08
23	0x3b89cfde	0.004205688
24	0x3b542c77	0.0032375136
25	0x3b67c004	0.0035362253
26	0x3284661c	1.5413256e-08
27	0x34299cdb	1.5796415e-07
28	0x3b5865d8	0.0033019688
29	0x3b04201c	0.002016074
30	0x3b1b2759	0.0023674576
31	0x33d608f2	9.966779e-08
32	0x350a99d8	5.163288e-07
33	0x3b674fa6	0.0035295277
34	0x32c25e7e	2.2627543e-08
35	0x34d1890d	3.9029e-07
36	0x3b5d1b71	0.003373828
37	0x3b562717	0.0032677108
38	0x3451ed1c	1.9550902e-07
39	0x361e641f	2.3602113e-06
40	0x3392dd03	6.8388566e-08
41	0x34f5e45c	4.580096e-07
42	0x35a8c4b8	1.2574228e-06
43	0x3b1b8dfa	0.0023735748
44	0x35b7eaf7	1.3702946e-06
45	0x3b0e5109	0.0021715781
46	0x343c285f	1.7523551e-07
47	0x340012c4	1.1927756e-07
48	0x3a970149	0.0011520769
49	0x32dfbfdd	2.6047866e-08
50	0x32f192ea	2.8122901e-08
51	0x352623ec	6.189209e-07
52	0x3b4509cb	0.0030065652
53	0x3ae08b75	0.0017131405
54	0x3340dc7f	4.4904024e-08
55	0x336118c2	5.2409412e-08
56	0x3b68bb72	0.0035512117
57	0x3b18a546	0.002329187
58	0x34bd4955	3.525735e-07
59	0x3ba5acbd	0.0050559924
60	0x3b37d8cb	0.0028052803
61	0x3b973468	0.0046144016
62	0x3b6c8011	0.0036087076
63	0x3b021e12	0.001985435
64	0x3b927fc4	0.0044707973
65	0x3b7bea36	0.003843916
66	0x3a50941e	0.00079566415
67	0x3b33b38d	0.0027420253
68	0x3b761c78	0.003755359
69	0x33787a51	5.7853246e-08
70	0x3458ae15	2.0179898e-07
71	0x3b4036e0	0.0029329583
72	0x3b1f95f0	0.0024350844
73	0x323838d1	1.0723128e-08
74	0x3b45a329	0.0030157065
75	0x3616bcc1	2.246161e-06
76	0x3b9609c7	0.0045788023
77	0x3620c686	2.3957414e-06
78	0x35810e3e	9.615394e-07
79	0x33052b37	3.100578e-08
80	0x3bcd7b54	0.0062708054
81	0x3bc88d3c	0.006120352
82	0x3b2eb1ee	0.0026656347
83	0x32d8cd66	2.5239114e-08
84	0x3bf49de6	0.007465112
85	0x3ab11f95	0.001351344
86	0x3b1e78aa	0.0024180808
87	0x3459601a	2.0244661e-07
88	0x3b57ddfb	0.0032938707
89	0x3ac5e535	0.0015098216
90	0x3b6d1027	0.0036172958
91	0x3bb7023b	0.0055849827
92	0x3bc19a0c	0.0059082564
93	0x342c252d	1.6032273e-07
94	0x3b53cf54	0.0032319622
95	0x3b5c43e5	0.0033609804
96	0x35c35e01	1.4555991e-06
97	0x3b062279	0.0020467325
98	0x359098b9	1.0773284e-06
99	0x338146ec	6.019931e-08
100	0x352494f6	6.131153e-07
101	0x32936d4d	1.7162757e-08
102	0x332796ed	3.9019984e-08
103	0x33e7762c	1.0778271e-07
104	0x3a160af1	0.00057236763
105	0x36447740	2.9275689e-06
106	0x3330dcd4	4.1179035e-08
107	0x3b42fe4b	0.0029753621
108	0x3aec1c1a	0.0018013746
109	0x3b14992d	0.0022674308
110	0x3438cc32	1.7210621e-07
111	0x346a5f2f	2.1827576e-07
112	0x3b7f2dd8	0.0038937237
113	0x334b55df	4.734272e-08
114	0x32aa5490	1.982906e-08
115	0x334ced2c	4.7713158e-08
116	0x3b49cfda	0.0030794055
117	0x3b4f7fee	0.0031661945
118	0x3b5eb45d	0.0033982017
119	0x3a6a4331	0.0008936404
120	0x33478f82	4.6463818e-08
121	0x3609cfc2	2.0535522e-06
122	0x3abb5690	0.0014292765
123	0x3aeea7cc	0.0018207966
124	0x3b327c6f	0.0027234813
125	0x3b4c5924	0.0031181062
126	0x3bd3dff8	0.006465908
127	0x3af81675	0.0018927591
